checkpoint_critic.pth (torch_old, 92502 bytes, 13 tensors)

fcs1.weight f4 [128, 33]
0.20799732 -0.088901885 0.0019743408 -0.017569374 -0.012166541 0.04548424 0.09103865 -0.012527943
-0.04827862 0.09182826 -0.019489529 -0.00035612815 0.005760187 -0.23615739 0.09868473 -0.04013776
0.03943295 -0.033859175 -0.07073517 0.03988849 -0.0068872655 -0.00047610005 -0.024789697 -0.01914999
0.05531473 0.03002597 0.08474305 -0.031316563 0.024717463 0.051436536 -0.07002654 0.043947108
0.2120043 -0.053683706 0.1705749 0.07160677 0.0041885334 -0.04139725 0.06744299 0.089552194
0.028944314 0.09380454 0.015448404 -0.006329909 0.009661795 -0.039497446 0.03593227 -0.20827653
-0.14650975 -0.019968139 -0.011172569 -0.049059305 0.005236437 0.0047026095 0.0015143252 0.017796176
-0.021455247 -0.10587004 -0.010492016 -0.057824828 0.15342455 0.12120631 -0.0062565655 -0.115973145
0.06371734 -0.395669 0.06807247 -0.05697579 0.108803876 -0.036258373 0.09415705 -0.013887897
0.08367527 0.11562874 -0.12270401 -0.20418654 -0.15099728 -0.0073048277 -0.08806981 0.012723778
-0.16870253 -0.0727588 0.17759533 -0.1218679 0.039636403 0.08674487 -0.045800116 -0.10285237
0.06834659 -0.03796976 0.077132575 -0.14724542 0.049905658 0.041565664 -0.085665725 0.07066462
0.030810941 0.019325972 0.06210728 -0.017299533 -0.00049893325 0.03787705 0.033819295 0.020961348
0.1970424 0.008432113 0.010616742 -0.16000463 -0.19437613 -0.04949648 0.05468846 -0.02644421
-0.1901513 0.115938604 -0.07966302 -0.093620524 0.08173813 0.051667314 -0.021422556 -0.0076672873
-0.004614244 -0.0012525817 -0.14467165 0.07591989 -0.09362051 0.024313418 -0.04646823 -0.054518037
0.022576995 0.09585496 0.020363934 -0.21498506 0.017669281 0.022636797 0.04502214 -0.026616594
0.087444104 -0.106416725 0.053951126 0.062123455 -0.2450329 -0.16332938 -0.07960998 -0.06485455
-0.032446425 -0.1314234 -0.16618581 -0.10636594 -0.050733186 -0.051758323 -0.094483025 -0.18020067
-0.035836097 0.03210343 -0.024991473 -0.08178008 -0.015671127 -0.0647842 0.03296993 0.1513676
-0.069060035 0.07732453 -0.07879296 -0.019643568 0.15614526 -0.01528805 -0.07853067 -0.2041116
-0.019595815 -0.08653792 -0.13065675 -0.018335253 -0.040475152 0.022945674 -0.27325144 -0.110229366
0.008243481 0.02277737 -0.019840663 0.104203455 0.011916585 -0.06066655 0.1658383 0.16582395
-0.013244078 -0.012682576 0.0037341376 0.023481207 -0.09697673 -0.0019761897 0.016099622 -0.088429205
0.16064937 0.1058004 0.083109625 -0.14743492 0.057424925 0.4024406 -0.0005016224 0.12401463
0.12455602 -0.056415323 -0.080889694 -0.04142457 -0.008223968 0.006873269 0.24050647 -0.19251794
0.021705369 -0.0002205262 0.00021957008 0.028733784 -0.008076545 -0.10079008 -0.008459937 0.007085503
0.03070767 -0.057374552 0.07295798 -0.04211548 0.0049738344 -0.065617874 -0.0071054706 -0.013186232
0.08672984 0.19446902 0.056364253 -0.061703026 -0.21709755 -0.0024092123 -0.5415147 -0.055530418
0.15866652 -0.085135095 0.02941209 -0.029682182 -0.09076003 0.029968778 -0.012454963 0.03689069
0.13448936 0.031041846 -0.021343658 0.056823093 0.1493902 -0.119272925 0.07050183 -1.29206555e-05
-0.040221453 -0.08656942 -0.08402374 -0.01579804 -0.033270434 0.021363443 0.022979662 -0.073451534
00000000: 40fd 543e 3112 b6bd f163 013b a6ed 8fbc
00000010: 2c56 47bc af4d 3a3d 7972 ba3d 0042 4dbc
00000020: cdbf 45bd 7410 bc3d 81a8 9fbc b6b6 bab9
00000030: f3bf bc3b 3ed3 71be 381b ca3d 7e67 24bd
00000040: 7284 213d ebaf 0abd 9add 90bd 1d62 233d
00000050: 92ae e1bb 119d f9b9 c313 cbbc 71e0 9cbc
00000060: b391 623d 06f9 f53c c48d ad3d cc45 00bd
00000070: 477c ca3c 1eaf 523d 136a 8fbd e201 343d
00000080: a817 593e 72e3 5bbd 30ab 2e3e 92a6 923d
00000090: f73f 893b 2a90 29bd 8d1f 8a3d 2467 b73d
000000a0: a01c ed3c 981c c03d 4d1b 7d3c 206b cfbb
000000b0: 814c 1e3c 13c8 21bd b72d 133d 7146 55be
000000c0: a706 16be 3994 a3bc 270d 37bc 69f2 48bd
000000d0: 6b96 ab3b 5918 9a3b 527c c63a 49c9 913c
000000e0: eac2 afbc 64d2 d8bd b4e6 2bbc bad9 6cbd
000000f0: 531b 1d3e 043b f83d e003 cdbb 5483 edbd
00000100: 3d7e 823d 2195 cabe 9469 8b3d 725f 69bd
00000110: 91d4 de3d a983 14bd 69d5 c03d 108a 63bc
00000120: f15d ab3d c3ce ec3d 3d4c fbbd 4716 51be
00000130: 089f 1abe 565d efbb f25d b4bd 6577 503c
00000140: 5bc0 2cbe 9102 95bd 8ddb 353e e195 f9bd
00000150: c859 223d 4ba7 b13d e798 3bbd 43a4 d2bd
00000160: 4cf9 8b3d 2e86 1bbd aff7 9d3d 81c7 16be
00000170: e069 4c3d c240 2a3d 8371 afbd 9db8 903d
00000180: 3a67 fc3c 8051 9e3c 3464 7e3d c0b7 8dbc
00000190: d8ca 02ba f724 1b3d 1a86 0a3d 22b7 ab3c
000001a0: 7cc5 493e d826 0a3c d8f1 2d3c 41d8 23be
000001b0: 890a 47be d2bc 4abd 0201 603d 87a1 d8bc
000001c0: 06b7 42be 3871 ed3d 5e26 a3bd 1ebc bfbd
000001d0: 5266 a73d 1ba1 533d 5b7e afbc de3d fbbb
000001e0: 1633 97bb ab2d a4ba ce24 14be e37b 9b3d
000001f0: 1cbc bfbd ef2c c73c 7955 3ebd 4e4e 5fbd
00000200: 64f3 b83c 9b4f c43d 44d2 a63c 0b25 5cbe
00000210: 2bbf 903c ce70 b93c 2369 383d 0b0b dabc
00000220: e515 b33d 03f1 d9bd dbfb 5c3d 2a75 7e3d
00000230: e8e9 7abe d13f 27be 8f0a a3bd 76d2 84bd
00000240: 8be6 04bd db93 06be 9d2c 2abe 63d6 d9bd
00000250: 9acd 4fbd 8900 54bd 5180 c1bd 8686 38be
00000260: dfc8 12bd e37e 033d ebba ccbc 517c a7bd
00000270: bc60 80bc 94ad 84bd 7a0b 073d 1c00 1b3e
00000280: 596f 8dbd 535c 9e3d 345e a1bd 8ceb a0bc
00000290: 8be4 1f3e bb7a 7abc b0d4 a0bd a202 51be
000002a0: 6787 a0bc cb3a b1bd e2ca 05be d033 96bc
000002b0: 46c9 25bd 91f8 bb3c 9de7 8bbe efbf e1bd
000002c0: aa0f 073c 9b97 ba3c e388 a2bc 9f68 d53d
000002d0: c83d 433c 7d7d 78bd 84d1 293e c1cd 293e
000002e0: b0fd 58bc 94ca 4fbc 6fb8 743b a95b c03c
000002f0: bc9b c6bd f682 01bb 5be3 833c 5f1a b5bd
00000300: 4581 243e e1ad d83d 6135 aa3d 2ef9 16be
00000310: 6636 6b3d b20c ce3e 4f7f 03ba 62fb fd3d
00000320: 3a17 ff3d c113 67bd 7fa9 a5bd cfac 29bd
00000330: d2bd 06bc 2939 e13b 5447 763e 6c23 45be
00000340: 75cf b13c 0d3d 67b9 653c 6639 1d63 eb3c
00000350: 7c53 04bc 086b cebd 8c9b 0abc 822d e83b
00000360: a78e fb3c 9401 6bbd fe6a 953d 4881 2cbd
00000370: 8cfb a23b aa62 86bd 02d5 e8bb 110b 58bc
00000380: 6a9f b13d e322 473e 34de 663d 50bc 7cbd
00000390: d24e 5ebe e0e3 1dbb b5a0 0abf dd73 63bd
000003a0: 7a79 223e 4f5b aebd a0f1 f03c 0c28 f3bc
000003b0: 65e0 b9bd 1581 f53c e70f 4cbc b11a 173d
000003c0: 94b7 093e 784b fe3c e5d8 aebc 55bf 683d
000003d0: bff9 183e 5d45 f4bd 4363 903d cbc5 58b7
000003e0: 40bf 24bd 4f4b b1bd a314 acbd e46a 81bc
000003f0: 9446 08bd 6302 af3c d83f bc3c c26d 96bd

fcs1.bias f4 [128]
0.11403002 -0.035417438 -0.10364513 0.0854245 -0.18108244 -0.048952058 -0.042665534 -0.2318076
-0.1827808 0.13772416 -0.19063523 0.1510544 0.11132984 0.004590487 -0.20569022 0.041952472
-0.18947922 -0.05319599 -0.24780723 -0.08135522 -0.085843354 -0.0715186 -0.15561213 -0.16391453
-0.11982518 -0.14596958 -0.08435191 -0.19352922 -0.16814762 0.0844552 0.05962338 -0.19293588
-0.040904187 -0.1661176 -0.13558127 -0.043435883 -0.116206825 0.085164614 -0.32059097 -0.00043303712
0.084225796 -0.007933832 -0.10453976 0.038723595 -0.01577219 0.17082773 -0.10835244 0.03207121
0.13692564 0.08287229 -0.07164932 0.05966759 -0.013691686 -0.2160606 0.083513275 -0.106388934
-0.16217576 -0.035778783 -0.027685387 -0.10077527 -0.0010577104 0.04601955 -0.017088536 -0.22925164
-0.17438537 -0.15105511 -0.036470003 0.021228809 -0.08987969 -0.18975976 -0.26965237 -0.24151957
-0.006493754 -0.0974197 0.01098143 -0.086643375 -0.10359321 -0.2083533 0.073196374 -0.121965975
-0.081488274 0.06685756 0.084432594 0.03581671 0.101005375 -0.18175499 -0.0136144245 -0.06719733
-0.043698378 -0.08252921 -0.13887912 0.033711668 -0.15156165 -0.09191784 0.17501374 -0.03949901
-0.053810034 -0.227156 0.017213479 -0.05426961 -0.10740992 0.01310769 -0.09735423 -0.020123042
-0.089202575 -0.06367046 0.066425905 -0.24371117 -0.03515918 -0.040856414 -0.018280592 -0.13687967
0.012167254 -0.016949201 -0.1696098 -0.24705377 -0.012978404 0.031060673 0.0017765359 -0.03015802
-0.15823367 0.079357795 -0.019231964 0.14352743 -0.072208345 0.023299301 0.05590167 -0.09340608
00000000: 9288 e93d e011 11bd e643 d4bd 0af3 ae3d
00000010: ad6d 39be f481 48bd 0ec2 2ebd f95e 6dbe
00000020: e42a 3bbe 9007 0d3e e235 43be 01ae 1a3e
00000030: e600 e43d cc6b 963b 75a0 52be 5bd6 2b3d
00000040: d706 42be 0ae4 59bd 2ec1 7dbe 919d a6bd
00000050: a4ce afbd 5878 92bd c958 1fbe 36d9 27be
00000060: e766 f5bd 0d79 15be b2c0 acbd 862c 46be
00000070: e42e 2cbe d9f6 ac3d a537 743d fc90 45be
00000080: 268b 27bd bb1a 2abe d1d5 0abe d3e9 31bd
00000090: d8fd edbd c96a ae3d 8024 a4be 4209 e3b9
000000a0: 937e ac3d e7fc 01bc f118 d6bd a29c 1e3d
000000b0: ae34 81bc 77ed 2e3e e2e7 ddbd 1a5d 033d
000000c0: 3c36 0c3e f2b8 a93d e1bc 92bd 0166 743d
000000d0: 1853 60bc fd3e 5dbe 0209 ab3d 71e2 d9bd
000000e0: 6711 26be c68c 12bd 77cc e2bc 4463 cebd
000000f0: dfa2 8aba ff7e 3c3d 42fd 8bbc f1c0 6abe
00000100: 1492 32be 31ae 1abe 9261 15bd 0ae8 ad3c
00000110: d812 b8bd 6250 42be e00f 8abe e850 77be
00000120: 8fc9 d4bb fb83 c7bd 75eb 333c 1572 b1bd
00000130: ad28 d4bd 915a 55be fbe7 953d 4cc9 f9bd
00000140: 53e3 a6bd 9eec 883d ffea ac3d 8bb4 123d
00000150: e8db ce3d fb1d 3abe 090f 5fbc c19e 89bd
00000160: 12fd 32bd 1305 a9bd 5436 0ebe 3f15 0a3d
00000170: fa32 1bbe 6c3f bcbd cd36 333e b7c9 21bd
00000180: e967 5cbd 959b 68be 4803 8d3c d049 5ebd
00000190: bbf9 dbbd a3c1 563c a861 c7bd 14d9 a4bc
000001a0: d7af b6bd a865 82bd 4e0a 883d 6c8f 79be
000001b0: 1303 10bd 0e59 27bd 2ec1 95bc 2f2a 0cbe
000001c0: 2a59 473c 0dd9 8abc 31ae 2dbe aafb 7cbe
000001d0: 5fa3 54bc f472 fe3c a7da e83a f40d f7bc
000001e0: 0208 22be 5786 a23d 5a8c 9dbc dbf8 123e
000001f0: f8e1 93bd 2dde be3c 26f9 643d b04b bfbd

fc2.weight f4 [128, 132]
-0.05007146 -0.07855637 0.0027620895 0.028662333 -0.07843644 0.022138527 -0.089863144 -0.0752976
0.11087675 -0.060769103 0.06243909 0.04313165 -0.049754746 -0.05194083 -0.08777189 0.051479705
-0.061997667 -0.1960005 0.037650958 0.005481548 0.031219851 -0.06859379 0.085828096 -0.1723532
0.0036433176 -0.0472829 0.056284368 0.076718725 0.051545743 -0.008312937 -0.051386423 0.0023037738
0.093919784 -0.04000448 0.10248271 -0.028740674 0.017229352 -0.07093146 -0.09432277 -0.017691245
-0.028646525 0.096906155 -0.030460166 0.032598734 -0.20622332 0.023065893 0.08284528 0.112559475
-0.044166837 -0.0386309 0.097436614 -0.0494063 -0.115539186 0.058022957 -0.0040117586 -0.2115054
-0.07870156 -0.00013043391 0.046700187 0.012664928 0.047694314 0.055020124 0.089440964 0.016137345
0.09142586 -0.1846237 0.009509616 0.015411505 0.020949326 -0.116898425 0.046663906 0.007347486
0.06150719 0.05180489 -0.049285226 -0.061335523 0.026282178 -0.13833188 -0.07053013 -0.037993517
0.08784107 0.09660772 0.0522004 -0.21173361 0.11509153 0.0077199647 0.08731523 0.053202577
0.018798774 -0.037963673 -0.059427194 -0.022621306 0.06971828 -0.038162157 0.109564155 0.06258042
-0.08728151 -0.17790689 0.0905355 -0.07370042 -0.12365046 0.13117884 -0.062274702 -0.13754497
0.14885809 -0.0037737798 -0.016108338 -0.017861763 -0.15659565 0.10634753 -0.029108735 -0.12273908
-0.17552936 0.18907937 -0.069063045 -0.053408884 -0.06910514 -0.1206661 0.06891283 -0.029999092
-0.24377714 -0.04010981 0.042010594 -0.029263364 0.07590556 0.025604302 0.039577786 -0.049358256
0.035949457 0.0155887185 -0.07696593 0.05170052 -0.04225358 -0.022953538 0.011176932 0.017329311
-0.07502722 0.046974286 0.03509304 -0.0905029 -0.10014569 -0.024092356 -0.10959304 -0.01433357
-0.10079866 -0.020672997 0.034831967 0.010006092 0.07516173 -0.062331952 -0.122400016 -0.06866245
0.057414405 -0.038004454 0.17151321 -0.015632147 -0.014817303 -0.04122155 -0.07377407 0.053725205
0.09936241 -0.0253687 -0.071341865 0.029059364 -0.00084397045 0.031214112 -0.107049584 -0.08593671
-0.0014322639 -0.07534408 0.05250021 -0.08026683 -0.041513674 0.14429858 0.08600419 0.060135353
-0.12581043 -0.08379059 0.030261083 0.0010270785 -0.1496382 0.19158775 -0.02850895 -0.01750386
0.06235347 -0.02749733 -0.09947651 0.020443821 0.052452862 -0.1987045 -0.079531044 0.12409999
0.07130303 0.008740306 -0.012033657 0.07864523 -0.041178435 0.040056497 0.0995412 0.067945436
-0.1483463 -0.105543785 0.025132023 -0.14912497 -0.12199787 0.10009341 -0.063517995 -0.12047839
-0.0003215607 -0.008025613 -0.040525295 -0.0021856194 -0.03722367 -0.14500599 -0.052200787 -0.08026214
0.112807274 -0.038531397 -0.02507501 0.105786994 -0.028605588 0.16173497 -0.10869912 0.049516432
0.1354554 0.0025775703 -0.19146013 0.03105353 -0.021676905 -0.07806768 -0.10006178 0.040887337
-0.06295756 0.07243047 -0.009594307 -0.014993244 0.1378067 -0.14657514 -0.037673604 0.032122195
-0.15800284 -0.009180745 0.11307518 -0.05019339 -0.044403017 0.13696916 -0.029563233 -0.018087657
0.2492617 0.07423056 -0.07613937 0.06142524 -0.19420232 -0.04333632 -0.07815289 0.062305205
00000000: bb17 4dbd 2ae2 a0bd 2c04 353b 45cd ea3c
00000010: 49a3 a0bd db5b b53c 2b0a b8bd a135 9abd
00000020: 5913 e33d 06e9 78bd 22c0 7f3d d0aa 303d
00000030: a2cb 4bbd e8bf 54bd c0c1 b3bd 62dc 523d
00000040: 44f1 7dbd 5bb4 48be e437 1a3d 8f9e b33b
00000050: c6c0 ff3c e77a 8cbd a4c6 af3d 5b7d 30be
00000060: bac4 6e3b b7ab 41bd 708a 663d b51e 9d3d
00000070: a121 533d fc32 08bc 927a 52bd e9fa 163b
00000080: 0459 c03d bddb 23bd 74e2 d13d 9071 ebbc
00000090: 9224 8d3c 8344 91bd 4c2c c1bd 3bed 90bc
000000a0: 1eac eabc bc76 c63d 9987 f9bc 4086 053d
000000b0: 352c 53be aff4 bc3c c9aa a93d 9585 e63d
000000c0: 49e8 34bd 6f3b 1ebd d98c c73d 435e 4abd
000000d0: cf9f ecbd 7ba9 6d3d 1275 83bb df94 58be
000000e0: 492e a1bd 16c5 08b9 b248 3f3d 8f80 4f3c
000000f0: 1d5b 433d c85c 613d d32c b73d 7732 843c
00000100: 7b3d bb3d ff0d 3dbe 38ce 1b3c 8980 7c3c
00000110: ec9d ab3c 7168 efbd a722 3f3d 2ec3 f03b
00000120: f7ee 7b3d 5d31 543d 4edf 49bd f53a 7bbd
00000130: b94d d73c dfa6 0dbe 1a72 90bd 179f 1bbd
00000140: 05e6 b33d 45da c53d 16d0 553d b2d0 58be
00000150: 1cb5 eb3d c2f7 fc3b 54d2 b23d f2ea 593d
00000160: e3ff 993c cc7f 1bbd ee69 73bd 5150 b9bc
00000170: 75c8 8e3d ec4f 1cbd 2c63 e03d 2a2a 803d
00000180: a6c0 b2bd 392d 36be ad6a b93d 3ff0 96bd
00000190: 743c fdbd bf53 063e c213 7fbd 97d8 0cbe
000001a0: 416e 183e 8551 77bb a2f5 83bc d552 92bc
000001b0: 9c5a 20be bccc d93d 7175 eebc a05e fbbd
000001c0: f8bd 33be 069e 413e ed70 8dbd 46c3 5abd
000001d0: ff86 8dbd ca1f f7bd 2b22 8d3d a8c0 f5bc
000001e0: b7a0 79be 2f4a 24bd 4d13 2c3d b9b9 efbc
000001f0: 6074 9b3d 1dc0 d13c 511c 223d e22b 4abd
00000200: bd3f 133d d367 7f3c 50a0 9dbd edc3 533d
00000210: 1712 2dbd 0f09 bcbc 731f 373c 33f6 8d3c
00000220: dfa7 99bd 1c68 403d b8bd 0f3d 9659 b9bd
00000230: 2f19 cdbd 555d c5bc 5172 e0bd 5ad7 6abc
00000240: 876f cebd 6b5a a9bc f7ab 0e3d 97f0 233c
00000250: 65ee 993d ca4f 7fbd dcac fabd e69e 8cbd
00000260: 5e2b 6b3d 8faa 1bbd 29a1 2f3e fd0e 80bc
00000270: 46c4 72bc eed7 28bd dc16 97bd f60e 5c3d
00000280: 857e cb3d 05d2 cfbc af1b 92bd e70d ee3c
00000290: e63d 5dba bdb4 ff3c d03c dbbd 96ff afbd
000002a0: cdba bbba ff4d 9abd 760a 573d f062 a4bd
000002b0: 3e0a 2abd 02c3 133e f722 b03d 7d50 763d
000002c0: 73d4 00be 679a abbd 17e6 f73c 099f 863a
000002d0: c23a 19be 942f 443e 9a8b e9bc 4164 8fbc
000002e0: 5a66 7f3d 1542 e1bc 57ba cbbd cd79 a73c
000002f0: d0d8 563d 3179 4bbe 2ce1 a2bd 2328 fe3d
00000300: 5307 923d 8033 0f3c d128 45bc c010 a13d
00000310: b8aa 28bd 4812 243d 42dc cb3d fa26 8b3d
00000320: 18e8 17be 5727 d8bd ace1 cd3c 37b4 18be
00000330: 05da f9bd c6fd cc3d b915 82bd 60bd f6bd
00000340: 2697 a8b9 dc7d 03bc dafd 25bd 9c3c 0fbb
00000350: d977 18bd 737c 14be 7ed0 55bd 7a60 a4bd
00000360: 8007 e73d 19d3 1dbd 1b6a cdbc daa6 d83d
00000370: 4456 eabc da9d 253e a59d debd bed1 4a3d
00000380: d2b4 0a3e 74ec 283b 200e 44be f963 fe3c
00000390: c493 b1bc f3e1 9fbd 31ed ccbd 7b79 273d
000003a0: e5ef 80bd 6d56 943d 7131 1dbc 39a6 75bc
000003b0: 331d 0d3e cb17 16be a34f 1abd 9092 033d
000003c0: 7fcb 21be d66a 16bc f693 e73d 9697 4dbd
000003d0: f0df 35bd a541 0c3e 982e f2bc 912c 94bc
000003e0: 763e 7f3e 3106 983d f5ee 9bbd 0899 7b3d
000003f0: f9dc 46be 6d81 31bd 9f0e a0bd be33 7f3d

fc2.bias f4 [128]
-0.24313909 -0.17984156 0.1342491 -0.11297082 -0.22927076 -0.26944888 -0.12286054 0.112553254
-0.22840352 -0.20270781 0.1351147 0.191118 -0.18228589 -0.18093501 -0.15878454 -0.20491695
0.30967802 0.22491431 -0.031704623 -0.033386234 0.069765806 -0.26908508 -0.2413164 -0.00046021104
0.08135425 -0.046895064 -0.2531112 0.0015969136 -0.020335726 0.08788844 0.008650295 0.08175648
-0.2578828 -0.06999473 -0.09901161 -0.25328243 -0.021101585 0.082606845 -0.19439873 -0.23585
0.31568038 -0.14579313 -0.09729053 -0.21153669 0.083466694 0.20320466 -0.19112593 0.11138084
0.2362589 -0.13196218 -0.010154635 0.108554296 -0.20154366 0.15412143 -0.011366959 -0.059917822
-0.1567483 -0.20382619 -0.18686834 0.16429104 0.14251891 0.20980142 -0.08068485 -0.18087061
0.118447594 -0.2584377 -0.23298106 -0.23592553 -0.14960243 0.06854756 -0.2471006 -0.20510203
-0.052530557 0.14033748 0.25448212 -0.15593396 0.23564059 -0.21932214 0.04994016 0.15385212
0.08122066 -0.12773903 0.11913236 0.031571582 0.2897007 -0.26247874 0.26863348 0.14118293
-0.122852705 0.098846555 0.08639347 0.27993706 0.1747533 0.2622328 -0.24440242 -0.20884582
0.10065521 0.10729485 -0.068612546 -0.0012730552 -0.21241629 0.23146895 -0.19193114 0.18085933
0.122167766 -0.27791682 -0.15768062 -0.24462059 -0.19775718 -0.31714982 -0.17017624 0.18841995
0.09342911 -0.21017313 -0.15929264 -0.020796051 0.1613688 0.2182367 -0.10073012 -0.115576945
-0.26151913 -0.17514281 0.022824178 -0.11092283 -0.14722395 -0.16886953 -0.25367936 -0.24872093
00000000: 74f9 78be 6328 38be 9978 093e 3f5d e7bd
00000010: f4c5 6abe 34f5 89be 4f9e fbbd 5282 e63d
00000020: 9de2 69be a392 4fbe 825b 0a3e 70b4 433e
00000030: 27a9 3abe 0747 39be 6a98 22be c0d5 51be
00000040: 1e8e 9e3e f04f 663e b5dc 01bd 01c0 08bd
00000050: 60e1 8e3d 85c5 89be a51b 77be 7b48 f1b9
00000060: 0f9d a63d 0a15 40bd cb97 81be 874f d13a
00000070: 1c97 a6bc dbfe b33d f8b9 0d3c f16f a73d
00000080: 3709 84be 6659 8fbd 99c6 cabd 3cae 81be
00000090: 3bdd acbc c72d a93d 7610 47be aa82 71be
000000a0: dca0 a13e cb4a 15be 4240 c7bd 139d 58be
000000b0: 96f0 aa3d e214 503e 84b6 43be a31b e43d
000000c0: daed 713e 1821 07be a05f 26bc b751 de3d
000000d0: 7661 4ebe 02d2 1d3e 7b3c 3abc 646c 75bd
000000e0: a082 20be d0b7 50be 6a5a 3fbe e93b 283e
000000f0: 7af0 113e 2fd6 563e 193e a5bd 2536 39be
00000100: a794 f23d f251 84be 9692 6ebe 7696 71be
00000110: 6131 19be aa62 8c3d f107 7dbe 4406 52be
00000120: 482a 57bd a1b4 0f3e 7b4b 823e 27ad 1fbe
00000130: c44b 713e fc95 60be 0e8e 4c3d 698b 1d3e
00000140: 0457 a63d 05ce 02be abfb f33d 3451 013d
00000150: a653 943e 9d63 86be 548a 893e 4292 103e
00000160: 339a fbbd 1070 ca3d 0fef b03d e953 8f3e
00000170: 87f2 323e 6143 863e a144 7abe aedb 55be
00000180: 5224 ce3d 67bd db3d bc84 8cbd a5dc a6ba
00000190: a883 59be 3206 6d3e 9989 44be 3033 393e
000001a0: 1833 fa3d 1d4b 8ebe 0777 21be d27d 7abe
000001b0: dc80 4abe 7661 a2be ae42 2ebe 29f1 403e
000001c0: c357 bf3d a037 57be 9c1d 23be 7b5c aabc
000001d0: dd3d 253e 7179 5f3e 984b cebd 9bb3 ecbd
000001e0: d6e5 85be a358 33be c5f9 ba3c 822b e3bd
000001f0: e0c1 16be 22ec 2cbe 43e2 81be b3b0 7ebe

fc3.weight f4 [1, 128]
-0.059143182 -0.06925279 0.049882445 0.047087498 -0.14988287 -0.17511341 -0.051245593 0.056338325
-0.1177587 -0.08855245 0.040002003 0.07725128 -0.109371945 -0.04729232 -0.055301663 -0.03906055
0.09864918 0.06620929 0.038319763 0.026928607 0.06151455 -0.09133149 -0.03410159 0.06285585
0.055314265 0.12699196 -0.07621449 0.035165675 0.063938014 0.050328206 0.011384917 0.04616556
-0.090880945 0.07041667 -0.08123535 -0.10225003 0.048300277 0.024526477 -0.10731856 -0.19303331
0.10577587 -0.036089905 -0.03470426 -0.10778998 0.030974288 0.07879466 -0.051950354 0.054839257
0.059795488 -0.0906794 0.04551915 0.0751804 -0.05710085 0.069393404 0.07835851 -0.03163202
0.06154226 -0.045506302 -0.09773473 0.05647563 0.038621243 0.04936218 0.06403418 -0.11968748
0.050752956 -0.1267529 -0.16744246 -0.052960053 -0.047412533 0.062065672 -0.112709105 -0.077375494
0.041160524 0.055215493 0.07107042 0.1076527 0.048425112 -0.046512116 0.049285997 0.0435511
0.045209855 0.08172577 0.040659856 0.037005555 0.11777782 -0.0697518 0.08921663 0.04710992
0.04839653 0.05007119 0.05547175 0.07922024 0.056139898 0.055156436 -0.074407466 -0.055314843
0.057357024 0.06478927 0.025951203 0.03541358 -0.050278537 0.05849757 -0.043456208 0.05221255
0.054238517 -0.10706363 -0.057659455 -0.045502577 -0.06864725 -0.17188686 -0.051616944 0.046012826
0.049418863 -0.050615415 -0.08650364 0.032026906 0.05593085 0.1019927 -0.05222866 -0.059007257
-0.06564739 -0.086029 0.056687657 0.04674092 -0.04426114 -0.073257186 -0.09835112 -0.14438058
00000000: 1f40 72bd 68d4 8dbd 8951 4c3d d2de 403d
00000010: e57a 19be ee50 33be e6e6 51bd 04c3 663d
00000020: 792b f1bd fd5a b5bd 24d9 233d eb35 9e3d
00000030: 66fe dfbd 97b5 41bd ff83 62bd f5fd 1fbd
00000040: 9508 ca3d bc98 873d 2ff5 1c3d 6299 dc3c
00000050: aef6 7b3d 010c bbbd 1cae 0bbd 91ba 803d
00000060: 3691 623d 2e0a 023e 5816 9cbd e209 103d
00000070: eff1 823d f324 4e3d ce87 3a3c 1918 3d3d
00000080: ca1f babd 9d36 903d b85e a6bd 7768 d1bd
00000090: 83d6 453d c0eb c83c d5c9 dbbd 86aa 45be
000000a0: 05a1 d83d 02d3 13bd 0e26 0ebd fec0 dcbd
000000b0: cabd fd3c 185f a13d e5c9 54bd 219f 603d
000000c0: 1dec 743d 1fb6 b9bd 4a72 3a3d 2ef8 993d
000000d0: 95e2 69bd 211e 8e3d 6d7a a03d 9490 01bd
000000e0: bd13 7c3d d164 3abd 2529 c8bd fd52 673d
000000f0: 4f31 1e3d ff2f 4a3d 5a24 833d b61e f5bd
00000100: 55e2 4f3d 83cb 01be 0976 2bbe a4ec 58bd
00000110: a533 42bd 9338 7e3d 08d4 e6bd 0b77 9ebd
00000120: f097 283d a429 623d 5e8d 913d 0579 dc3d
00000130: 6959 463d 7d83 3ebd 1de0 493d a362 323d
00000140: f82d 393d d75f a73d f38a 263d 2393 173d
00000150: 7f35 f13d 08da 8ebd 35b7 b63d 55f6 403d
00000160: 713b 463d 7317 4d3d 5936 633d 393e a23d
00000170: f3f2 653d b7eb 613d f162 98bd d191 62bd
00000180: 33ef 6a3d 3db0 843d 9e97 d43c d40d 113d
00000190: def0 4dbd 269b 6f3d 23ff 31bd d4dc 553d
000001a0: 3529 5e3d 2d44 dbbd 522c 6cbd e960 3abd
000001b0: ee96 8cbd 1c03 30be 4a6c 53bd f277 3c3d
000001c0: 6f6b 4a3d 1c52 4fbd d228 b1bd a52e 033d
000001d0: bf17 653d 8ce1 d03d b8ed 55bd 98b1 71bd
000001e0: 2472 86bd f92f b0bd 5131 683d 6873 3f3d
000001f0: 2b4b 35bd dd07 96bd 506c c9bd 81d8 13be

bn1.weight f4 [128]
0.45515954 0.6101659 0.56706065 0.65617174 0.4633803 0.34428605 0.19612126 0.17553121
0.11988419 0.7287885 0.602057 0.5264531 0.48791623 0.37595624 0.59888947 0.47271213
0.20443317 0.6240997 0.27997828 0.31329948 0.5822326 0.6771488 -0.011054571 0.4482284
0.7749969 0.25211757 0.39397648 0.2762887 0.13535239 0.60128874 0.40683997 0.35440236
0.7423403 0.24786529 0.21268508 0.6726811 0.30807754 0.39967003 0.6066259 0.6718045
0.18644024 0.6444796 0.9662321 0.48903927 0.17520708 0.64180225 0.43766016 0.4447343
0.5658173 0.22574852 0.32160765 0.64963114 0.25855696 0.5233375 0.58640075 0.26888824
0.37342504 0.12108111 0.8481067 0.20563057 0.6666318 0.2397592 0.5049213 0.30464044
1.0149606 0.229213 0.4636043 0.3510845 0.61134464 0.2812425 0.49786657 0.4386676
0.34297428 0.30248964 0.6321002 0.22389014 0.12865114 0.48021942 0.4755506 0.6366412
0.7189568 0.17061764 0.16873698 0.5610579 0.14304805 0.32346788 0.3226768 0.5163887
0.6313407 0.25951326 0.64638525 0.51893324 0.21192732 0.6975931 0.63739574 0.55698615
0.23701778 0.48321766 0.57893026 0.41740462 0.01681221 0.2443272 0.42647484 0.52558273
0.14318803 0.89596105 0.5091745 0.1944023 0.09008028 0.8006805 0.28789955 0.21944122
0.2954523 0.10560172 0.4140408 0.34278303 0.29895997 0.4004911 0.27248764 0.4715771
0.2834111 0.30444792 0.33576915 0.6518465 0.64617074 0.255446 0.20218013 0.62753505
00000000: ac0a e93e d533 1c3f e32a 113f dffa 273f
00000010: 2f40 ed3e 4346 b03e 03d4 483e 74be 333e
00000020: d885 f53d e291 3a3f 6820 1a3f a1c5 063f
00000030: 28d0 f93e 567d c03e d250 193f 5307 f23e
00000040: ee56 513e ffc4 1f3f 5059 8f3e ca68 a03e
00000050: 320d 153f a059 2d3f 3b1e 35bc 317e e53e
00000060: 3266 463f 8e15 813e 49b7 c93e b675 8d3e
00000070: d199 0a3e 0fee 193f 544d d03e 3a74 b53e
00000080: 040a 3e3f 66d0 7d3e 1eca 593e d434 2c3f
00000090: 57bc 9d3e 8da1 cc3e d64b 1b3f 61fb 2b3f
000000a0: 31ea 3e3e 9dfc 243f fd5a 773f 5b63 fa3e
000000b0: 7c69 333e 274d 243f fe14 e03e 37b4 e33e
000000c0: 67d9 103f 9f2a 673e c2a9 a43e 3a4e 263f
000000d0: 9461 843e 72f9 053f 5c1e 163f b8ab 893e
000000e0: 9131 bf3e 5ff9 f73d 851d 593f d290 523e
000000f0: 62a8 2a3f 7083 753e 8642 013f d5f9 9b3e
00000100: 3bea 813f d0b6 6a3e 8b5d ed3e 59c1 b33e
00000110: 1581 1c3f 04ff 8f3e 5ee8 fe3e 0a99 e03e
00000120: 539a af3e ecdf 9a3e 52d1 213f 7543 653e
00000130: 20bd 033e 52df f53e 5e7b f33e ebfa 223f
00000140: 8e0d 383f 64b6 2e3e 63c9 2c3e 7ea1 0f3f
00000150: 307b 123e 959d a53e e535 a53e 0d32 043f
00000160: 8b9f 213f ecde 843e 8179 253f cfd8 043f
00000170: 7a03 593e 7695 323f 5e2c 233f a596 0e3f
00000180: cab4 723e 4e68 f73e c634 143f 0fb6 d53e
00000190: c3b9 893c e930 7a3e e95a da3e 978c 063f
000001a0: e29f 123e b45d 653f 4359 023f 6611 473e
000001b0: 037c b83d 66f9 4c3f 9267 933e 33b5 603e
000001c0: 8645 973e b745 d83d 28fd d33e 4281 af3e
000001d0: 4811 993e 2b0d cd3e 8083 8b3e 8e72 f13e
000001e0: 421b 913e 99e0 9b3e efe9 ab3e 6adf 263f
000001f0: 726b 253f d1c9 823e 4f08 4f3e 23a6 203f

bn1.bias f4 [128]
0.046258144 -0.054302976 -0.1743665 -0.16154973 -0.018793646 -0.014701857 0.020517506 -0.06166708
0.03856085 0.042627297 -0.020459615 0.06602675 0.16389126 0.053817194 -0.02371623 -0.28860548
-0.16248842 -0.09190507 0.24204156 0.041957796 -0.17419963 -0.19378264 -0.28030965 -0.082406454
-0.1397903 0.08117133 -0.073643 -0.24852781 -0.26891723 0.33062115 -0.031145891 -0.15511972
-0.052356124 -0.03994501 -0.14737183 -0.021716611 0.1454916 -0.047764983 -0.004219795 -0.042273436
0.31361625 -0.19656795 -0.027018916 -0.114240326 0.21577072 -0.19866507 0.05502811 -0.14676325
-0.070381664 -0.1359091 0.002084721 0.031549618 -0.05220035 0.10986249 0.06040576 0.01830989
0.11039614 0.18147634 -0.17303729 -0.16554256 -0.07362957 -0.22122955 -0.01734926 -0.1744939
-0.043985803 0.20276871 -0.19936131 -0.11542728 0.072637364 0.17854446 -0.015884181 -0.10901338
0.11514115 -0.13473108 -0.10132592 0.07551239 -0.15394758 -0.21344535 -0.16262339 -0.07438035
0.07305559 0.022104671 0.12350817 -0.050175868 -0.24137448 -0.11608922 0.16999932 -0.05815716
0.025886634 0.12536666 -0.14905277 -0.25158906 -0.122344986 -0.041087527 -0.06860108 -0.10936974
0.026672695 -0.026827363 -0.14127357 -0.30318704 0.18922685 -0.12523454 0.013634415 -0.30876428
-0.10658957 -0.06518885 -0.13530657 -0.0884953 0.21499819 -0.037277497 -0.1523459 -0.022726104
0.19451158 -0.28453687 0.011402478 0.021966517 -0.25310877 0.043796763 -0.15303779 -0.07758883
-0.07870171 0.0022232211 -0.04268099 0.3203105 -0.3116842 -0.07476289 -0.16139267 -0.0856436
00000000: 2e79 3d3d cc6c 5ebd 228d 32be 4b6d 25be
00000010: 22f5 99bc 0fe0 70bc 5414 a83c 9f96 7cbd
00000020: fbf1 1d3d f699 2e3d ec9a a7bc 0839 873d
00000030: 1cd3 273e 6b6f 5c3d 8a48 c2bc 19c4 93be
00000040: 5d63 26be ba38 bcbd bed9 773e f0db 2b3d
00000050: 6361 32be f56e 46be bf84 8fbe b7c4 a8bd
00000060: 3025 0fbe 273d a63d 24d2 96bd 137e 7ebe
00000070: 85af 89be 2d47 a93e ab25 ffbc b4d7 1ebe
00000080: 6073 56bd 619d 23bd a4e8 16be 09e7 b1bc
00000090: c0fb 143e 37a5 43bd 3546 8abb e926 2dbd
000000a0: 4f92 a03e 1c49 49be c656 ddbc d5f6 e9bd
000000b0: 00f3 5c3e db6e 4bbe 2865 613d 1b49 16be
000000c0: 4324 90bd c12b 0bbe d19f 083b 2c3a 013d
000000d0: 09d0 55bd 96ff e03d 086c 773d 9ffe 953c
000000e0: 5f17 e23d efd4 393e b030 31be fd83 29be
000000f0: 1acb 96bd 008a 62be 0920 8ebc 87ae 32be
00000100: 752a 34bd 9aa2 4f3e 5f25 4cbe 2365 ecbd
00000110: e6c2 943d 5cd4 363e 8b1f 82bc 6842 dfbd
00000120: 20cf eb3d f2f6 09be f783 cfbd 3da6 9a3d
00000130: 6fa4 1dbe 6b91 5abe bf86 26be ba54 98bd
00000140: 2b9e 953d db14 b53c daf1 fc3d 3685 4dbd
00000150: df2a 77be 2fc0 edbd 4d14 2e3e 3436 6ebd
00000160: 3510 d43c 1e60 003e 4aa1 18be 48d0 80be
00000170: 0290 fabd 654b 28bd b97e 8cbd 3efd dfbd
00000180: b280 da3c 0fc5 dbbc 05aa 10be 553b 9bbe
00000190: afc4 413e 7c3d 00be e262 5f3c 5a16 9ebe
000001a0: a24b dabd bb81 85bd ce8d 0abe 063d b5bd
000001b0: 7c28 5c3e 4ab0 18bd 9000 1cbe 182c babc
000001c0: 0b2e 473e d1ae 91be 76d1 3a3c 20f3 b33c
000001d0: 7997 81be 3c64 333d f0b5 1cbe e4e6 9ebd
000001e0: 5d2e a1bd 76b3 113b 43d2 2ebd bdff a33e
000001f0: 1295 9fbe 491d 99bd 1f44 25be e965 afbd

bn1.running_mean f4 [128]
0.071912915 0.1855375 0.70830375 0.25039747 0.37606382 0.0911696 0.053968273 0.12729213
0.22616903 0.35364744 0.36656526 0.43277872 0.8146412 0.7151002 0.18450943 0.29758307
0.059775375 0.056073852 0.3815417 0.10784377 0.05838636 0.4824183 0.0038004413 0.03616602
0.07845269 0.20605356 0.2812155 0.3036881 0.60797393 1.2926369 0.1151041 0.13193531
0.41099477 0.07733844 0.11945863 0.07068221 0.5365052 0.08257883 0.18632713 0.124386095
1.0474414 0.16348663 0.1277874 0.12432808 0.09094345 0.46145377 0.31684896 0.46579257
0.3047803 0.84465116 0.0073766643 0.19343998 0.2596473 0.3426835 0.11321445 0.02446231
0.41083074 0.24265336 0.067688316 0.43173453 0.109185115 0.0792073 0.07480387 0.020480182
0.21203014 0.76173306 0.42239368 0.05930857 0.08280105 0.18420888 0.41350794 0.0696441
0.13466895 0.170002 0.11028241 0.23069806 0.18565495 0.14150718 0.67733157 0.1732662
0.3426272 0.09463816 0.81654584 0.110791035 0.46136963 0.08824423 0.7944421 0.5080517
0.20254734 0.29161373 0.15324336 0.06702919 0.4816787 0.11343624 0.33447704 0.192802
0.40210065 0.30214435 0.2373525 0.9593353 0.17722522 0.14157605 0.08957649 0.56223285
0.36896232 0.104808316 0.34825787 0.10834975 0.7398135 0.19113329 0.20910001 0.09294683
0.22828372 0.6811817 0.04722988 0.109703906 0.07903592 0.304926 0.095172636 0.2346038
0.08236194 0.22458601 0.07412195 0.5088544 0.115229726 0.41061625 0.50444657 0.19984266
00000000: 1447 933d 8bfd 3d3e 6553 353f 1934 803e
00000010: 708b c03e 21b7 ba3d d60d 5d3d de58 023e
00000020: db98 673e 4711 b53e 71ae bb3e 2c95 dd3e
00000030: 538c 503f cf10 373f 0af0 3c3e cf5c 983e
00000040: 06d7 743d b2ad 653d 6f59 c33e 32dd dc3d
00000050: 8926 6f3d 88ff f63e d310 793b d222 143d
00000060: ceab a03d b4ff 523e 7afb 8f3e 027d 9b3e
00000070: 2ea4 1b3f 2075 a53f b3bb eb3d 0d1a 073e
00000080: e86d d23e 9e63 9e3d baa6 f43d d6c1 903d
00000090: 6858 093f 171f a93d 8acc 3e3e 23be fe3d
000000a0: 8f12 863f 0a69 273e b3da 023e b89f fe3d
000000b0: 8f40 ba3d ab43 ec3e 073a a23e 5d7c ee3e
000000c0: 2a0c 9c3e 0f3b 583f f2b7 f13b 2115 463e
000000d0: 7ef0 843e 3674 af3e fadc e73d 2f65 c83c
000000e0: 6858 d23e 1f7a 783e 2ca0 8a3d 4f0c dd3e
000000f0: 729c df3d 7037 a23d c532 993d 0ec6 a73c
00000100: 6e1e 593e f000 433f fc43 d83e 8bed 723d
00000110: 9993 a93d 41a1 3c3e 50b7 d33e 91a1 8e3d
00000120: a8e6 093e 0115 2e3e bfdb e13d 1d3c 6c3e
00000130: 551c 3e3e 42e7 103e 9a65 2d3f b26c 313e
00000140: d56c af3e a7d1 c13d 2609 513f 69e6 e23d
00000150: a438 ec3e 64b9 b43d 8f60 4b3f ad0f 023f
00000160: 9268 4f3e 654e 953e d4eb 1c3e 9a46 893d
00000170: 979e f63e 4251 e83d 9340 ab3e e36d 453e
00000180: 23e0 cd3e aab2 9a3e 890c 733e 0097 753f
00000190: 877a 353e 50f9 103e e173 b73d 7eee 0f3f
000001a0: a1e8 bc3e bea5 d63d db4e b23e 79e6 dd3d
000001b0: 6b64 3d3f 72b8 433e 501e 563e e85a be3d
000001c0: 35c3 693e ed61 2e3f 1e74 413d 71ac e03d
000001d0: 96dd a13d 431f 9c3e dfe9 c23d fb3b 703e
000001e0: 60ad a83d e0f9 653e 40cd 973d 4844 023f
000001f0: 90fd eb3d 4b3c d23e 6923 013f 8ea3 4c3e

bn1.running_var f4 [128]
0.01797866 0.085440144 0.47571772 0.17664689 0.26715273 0.056342416 0.022457087 0.043049388
0.080846325 0.19307478 0.20897137 0.35480234 0.68676966 0.29671603 0.110252395 0.23107347
0.021429768 0.018924978 0.26131475 0.051331613 0.017560666 0.34679192 0.0025823184 0.01091945
0.024677249 0.14340419 0.21782579 0.31004298 0.5621045 0.19069692 0.14655025 0.07452406
0.33521852 0.03795551 0.09048667 0.030246306 0.41890144 0.029733581 0.09688594 0.07688907
1.133192 0.07529869 0.071054235 0.04538277 0.056125324 0.42085102 0.11265822 0.1112418
0.1902391 0.5711456 0.0013385218 0.16046932 0.111738496 0.23525362 0.046080016 0.0089160595
0.33368817 0.17496336 0.02869346 0.43926397 0.033766422 0.03693306 0.020093303 0.009489826
0.09106868 0.795265 0.3059627 0.020212635 0.021025574 0.07716023 0.37124082 0.031980254
0.081952855 0.06136191 0.034881238 0.15898062 0.12229495 0.055808015 0.6446874 0.12950695
0.13256402 0.060926598 0.3370234 0.035947453 0.5328719 0.08042211 0.6750682 0.48412243
0.05350564 0.13164599 0.038427968 0.02418276 0.1924659 0.035689536 0.045595758 0.09496133
0.42287838 0.18909417 0.09578869 0.92535955 0.12542313 0.12042176 0.040959876 0.47815168
0.24375005 0.04832901 0.21012281 0.0643662 0.83711463 0.07052833 0.19141142 0.05302789
0.121970594 0.4558597 0.033334393 0.04802015 0.029821057 0.16078427 0.037966 0.06617217
0.031240826 0.1165868 0.034852173 0.12062578 0.07752456 0.26377907 0.43718854 0.07322116
00000000: fc47 933c 3efb ae3d 4691 f33e ece2 343e
00000010: 3ec8 883e 4ec7 663d edf7 b73c 8e54 303d
00000020: c292 a53d 65b5 453e 97fc 553e a7a8 b53e
00000030: 23d0 2f3f 2aeb 973e 02cc e13d 869e 6c3e
00000040: 7b8d af3c 8e08 9b3c 0ccb 853e 1941 523d
00000050: 63db 8f3c b68e b13e 1d3c 293b 7ee7 323c
00000060: f127 ca3c 8cd8 123e b90d 5f3e f4bd 9e3e
00000070: 15e6 0f3f 0e46 433e 4511 163e 12a0 983d
00000080: c3a1 ab3e 3d77 1b3d 1351 b93d 1ac7 f73c
00000090: 407a d63e d793 f33c 236c c63d 0478 9d3d
000000a0: 6f0c 913f 3336 9a3d e284 913d 49e3 393d
000000b0: abe3 653d c979 d73e 5ab9 e63d bed2 e33d
000000c0: 0ace 423e 9936 123f 5771 af3a 1252 243e
000000d0: 27d7 e43d 53e6 703e 66be 3c3d aa14 123c
000000e0: 2dd9 aa3e 9829 333e 8c0e eb3c 35e7 e03e
000000f0: a94e 0a3d 1f47 173d b69a a43c 377b 1b3c
00000100: 3782 ba3d 7d96 4b3f 25a7 9c3e f894 a53c
00000110: d33d ac3c 2f06 9e3d 4713 be3e bafd 023d
00000120: e6d6 a73d a056 7b3d a1df 0e3d d1cb 223e
00000130: c675 fa3d f296 643d 3c0a 253f 789d 043e
00000140: ddbe 073e 2b8e 793d 558e ac3e a33d 133d
00000150: 4b6a 083f 59b4 a43d 45d1 2c3f e5de f73e
00000160: bb28 5b3d 35ce 063e a566 1d3d ec1a c63c
00000170: c815 453e 312f 123d 9ec2 3a3d 167b c23d
00000180: 8483 d83e e7a1 413e dc2c c43d 5de4 6c3f
00000190: ec6e 003e af9f f63d 8bc5 273d 4cd0 f43e
000001a0: 9d99 793e a4f4 453d 6f2a 573e 6dd2 833d
000001b0: 254d 563f 2871 903d 5b01 443e c633 593d
000001c0: b8cb f93d 7166 e93e a589 083d c7b0 443d
000001d0: 4a4b f43c a2a4 243e 3d82 1b3d 4685 873d
000001e0: c3ec ff3c 0fc5 ee3d 27c1 0e3d a60a f73d
000001f0: 32c5 9e3d 0d0e 873e 2dd7 df3e faf4 953d

bn2.weight f4 [128]
0.38483793 0.11289477 0.83515674 0.8138465 0.2253794 0.91087806 0.7828277 0.34502816
0.5785117 0.43017137 0.5039123 0.50565124 0.08559483 0.048012853 0.4001714 0.31695753
0.7860345 0.8118458 0.20101291 0.79924244 0.43141937 0.67403907 0.7452824 0.80205816
0.71422124 0.9190048 0.8445023 0.87292147 0.48822385 0.3175882 0.7746041 0.6716264
0.6916142 0.6557327 0.06863493 0.84632593 0.29358333 0.55708003 0.041330397 0.5384635
0.27537364 0.8182882 0.33263916 0.76670957 0.97147113 0.47367644 0.30381036 0.04137945
0.44220275 0.5664756 0.779842 0.6655139 0.7245936 0.47277862 0.41416842 0.3328939
0.41961294 0.92294997 0.5976726 0.017557085 0.028943181 0.4173938 0.43608838 0.6705102
0.44377404 0.82705516 0.59219307 0.70161533 0.35148495 0.22365725 0.4017042 0.18570095
0.97699875 0.033117414 0.16404784 0.037877977 0.0075499415 0.9841796 0.99446315 0.3356833
0.9646333 0.26801634 0.34174234 0.94920003 0.5801243 0.4893539 0.46912462 0.8044833
0.7091211 0.72182643 0.12195629 0.23295385 0.96404904 0.4999678 0.11417377 0.3122834
0.71774954 0.9766862 0.28222317 0.1152401 0.71762353 0.64479464 0.4672966 0.18903506
0.18119138 0.8361359 0.6528265 0.3002144 0.3749181 0.627105 0.67441094 0.7559352
0.5863925 0.21398145 0.58417434 0.050682902 0.061553657 0.8560863 0.10410309 0.5273439
0.19914848 0.74487597 0.0723964 0.036884606 0.79995793 0.13066077 0.020426631 0.8249837
00000000: 7a09 c53e 6035 e73d d5cc 553f 3f58 503f
00000010: dcc9 663e 4e2f 693f 6567 483f 88a7 b03e
00000020: 5819 143f 6c3f dc3e 6600 013f 5c72 013f
00000030: 584c af3d 20a9 443d 44e3 cc3e 4248 a23e
00000040: 8f39 493f 20d5 4f3f 54d6 4d3e 279b 4c3f
00000050: 00e3 dc3e d38d 2c3f d4ca 3e3f af53 4d3f
00000060: 34d7 363f e643 6b3f 4d31 583f c877 5f3f
00000070: 7af8 f93e ec9a a23e 744c 463f b5ef 2b3f
00000080: a10d 313f 19de 273f 7890 8c3d d1a8 583f
00000090: 8e50 963e cc9c 0e3f 104a 293d bed8 093f
000000a0: c6fd 8c3e 567b 513f ae4f aa3e 1447 443f
000000b0: 55b2 783f b885 f23e 088d 9b3e 807d 293d
000000c0: 6668 e23e 8b04 113f baa3 473f 1e5f 2a3f
000000d0: f77e 393f 0a10 f23e e20d d43e 1271 aa3e
000000e0: 82d7 d63e 7346 6c3f 1201 193f e0d3 8f3c
000000f0: 401a ed3c a4b4 d53e fa46 df3e 8ea6 2b3f
00000100: 5a36 e33e e3b9 533f f799 173f 109d 333f
00000110: d6f5 b33e 6806 653e 2cac cd3e 6428 3e3e
00000120: 971c 7a3f 20a6 073d 28fc 273e f025 1b3d
00000130: 8065 f73b 32f3 7b3f 2395 7e3f aede ab3e
00000140: 35f2 763f 7039 893e daf8 ae3e c6fe 723f
00000150: 0783 143f 988c fa3e 1a31 f03e 9ef2 4d3f
00000160: f688 353f 9ec9 383f 38c4 f93d 748b 6e3e
00000170: ebcb 763f c8fb ff3e f0d3 e93d 9ce3 9f3e
00000180: 6fbe 373f 1b08 7a3f 8e7f 903e 0003 ec3d
00000190: 2db6 373f 4311 253f 8041 ef3e 6892 413e
000001a0: 3c8a 393e 010d 563f a31f 273f b4b5 993e
000001b0: 44f5 bf3e f489 203f 32a6 2c3f f884 413f
000001c0: d21d 163f f41d 5b3e 738c 153f e098 4f3d
000001d0: b01f 7c3d 7928 5b3f 0034 d53d 0300 073f
000001e0: 94ed 4b3e 31b0 3e3f 9044 943d 5014 173d
000001f0: 0bca 4c3f f0cb 053e c055 a73c 2232 533f

bn2.bias f4 [128]
0.0 0.0 0.0 0.0 0.0 0.0 0.0 0.0
0.0 0.0 0.0 0.0 0.0 0.0 0.0 0.0
0.0 0.0 0.0 0.0 0.0 0.0 0.0 0.0
0.0 0.0 0.0 0.0 0.0 0.0 0.0 0.0
0.0 0.0 0.0 0.0 0.0 0.0 0.0 0.0
0.0 0.0 0.0 0.0 0.0 0.0 0.0 0.0
0.0 0.0 0.0 0.0 0.0 0.0 0.0 0.0
0.0 0.0 0.0 0.0 0.0 0.0 0.0 0.0
0.0 0.0 0.0 0.0 0.0 0.0 0.0 0.0
0.0 0.0 0.0 0.0 0.0 0.0 0.0 0.0
0.0 0.0 0.0 0.0 0.0 0.0 0.0 0.0
0.0 0.0 0.0 0.0 0.0 0.0 0.0 0.0
0.0 0.0 0.0 0.0 0.0 0.0 0.0 0.0
0.0 0.0 0.0 0.0 0.0 0.0 0.0 0.0
0.0 0.0 0.0 0.0 0.0 0.0 0.0 0.0
0.0 0.0 0.0 0.0 0.0 0.0 0.0 0.0
00000000: 0000 0000 0000 0000 0000 0000 0000 0000
00000010: 0000 0000 0000 0000 0000 0000 0000 0000
00000020: 0000 0000 0000 0000 0000 0000 0000 0000
00000030: 0000 0000 0000 0000 0000 0000 0000 0000
00000040: 0000 0000 0000 0000 0000 0000 0000 0000
00000050: 0000 0000 0000 0000 0000 0000 0000 0000
00000060: 0000 0000 0000 0000 0000 0000 0000 0000
00000070: 0000 0000 0000 0000 0000 0000 0000 0000
00000080: 0000 0000 0000 0000 0000 0000 0000 0000
00000090: 0000 0000 0000 0000 0000 0000 0000 0000
000000a0: 0000 0000 0000 0000 0000 0000 0000 0000
000000b0: 0000 0000 0000 0000 0000 0000 0000 0000
000000c0: 0000 0000 0000 0000 0000 0000 0000 0000
000000d0: 0000 0000 0000 0000 0000 0000 0000 0000
000000e0: 0000 0000 0000 0000 0000 0000 0000 0000
000000f0: 0000 0000 0000 0000 0000 0000 0000 0000
00000100: 0000 0000 0000 0000 0000 0000 0000 0000
00000110: 0000 0000 0000 0000 0000 0000 0000 0000
00000120: 0000 0000 0000 0000 0000 0000 0000 0000
00000130: 0000 0000 0000 0000 0000 0000 0000 0000
00000140: 0000 0000 0000 0000 0000 0000 0000 0000
00000150: 0000 0000 0000 0000 0000 0000 0000 0000
00000160: 0000 0000 0000 0000 0000 0000 0000 0000
00000170: 0000 0000 0000 0000 0000 0000 0000 0000
00000180: 0000 0000 0000 0000 0000 0000 0000 0000
00000190: 0000 0000 0000 0000 0000 0000 0000 0000
000001a0: 0000 0000 0000 0000 0000 0000 0000 0000
000001b0: 0000 0000 0000 0000 0000 0000 0000 0000
000001c0: 0000 0000 0000 0000 0000 0000 0000 0000
000001d0: 0000 0000 0000 0000 0000 0000 0000 0000
000001e0: 0000 0000 0000 0000 0000 0000 0000 0000
000001f0: 0000 0000 0000 0000 0000 0000 0000 0000

bn2.running_mean f4 [128]
0.0 0.0 0.0 0.0 0.0 0.0 0.0 0.0
0.0 0.0 0.0 0.0 0.0 0.0 0.0 0.0
0.0 0.0 0.0 0.0 0.0 0.0 0.0 0.0
0.0 0.0 0.0 0.0 0.0 0.0 0.0 0.0
0.0 0.0 0.0 0.0 0.0 0.0 0.0 0.0
0.0 0.0 0.0 0.0 0.0 0.0 0.0 0.0
0.0 0.0 0.0 0.0 0.0 0.0 0.0 0.0
0.0 0.0 0.0 0.0 0.0 0.0 0.0 0.0
0.0 0.0 0.0 0.0 0.0 0.0 0.0 0.0
0.0 0.0 0.0 0.0 0.0 0.0 0.0 0.0
0.0 0.0 0.0 0.0 0.0 0.0 0.0 0.0
0.0 0.0 0.0 0.0 0.0 0.0 0.0 0.0
0.0 0.0 0.0 0.0 0.0 0.0 0.0 0.0
0.0 0.0 0.0 0.0 0.0 0.0 0.0 0.0
0.0 0.0 0.0 0.0 0.0 0.0 0.0 0.0
0.0 0.0 0.0 0.0 0.0 0.0 0.0 0.0
00000000: 0000 0000 0000 0000 0000 0000 0000 0000
00000010: 0000 0000 0000 0000 0000 0000 0000 0000
00000020: 0000 0000 0000 0000 0000 0000 0000 0000
00000030: 0000 0000 0000 0000 0000 0000 0000 0000
00000040: 0000 0000 0000 0000 0000 0000 0000 0000
00000050: 0000 0000 0000 0000 0000 0000 0000 0000
00000060: 0000 0000 0000 0000 0000 0000 0000 0000
00000070: 0000 0000 0000 0000 0000 0000 0000 0000
00000080: 0000 0000 0000 0000 0000 0000 0000 0000
00000090: 0000 0000 0000 0000 0000 0000 0000 0000
000000a0: 0000 0000 0000 0000 0000 0000 0000 0000
000000b0: 0000 0000 0000 0000 0000 0000 0000 0000
000000c0: 0000 0000 0000 0000 0000 0000 0000 0000
000000d0: 0000 0000 0000 0000 0000 0000 0000 0000
000000e0: 0000 0000 0000 0000 0000 0000 0000 0000
000000f0: 0000 0000 0000 0000 0000 0000 0000 0000
00000100: 0000 0000 0000 0000 0000 0000 0000 0000
00000110: 0000 0000 0000 0000 0000 0000 0000 0000
00000120: 0000 0000 0000 0000 0000 0000 0000 0000
00000130: 0000 0000 0000 0000 0000 0000 0000 0000
00000140: 0000 0000 0000 0000 0000 0000 0000 0000
00000150: 0000 0000 0000 0000 0000 0000 0000 0000
00000160: 0000 0000 0000 0000 0000 0000 0000 0000
00000170: 0000 0000 0000 0000 0000 0000 0000 0000
00000180: 0000 0000 0000 0000 0000 0000 0000 0000
00000190: 0000 0000 0000 0000 0000 0000 0000 0000
000001a0: 0000 0000 0000 0000 0000 0000 0000 0000
000001b0: 0000 0000 0000 0000 0000 0000 0000 0000
000001c0: 0000 0000 0000 0000 0000 0000 0000 0000
000001d0: 0000 0000 0000 0000 0000 0000 0000 0000
000001e0: 0000 0000 0000 0000 0000 0000 0000 0000
000001f0: 0000 0000 0000 0000 0000 0000 0000 0000

bn2.running_var f4 [128]
1.0 1.0 1.0 1.0 1.0 1.0 1.0 1.0
1.0 1.0 1.0 1.0 1.0 1.0 1.0 1.0
1.0 1.0 1.0 1.0 1.0 1.0 1.0 1.0
1.0 1.0 1.0 1.0 1.0 1.0 1.0 1.0
1.0 1.0 1.0 1.0 1.0 1.0 1.0 1.0
1.0 1.0 1.0 1.0 1.0 1.0 1.0 1.0
1.0 1.0 1.0 1.0 1.0 1.0 1.0 1.0
1.0 1.0 1.0 1.0 1.0 1.0 1.0 1.0
1.0 1.0 1.0 1.0 1.0 1.0 1.0 1.0
1.0 1.0 1.0 1.0 1.0 1.0 1.0 1.0
1.0 1.0 1.0 1.0 1.0 1.0 1.0 1.0
1.0 1.0 1.0 1.0 1.0 1.0 1.0 1.0
1.0 1.0 1.0 1.0 1.0 1.0 1.0 1.0
1.0 1.0 1.0 1.0 1.0 1.0 1.0 1.0
1.0 1.0 1.0 1.0 1.0 1.0 1.0 1.0
1.0 1.0 1.0 1.0 1.0 1.0 1.0 1.0
00000000: 0000 803f 0000 803f 0000 803f 0000 803f
00000010: 0000 803f 0000 803f 0000 803f 0000 803f
00000020: 0000 803f 0000 803f 0000 803f 0000 803f
00000030: 0000 803f 0000 803f 0000 803f 0000 803f
00000040: 0000 803f 0000 803f 0000 803f 0000 803f
00000050: 0000 803f 0000 803f 0000 803f 0000 803f
00000060: 0000 803f 0000 803f 0000 803f 0000 803f
00000070: 0000 803f 0000 803f 0000 803f 0000 803f
00000080: 0000 803f 0000 803f 0000 803f 0000 803f
00000090: 0000 803f 0000 803f 0000 803f 0000 803f
000000a0: 0000 803f 0000 803f 0000 803f 0000 803f
000000b0: 0000 803f 0000 803f 0000 803f 0000 803f
000000c0: 0000 803f 0000 803f 0000 803f 0000 803f
000000d0: 0000 803f 0000 803f 0000 803f 0000 803f
000000e0: 0000 803f 0000 803f 0000 803f 0000 803f
000000f0: 0000 803f 0000 803f 0000 803f 0000 803f
00000100: 0000 803f 0000 803f 0000 803f 0000 803f
00000110: 0000 803f 0000 803f 0000 803f 0000 803f
00000120: 0000 803f 0000 803f 0000 803f 0000 803f
00000130: 0000 803f 0000 803f 0000 803f 0000 803f
00000140: 0000 803f 0000 803f 0000 803f 0000 803f
00000150: 0000 803f 0000 803f 0000 803f 0000 803f
00000160: 0000 803f 0000 803f 0000 803f 0000 803f
00000170: 0000 803f 0000 803f 0000 803f 0000 803f
00000180: 0000 803f 0000 803f 0000 803f 0000 803f
00000190: 0000 803f 0000 803f 0000 803f 0000 803f
000001a0: 0000 803f 0000 803f 0000 803f 0000 803f
000001b0: 0000 803f 0000 803f 0000 803f 0000 803f
000001c0: 0000 803f 0000 803f 0000 803f 0000 803f
000001d0: 0000 803f 0000 803f 0000 803f 0000 803f
000001e0: 0000 803f 0000 803f 0000 803f 0000 803f
000001f0: 0000 803f 0000 803f 0000 803f 0000 803f
