checkpoint_actor.pth (torch_old, 91864 bytes, 14 tensors)

fc1.weight f4 [128, 33]
00000000: dd50 61bd c099 a9bd 740e 14bc 57cf cabc
00000010: 6d73 843c df11 a7bd 6a70 51be 4aaa 2dbd
00000020: 026c 523c 3b8c e8bc 65fd f63b 15ed 5ebd
00000030: 41db b93c 4e1b a63d 46bd 913d c0f5 1e3e
00000040: bd09 983d 49c2 033d d9d3 2a3d c98a 913c
00000050: 0c11 dcbb d54e 333e 77e1 28bd 9192 b93c
00000060: 63eb 2cba 5b19 443d 3894 94bd 2cfd 2b3e
00000070: 0e78 1ebd 56be 0a3d 942d bcbd bc2b 9cbd
00000080: 5a1e a5be 60b4 56be 1f8f 83bd 46d1 24bd
00000090: 57b4 3a3d 3b57 853d 138f 17bd 10df b23d
000000a0: 3f03 61bd dff3 56bd f4d7 b0bd a82d 3dbd
000000b0: b3b8 c43c d5ff 35bd 6d7f 153e 461b 473c
000000c0: 1125 4c3d a504 17be 7e8f d1bc 913e 3f3e
000000d0: ba2b b5bc da59 3f3d 1db4 3fbd 48d3 83bd
000000e0: c43b 603d d890 3bbd 5aeb 783d 6447 8cbc
000000f0: 3ec9 1f3e 36b7 0a3e 2ed0 6c3d f376 e0bd
00000100: 30fc 113d 7949 79be 8f20 93bd 38f3 17bd
00000110: 1fe0 c53c 0094 a63c 820e 17be b5ba 5dbc
00000120: 0df7 c2bd 8551 acbd 2786 963d 9e14 953d
00000130: 4ed6 57bd 138e 1f3d d68e 463c 1e4c ff3d
00000140: 995d eb3d 32d7 a4ba 4e21 b63c c010 d23c
00000150: b8ec b4bd 95e6 e13c 06e6 a53c c6fb c4bc
00000160: 2639 3dbd d503 393d 071a 5b3c b2e5 1d3d
00000170: c468 14bd c83c 8f3d d729 b73d f1af 1dbd
00000180: e0b3 cbbd 8693 1d3d 947b eabe 8f04 16bd
00000190: a7cc 88bc 6960 343e 57b4 babd 0307 d7bd
000001a0: a0d1 633c cd1f 9e3c c635 8d3d 13d7 f53d
000001b0: c2ed 8ebc 5700 a4bd 1621 53bb d771 703d
000001c0: 5f6f 7dbd d9cf 183d cd8e 03bd 5c53 14bd
000001d0: d023 7dbc 6552 ddbd 8f8a 133d e8f0 e9bc
000001e0: 7186 a73d f261 8cbd 24c0 95bd c6db 0fbd
000001f0: 7f32 453d a20e 6eb9 9898 0d3d 2144 7ebc
00000200: e81c d13c 96f2 28be ad46 8a3d 6a8d f63e
00000210: f3ed 8c3d 5260 123c 9080 773d e967 75bb
00000220: 48ef cdbd 7dfd 90bc 2414 03bd 3207 c33d
00000230: ecbe 6ebc 2899 44bd 002b 993c 67b7 debc
00000240: 0fa5 a5bd ad25 c9bd b627 493d a95c d03c
00000250: efef d73c 8012 453b bcfe 143c aefb b1ba
00000260: c6c1 4ebd 064b 0c3c 493e aa3d 7150 74bd
00000270: 0791 253c 5a0b 07be 3ad5 a4bc caaa ca3d
00000280: 5fa6 34be 1383 9e3d b4a9 2cbe cae4 373d
00000290: 2446 7abe d9e4 3fbd f873 043e b3b9 f3bc
000002a0: 67ad 90bd c8c4 5abb 34ec 93bd 655c 24bd
000002b0: 1576 5ebc 3430 423b 640c 23bb e675 f9bc
000002c0: 1ef6 6e3d b23c 7c3d 4c10 b8bd 1b99 03bd
000002d0: f222 e33d 0d27 a0b9 36bf 493d 07f9 5a3c
000002e0: b38c 94bd 7727 903c cd0d 9f3d 0ab6 88bd
000002f0: 6cfa debb 2308 f4bc 9861 f83b 3e79 393d
00000300: df9f a53e b576 e5bd c235 533d 9732 53be
00000310: 302b da3c bc1d c93d c731 e63a b40c 2e3e
00000320: 4032 cbbd cc9f 3cbd 7f2e ee3c 50ce c6bb
00000330: 5eab f6bd c99d 383d fee1 8cbd d59b 35bd
00000340: acda f4bc b78f 383c 9b04 69ba bb2a 273d
00000350: 07ca 1cbe b0e8 073e 5557 0dbd 4739 ac3a
00000360: 2c66 2c3d 95d9 9bbc 153d e6ba 1ab0 a43d
00000370: 89d9 a13c 5419 91bd 089e b7bd 360c c63c
00000380: adb8 c8bd 1ef4 e23d 98fd 21bd a00b 523b
00000390: 9c85 14be e98c 843d 0107 c9bd 2846 2e3e
000003a0: 6a24 d83d c814 c23c 2087 a43c a3a7 0c3d
000003b0: 0bfb 8e3c cb06 c8ba 3c10 1e3d 2081 033e
000003c0: dad7 1abc 839e 973c 4c3f 563d ed85 b9bc
000003d0: e4ee e3bd adde 3e3d f21e c5bc 2e4b 1dbd
000003e0: 777d e53c 8577 d53c 2f57 00bd 256d 58bd
000003f0: 0e53 14bc 26fc 95bc 8699 c4bc 8b57 9fbd
-0.055008758 -0.082812786 -0.009036649 -0.02475707 0.01616832 -0.081577055 -0.20453039 -0.04239873
0.012843134 -0.02838718 0.007537531 -0.054425318 0.022687556 0.08110677 0.07116179 0.15523434
0.074237324 0.032167707 0.04170594 0.017766373 -0.0067158993 0.17510541 -0.041230645 0.022652896
-0.00065963547 0.047875743 -0.07254833 0.16795796 -0.03868871 0.033872925 -0.09188381 -0.07625529
-0.3224972 -0.20967245 -0.064237826 -0.04023864 0.04558214 0.065107785 -0.03700168 0.08733952
-0.054934736 -0.052478667 -0.0863494 -0.04618612 0.024013853 -0.044433434 0.1459939 0.012152499
0.049840037 -0.14747865 -0.025581118 0.18676211 -0.022115577 0.04671655 -0.04680263 -0.06436783
0.054744497 -0.04579243 0.060771324 -0.017123885 0.15604112 0.13546452 0.057815723 -0.10960188
0.035640895 -0.24344434 -0.071839444 -0.037097186 0.02415472 0.020334244 -0.14751628 -0.013533284
-0.095197774 -0.08413986 0.07349806 0.07279323 -0.05269461 0.038953852 0.012119016 0.1246569
0.11492462 -0.001257634 0.022232678 0.025642753 -0.08834213 0.02757577 0.020251285 -0.024045836
-0.04619708 0.04516967 0.013372905 0.038549133 -0.036232725 0.06994015 0.08943527 -0.03849787
-0.09946418 0.038470767 -0.45797408 -0.03662544 -0.016699148 0.17614903 -0.09116428 -0.10499384
0.013904959 0.019302273 0.06895022 0.12003913 -0.017447356 -0.08007877 -0.0032215766 0.058702316
-0.06187379 0.037307594 -0.032118607 -0.03621231 -0.015450433 -0.10806731 0.03602081 -0.028557256
0.081799395 -0.06854619 -0.073120385 -0.0351217 0.04814386 -0.000227029 0.034569353 -0.015519173
0.025526479 -0.16498789 0.067517616 0.48154765 0.06881323 0.008934097 0.06042534 -0.0037445968
-0.10055405 -0.017698998 -0.03200163 0.09522857 -0.0145718865 -0.047997624 0.018697262 -0.027187062
-0.08088123 -0.09821639 0.049110137 0.025434809 0.026359526 0.0030070841 0.0090939365 -0.0013579035
-0.050477766 0.008562809 0.08312661 -0.059647027 0.010105378 -0.13187924 -0.020121206 0.09895857
-0.1764159 0.07739844 -0.16861612 0.044895925 -0.24440819 -0.046849106 0.12934864 -0.029751634
-0.07064324 -0.003338145 -0.072227865 -0.040127177 -0.013577958 0.0029630782 -0.0024879212 -0.030451726
0.058340184 0.06158132 -0.089874834 -0.032128435 0.1109065 -0.00030546673 0.04925462 0.013365037
-0.07253399 0.017596943 0.07766304 -0.06675346 -0.006804755 -0.029789036 0.0075799935 0.04528164
0.32348534 -0.11204282 0.05156494 -0.20624767 0.026631922 0.098201245 0.0017562442 0.16997033
-0.09921694 -0.04605083 0.029074905 -0.006067075 -0.120444044 0.04507235 -0.06879042 -0.044338066
-0.029889427 0.011264733 -0.0008888931 0.040812235 -0.15311442 0.13272357 -0.034507114 0.0013139629
0.042089626 -0.01902465 -0.0017565811 0.08041401 0.01975705 -0.07084909 -0.08965689 0.024175745
-0.09800849 0.11081718 -0.039548486 0.0032050386 -0.14504093 0.06472189 -0.09815789 0.1701895
0.105538204 0.02369155 0.020083964 0.03433956 0.017453691 -0.0015260814 0.0385897 0.12842226
-0.009450877 0.018508201 0.05230646 -0.022646869 -0.11129549 0.04659908 -0.024062607 -0.038401775
0.028013928 0.026057968 -0.031333145 -0.052838463 -0.009053005 -0.01830871 -0.023998987 -0.07780369

fc1.bias f4 [128]
00000000: 088c 03bc b210 f53c ad90 cabd ba54 aebd
00000010: 5381 55be c0fd 6cbe 7132 ad3d f951 47be
00000020: c118 64be 47a7 3b3c b66d 48be 457c 4abe
00000030: 1ecb aa3c 22fe ffbc f8fd 42be e99a 893e
00000040: 6eac 15be e6ec cfbd 3e41 603c 0f09 893d
00000050: de68 d1bc 44bd 8abe 8ca1 cdbd 93ac 94bd
00000060: 6f5a 163e ba6f 40be 8fbd 0fbe 807c 45be
00000070: 62b9 41be d8da 3b3c 91d9 1dbd 9ea4 1ebe
00000080: 9db0 18be abe9 36be b9e8 debd ab66 c33d
00000090: 3ffa efbd 56e0 9e3c d182 11bc b726 0b3d
000000a0: 9c43 4fbe 5a13 00be 10ec fabd 8d50 57bd
000000b0: 0d89 293d 8445 193e 88ca a83b fd8d 4abe
000000c0: 8f6f acbd 9bcf 91bd 0c70 383e 21e4 da3e
000000d0: 78fb 963d 1f33 13be 43ee 28bd a791 d3bd
000000e0: e91d 18be 93d9 2fbe 4c5d 353d 3df8 7bbe
000000f0: 330a 83ba 81a3 8fbd d8f9 1cbe d33e a33d
00000100: 0477 62be b29a 09be c37a 893d 8df3 64bd
00000110: 3cab 13bd ffa2 3ebe 5db8 f4bd c607 4cbe
00000120: 5777 31bd f19b 67bd c5a6 e23d 8579 3dbe
00000130: 8035 7a3c ee97 51be bf78 19be f724 32be
00000140: bdc4 44be 9431 713d 1afc 863d 7e1d 1fbd
00000150: a7f0 9dbd 97c9 8abe b084 d6bb 1b23 16bd
00000160: 4800 f43c a811 79be fb7f b7bd f25f 0ebb
00000170: 066a 24be 6c27 0fbe 1f77 c4bd e2db 59be
00000180: 347d 15be 3896 67be 5015 a53c 1e00 67bd
00000190: 1104 1cbe f807 f1bc 8231 6dbd bc10 e23c
000001a0: 5dc3 9b3d 0224 1dbe 4118 3cbe 00db 95be
000001b0: 22f3 2d3d 727f f6bd 83d6 24be d288 0e3d
000001c0: b0ca 5d3b 5774 14bd 7351 08bd 009c 8bbd
000001d0: 4e46 c43d cebb aa3d 1090 f3bc 8450 d1bd
000001e0: d6ba 173e aeb4 163e 9cd4 05bd 34fb 933d
000001f0: e701 cbbd 80a3 8c3d 5fda df3c 59d5 e4bd
-0.0080289915 0.029915188 -0.09890876 -0.08512254 -0.20850115 -0.23143673 0.084568866 -0.19464864
-0.22275068 0.011453456 -0.19573101 -0.19773968 0.020848807 -0.03124911 -0.19042194 0.26876
-0.14616558 -0.10152607 0.01368743 0.06691181 -0.0255627 -0.27097523 -0.10040578 -0.072594784
0.14682935 -0.1879262 -0.14037155 -0.19285774 -0.18918374 0.011465751 -0.038537566 -0.15492484
-0.14911123 -0.17862575 -0.10884232 0.09541067 -0.117176525 0.019394081 -0.008881287 0.03397247
-0.20240635 -0.12507382 -0.122520566 -0.052567054 0.041390467 0.14967924 0.0051510967 -0.19780727
-0.084197156 -0.07119676 0.18011492 0.42752174 0.073721826 -0.1437497 -0.04124285 -0.10330515
-0.1485516 -0.17172842 0.044278428 -0.24606414 -0.0009997546 -0.07013608 -0.15329683 0.07970967
-0.22115713 -0.13437918 0.06712868 -0.05589633 -0.036051974 -0.18616866 -0.11949227 -0.1992484
-0.043326702 -0.0565452 0.11066965 -0.18503387 0.015271544 -0.20468113 -0.14987467 -0.17396913
-0.19215675 0.058885172 0.06591053 -0.038846485 -0.077119164 -0.27106926 -0.0065465793 -0.036654573
0.02978529 -0.24323142 -0.08959957 -0.0021724668 -0.1605607 -0.13979882 -0.09593033 -0.21275285
-0.14598542 -0.22615898 0.020151764 -0.056396596 -0.15235926 -0.029422745 -0.057908542 0.02759587
0.07605622 -0.15345767 -0.18368627 -0.29268646 0.042468198 -0.12036027 -0.16097455 0.03479845
0.0033842735 -0.036243763 -0.0332808 -0.06816864 0.09583722 0.08336602 -0.02973178 -0.10220435
0.14817366 0.14717361 -0.032673463 0.072256476 -0.09912472 0.06867123 0.027325807 -0.11173505

fc2.weight f4 [128, 128]
00000000: f18b e33d 4bf4 d7bd 0460 043e a11b 84be
00000010: 014c 4cbe 88b5 0d3b 38f3 91bb 0fc7 c03d
00000020: fd1a 813d bdbf 803e d3b5 10bd e740 33be
00000030: 2af3 653d de48 acbd 5153 b33e 887c 20be
00000040: ef4e 38be 39eb 26bd 2cce ef3d d5b6 df3c
00000050: 6613 273e b7fd 81bb c42f df3d 2630 4e3d
00000060: e408 543d 42f7 2ebe 3f84 18bd 305b 103e
00000070: b1b4 f1bc 7517 7e3e a0b8 aa3d 9421 1c3e
00000080: ffc8 bf3d 784c b03d f566 e2bd 80af 9abc
00000090: ca40 94bb 3468 07bd 1518 cabe 261e 193e
000000a0: 3937 3b3d 6015 213e de68 82be 6b5f 97bd
000000b0: 70ab 59be 527d 183d 681e 5abe 6955 5b3e
000000c0: 8a74 92be 20c7 d33d 9068 27be b065 08be
000000d0: 1e65 04bf 9d97 afbe ed03 cdbc f8e1 153c
000000e0: e225 b5bd 50f5 01be 4d50 d5bd 8b15 813d
000000f0: 4ecd dcbd af52 a53c aa24 b7be 8e68 29b9
00000100: 4c91 c33d 8df3 9bbd ac91 dfbd bc78 72be
00000110: 26c3 91be f038 5a3d 6d35 353e d00d 813e
00000120: f2e0 9e3c a56f 09bd 5dfe 803d 48b0 423d
00000130: 33e7 12be 67e6 c73c e746 c5bc ae7d 863e
00000140: 970d 063e 60cb 833e 2aae 30be 4d56 453e
00000150: 2889 48be 94f5 763d a4c8 3bbd 3c21 913c
00000160: 43ec 96bd 0688 2f3e 01bc 5d3c edd0 173e
00000170: 345b 973e f18f 4abd 7a6f 483d c269 1a3e
00000180: b285 843e e27c 33bd 2351 503e 1b8a 1f3e
00000190: 56e0 f83d c500 bb3c 38f4 febd 8614 003d
000001a0: 76b9 7bbc 3da0 88be a387 31be 0292 043e
000001b0: e5bc 85be 93c3 893d 8315 debc 89ef 31be
000001c0: d956 ac3c 9bf3 1c3e b4da 59bc c7d1 2b3e
000001d0: 2b83 8f3c f78e 69bc 30ce f33d e197 64be
000001e0: e9a7 d93c c34f 00be 8dbd 1d3e 3765 c9bd
000001f0: c0b0 f5bd 442e 01bd 71d4 26bc 5dc9 7dbe
00000200: d5c9 19be 792b ddbd e803 25be 9ff9 1e3e
00000210: 4358 5c3e 19d0 243c 0e03 9fbd c072 4dbe
00000220: 8e14 e9bb ea87 69bc 5c70 16be c3eb 6dbd
00000230: cae2 83bd 55f0 0cbd 035e c0bd c44f 3e3e
00000240: 299d 63bc 4e69 8bbd a2b6 f1bc 6fed 2a3d
00000250: 86db f6bc 328f ea3d 8f77 dabd c764 1b3c
00000260: 39ac 6d3c be9b 9bbe 8b68 d1bb 84e5 98bd
00000270: 737d 893d f068 3ebd a206 a23c 8ada f7bd
00000280: 87ac c5bd e467 03be 3648 22be cba6 fc3c
00000290: 9abb 08bd 1880 043d c845 a2bd b948 e93c
000002a0: 27b6 4a3b 34aa 023a ef5a 15bd f38e 233e
000002b0: 3fe4 c2bd a46a 12be 2cd3 dbbd 0cce acbe
000002c0: 582c c13e ba45 17be 0ef6 4d3d 1bd0 82bd
000002d0: 1fbc 87be 6826 813d 9f03 d33d 62cf 643c
000002e0: 94ab 48be f44a 6fbd ada4 11be ec6b c53d
000002f0: 6347 133e 96b7 5dbd 6550 0c3d bffe 13be
00000300: d46d 39bd c4a5 243e cea3 833e 6d92 043e
00000310: 1629 383e f35f 113e 7e4f 76bd dc12 ef3c
00000320: 8b13 0abc 4328 97be 36e8 813e 3bd2 0fbe
00000330: e984 8e3d e810 c43d 75e1 36be 7978 533d
00000340: caa6 f83d 4f7f 833d 0081 483d 4545 1bbe
00000350: 721d f6bc 6309 26be 8fd8 32be 92c4 203d
00000360: d401 06be d699 e2bb b5b5 bcbe b876 58bd
00000370: deb5 2b3b dcbc 243c d91a d9bc 73b8 96bd
00000380: 0021 e63d e76f c5bd e296 58be f247 893b
00000390: 864f 97bd 4313 efbd 95d8 13bb 97b2 a6bd
000003a0: 4518 3abe 89b2 123e b94f 5c3e 4f5d 3abe
000003b0: f197 093e 32bc 9fbd 74e3 e2bd 9e67 3f3e
000003c0: 4218 263e 0e9e 16be 70ad f6bd 817d bfbd
000003d0: 9296 0b3e e9fc b5be 94cf 913d 10ce 233e
000003e0: a508 523d d9bf 593d 2f9c b03d 0c3a 84ba
000003f0: 74c9 2d3e 1e1f a53d 8362 2a3d 6eb3 acbd
0.11110676 -0.10544642 0.12927252 -0.2580233 -0.19950868 0.0021623094 -0.0044540428 0.094129674
0.06303976 0.25146285 -0.03532965 -0.17505227 0.056140102 -0.08412336 0.35024503 -0.15672505
-0.17998861 -0.04075167 0.11709246 0.02730886 0.16315994 -0.0039670127 0.108977824 0.050338887
0.05176629 -0.17086509 -0.037235495 0.14097285 -0.029505106 0.24813636 0.08335996 0.15247184
0.09364509 0.08608335 -0.11054794 -0.018882513 -0.004524325 -0.03305836 -0.39471498 0.14952907
0.04570696 0.1573081 -0.25470632 -0.073912464 -0.21256804 0.03722889 -0.21300662 0.214193
-0.28604537 0.103407145 -0.16348481 -0.1332004 -0.5171679 -0.3429536 -0.025026286 0.009148113
-0.08845116 -0.12691236 -0.10415707 0.06302937 -0.10781346 0.020181028 -0.3577016 -0.00016156046
0.095491976 -0.07614813 -0.109164566 -0.23678869 -0.284692 0.053276956 0.17696162 0.2520585
0.019394372 -0.03355374 0.06298516 0.047531396 -0.14346008 0.024401857 -0.02408166 0.2626776
0.13091122 0.257411 -0.17253938 0.19271202 -0.19583571 0.060292795 -0.045845643 0.017716043
-0.07369282 0.17141733 0.013533593 0.14825793 0.2956177 -0.04945368 0.048934437 0.15079406
0.2588325 -0.04382027 0.20343451 0.15580027 0.12152164 0.022827515 -0.12448925 0.031269573
-0.015364042 -0.26684752 -0.17336898 0.12946323 -0.26120678 0.06726756 -0.027109867 -0.17376532
0.021037506 0.15327303 -0.013296772 0.16779242 0.0175186 -0.014255277 0.119045615 -0.22323562
0.026569324 -0.12530427 0.15404339 -0.09833758 -0.11996603 -0.031538263 -0.010182486 -0.24783845
-0.15018399 -0.107993074 -0.16114771 0.1552491 0.21518044 0.01005938 -0.077642545 -0.20063305
-0.007113046 -0.014253596 -0.14691299 -0.058086168 -0.06439741 -0.034408886 -0.09392931 0.18585116
-0.01389245 -0.06807195 -0.029506031 0.04173034 -0.030133974 0.114530936 -0.10667335 0.009484476
0.014506393 -0.3039226 -0.0063906363 -0.07465652 0.06713381 -0.046486795 0.019778553 -0.1210223
-0.096520476 -0.128326 -0.15847859 0.030841252 -0.033382036 0.032348722 -0.07923466 0.02847706
0.0030931325 0.00049844687 -0.036463674 0.159725 -0.09516191 -0.14298493 -0.10733637 -0.3375095
0.37729144 -0.14772692 0.050283484 -0.06387349 -0.26510713 0.063061535 0.10303425 0.01396546
-0.19596702 -0.05842109 -0.14222975 0.09639725 0.143827 -0.05413016 0.034256358 -0.14452647
-0.045270756 0.1607886 0.2571091 0.12946482 0.17984423 0.14196758 -0.060134403 0.029183798
-0.008427511 -0.29522905 0.25372475 -0.1404504 0.06958944 0.09573537 -0.17859443 0.051628564
0.121411875 0.064207666 0.04895115 -0.15163143 -0.030043337 -0.16214518 -0.17465423 0.039249964
-0.13086635 -0.0069153113 -0.3685738 -0.052847594 0.002620093 0.010054793 -0.02650206 -0.073594
0.11236763 -0.09640484 -0.21151307 0.0041894848 -0.07388215 -0.11673596 -0.0022559513 -0.08139532
-0.1817332 0.14325918 0.21514787 -0.18199657 0.13436867 -0.07799567 -0.110785395 0.1869187
0.16220191 -0.1470873 -0.12044799 -0.0935011 0.13631657 -0.35544518 0.071196705 0.15996575
0.051277775 0.053161476 0.0862354 -0.00100881 0.1697138 0.08062576 0.041597854 -0.08432661

fc2.bias f4 [128]
00000000: 2513 bd3d 2c4a 18be d59f 4a3d d254 99bd
00000010: 037e 9d3d 6357 a3be fbd7 6fbe 8081 fd3d
00000020: 0ff4 12be 8f99 9fbc 62e7 493d 138e 8abd
00000030: 02b6 19be 735e 673e 762f 15be e107 c63c
00000040: 9436 f5bd 19de 063e 4ea9 0ebe 8bf2 0cbe
00000050: ec42 28bd a344 003e f350 173d a79d cebd
00000060: 5788 1fbd 7796 0d3b ec79 82be 40bd ffbd
00000070: 4d6e 83bd e6c6 493d 8441 3bbb b84e 843c
00000080: 7c90 1d3e 1628 093d d02a 07bd 96ed 16bd
00000090: 1b82 b3bd 9faa ce3c 45a9 3fbd 5f59 423d
000000a0: 57b1 2ebe c370 8a3d 40b1 74bd c70b 3abd
000000b0: be24 6cbd 8739 f0bd 2c82 cebd 8c44 39be
000000c0: 65c5 713d ad5f 26be 850d e53d c68a c83d
000000d0: 72c0 b7bd b74b a1bc bf5b 903d 3720 ee3d
000000e0: aa4d abbb 7929 06bd 23b8 a93d 75b3 d03c
000000f0: b2b1 9d3d 5af7 ddbd 12e4 da3d c77e 9a3d
00000100: 9150 993c 0d23 1d3e 5553 8abb 9b80 80bd
00000110: 18d9 e03c 7b31 e8bd 4204 87be e780 b6be
00000120: 8238 863d a2c1 e83d 8632 ecbc 2fca 083e
00000130: ba78 f6bc a93b b33d 50cc ba3c e454 f1bd
00000140: ec03 36bd 37c3 643d 7dcd df3d 9552 50bd
00000150: b8fe 7b3d afbf f33d e40f 723d 5e15 65bd
00000160: c833 d7bd 4c07 9abd bf14 9d3a ae92 c83d
00000170: 2162 e7bd 2c0c 493b 55e3 153e fa2e e3bc
00000180: 34d5 883d 562f cbbc 8064 5dbe 4566 fe3d
00000190: 2db8 d13c f5dd c83d f0c7 1fbd 0af3 adbc
000001a0: 178d 33bd ab33 2abe 9341 18bd 554d 8abd
000001b0: afa4 26bd c826 7b3d e499 0abe fd5f a1bd
000001c0: 9fe8 ca3d dfe8 df3c d3ad 163e c406 e9bd
000001d0: d2c5 9bbd 2ae9 a6bd ce6e 983d 045a 7b3e
000001e0: 64c2 053e 4d4d 55bd ab67 9d3d 55f2 7ebd
000001f0: 223a 5f3a 254c f63d 6607 b43d 647c 3c3e
0.09232167 -0.14872044 0.049468834 -0.07486881 0.076900505 -0.31902608 -0.23422234 0.12378216
-0.14350913 -0.019482402 0.04929293 -0.0676538 -0.15010837 0.22594623 -0.14568886 0.024173679
-0.119733006 0.13170661 -0.13931772 -0.13764398 -0.041079447 0.12526183 0.036942434 -0.100886635
-0.038948383 0.0021604577 -0.25483644 -0.124872684 -0.064175226 0.04926195 -0.0028572986 0.016150817
0.15387148 0.033485495 -0.032999814 -0.036847673 -0.0876505 0.025227843 -0.046792287 0.047448512
-0.17059837 0.06759789 -0.05973935 -0.045421388 -0.057652228 -0.117297225 -0.10083422 -0.18092555
0.05902614 -0.16247435 0.11184219 0.09792094 -0.08972253 -0.019689424 0.07048749 0.11627238
-0.005227764 -0.032754395 0.082870744 0.025476197 0.07699908 -0.10838194 0.10688032 0.07543712
0.018715175 0.15345402 -0.0042213597 -0.062745295 0.027447268 -0.11337563 -0.26370436 -0.3564522
0.06553747 0.113650575 -0.028832685 0.13358377 -0.030086864 0.08751614 0.022802502 -0.1178377
-0.044437334 0.055850234 0.10927866 -0.050860006 0.061522216 0.11901795 0.059097186 -0.05592858
-0.10507923 -0.07520923 0.0011984332 0.09793602 -0.112980135 0.003067742 0.14637502 -0.027732361
0.0668129 -0.024802845 -0.21620369 0.1242185 0.025600517 0.0980796 -0.039009035 -0.021234054
-0.043835726 -0.16621272 -0.03717191 -0.06753031 -0.0406844 0.06131628 -0.13535267 -0.078796364
0.0990765 0.027332721 0.14714746 -0.113782436 -0.076060906 -0.08149941 0.07443009 0.24546057
0.13062435 -0.052075673 0.07685789 -0.062242825 0.00085154374 0.12026242 0.08790474 0.18406826

fc3.weight f4 [4, 128]
00000000: 01b8 f7bd 1952 983c a425 9ebc eefa 1f3e
00000010: 85b9 6e3c e83e 603e 3619 b83e d8f8 f8bc
00000020: feb2 053e 5aac d63d 660e e13d 06fd 19be
00000030: 4cae 25bc 0a28 42be 3f16 3dbe c63a 833d
00000040: 4d42 d03e e54e 283e 4673 98be 6256 a63e
00000050: ba12 4d3e c401 afbc e597 77be c2e2 003e
00000060: ebb2 b5bd 51ea 25bd 7473 3fbe c2a1 973c
00000070: 02cd 3cbe 6197 bebe 806e 97be 47b4 0d3e
00000080: 77ac 3b3d c51f 97bd 68f9 203e 7178 97bd
00000090: 0a9f bfbe fed7 99be 0b6f 7cbe 58b3 333e
000000a0: ad10 36be efd7 ecbd 91ef a83e aad9 06be
000000b0: b174 febd 4c4b 75be 29a5 e43d 6184 103e
000000c0: 597c c83b 8e05 b73e 13d6 a6bb 39b8 26bd
000000d0: 00b6 813e 7a2f 12bc e959 453d aeaa 143e
000000e0: 3caf 143e 4ead c7bd ea34 03be d271 0c3d
000000f0: 33e2 d63d 4203 c83d a3e1 83be 473f 05be
00000100: 6cc2 7c3e 1731 e3bc 91be e43c 5ba2 823c
00000110: d026 22be 935f f2bc 9ba6 f1bd 7fd7 b6be
00000120: 57d5 bbbd 1623 ad3c fa4a 3b3d 38c4 44be
00000130: 7e69 783e 0c09 f73d 488d 363e 1fe2 98bc
00000140: 2771 8bbe 43ba 3bbe 3ee1 da3d 2d6a 3a3d
00000150: 409c 5d3e 3bb0 163d ea39 5bbd 230f 6fbe
00000160: 7297 fbbd 879e b83d 6261 353e de79 eb3c
00000170: c981 af3e 46f4 77be 6071 433e 67be c7bd
00000180: fb83 a03d 9533 883e 5c39 c93d 5ec1 48be
00000190: 1e5d 00be 0f3b 0f3d 0792 963e 4924 293e
000001a0: cd7c a53d 5abc 143e 81c0 14be a6e5 873e
000001b0: da1c 173e 006f 293e aa99 b13c b7d2 cbbe
000001c0: 395f 2fbe 5e09 0cbe b664 41bd c0fc b33e
000001d0: 31f4 103d e07c 2a3e e3f5 83bd 29a1 30be
000001e0: e373 cd3d 6709 2cbe 7dd0 a33d ba81 95be
000001f0: 43fc bb3d e025 86bd c85c 403e 9453 14bc
00000200: 3c9f 80be fdd6 e63e 19e9 9f3e 677a 73be
00000210: 1424 843e bb53 f5bd 6394 173e ba71 c9be
00000220: 8446 bf3e f1a4 a1bc 3283 f23e 43c4 0dbe
00000230: b568 08bf 4374 babe 05ad b5be 7e44 e43e
00000240: a28b b93d a1a2 d13d 212f 973e 4819 1c3e
00000250: 267c 9dbe 6d6d 863e f960 0e39 3025 96be
00000260: 6abf 453e 7cac 523d 573c babe 2304 553e
00000270: cc0d 493d c8fd 98bd ed79 e83d a519 d3bc
00000280: bcf4 513d 074a 923e 49c7 993e 3967 c83e
00000290: 3a71 9cbe 1c08 41be 583b a13d ce9d 59be
000002a0: 56fa 8e3d 3dc2 eebe b1c4 073e 20cb d23e
000002b0: 9baf 72be d445 53bd 965b 0a3f a3d2 243f
000002c0: 29b8 e83e 12d0 503d 55b9 323e bd29 b43e
000002d0: 76f2 bfbd b5bc 70bd cf46 393e 4813 b93d
000002e0: fbf2 05bc 2860 06bf 2746 c63d 15d1 7ebe
000002f0: 0adb 1c3e dc37 8bbc 6ef0 213e 4ad3 8bbe
00000300: 6642 223e 95f6 c0be 6bc0 c83e 48f9 8a3d
00000310: ad3a 50bd c019 f33d 6d15 52bd 7361 78be
00000320: 52d7 3e3e 11b6 9abe 0117 d3be 875e a33d
00000330: 66ae 973e bfb7 9cbe bbef 843e 16ee 353e
00000340: 9391 e83d 2b62 69bd 9fdd 00bf dea4 e4be
00000350: 36b0 03bd 1856 313e 484d 9c3c 5568 1ebe
00000360: 4d2a 373e 8b51 e1be 83d2 5a3d c512 893e
00000370: 2c8f 0abe cd97 99bd 358f 883c 3005 d6be
00000380: f91f afbe 157d 39bc e3d6 11be 522d 1f3e
00000390: c887 b2bc dd8b e4be 6e15 ff3d 543f 483e
000003a0: e3fe b6be 7a65 59bd 949b 35be ed1c f23c
000003b0: 626e 21be b931 003e f770 00be d7c2 ccbd
000003c0: cbe9 993e c070 1ebe bd3c 303e 0fe8 0e3e
000003d0: f6e7 b93e 3cc8 513e a31a 8bbe 0338 723e
000003e0: 0e1a df3d e661 8abe 96c0 833d 248b 17be
000003f0: 3d8a cf3e 1e72 02bf 68b7 b3be 2663 23bf
-0.12095643 0.018593835 -0.019305058 0.15623066 0.0145705985 0.21898997 0.35956734 -0.030392095
0.13056561 0.10482092 0.109890744 -0.15037927 -0.010112356 -0.18960586 -0.18465517 0.064076945
0.40675583 0.16436346 -0.29775447 0.3248778 0.20026675 -0.021363147 -0.24179037 0.12586501
-0.088720165 -0.040506665 -0.18696386 0.01850975 -0.1843758 -0.37224868 -0.29576492 0.13838302
0.045818772 -0.073791064 0.15720141 -0.07396019 -0.37426025 -0.300476 -0.24651735 0.17548883
-0.17779799 -0.115646236 0.32995275 -0.1316897 -0.12424601 -0.23954505 0.11164314 0.14112999
0.006118339 0.35746425 -0.0050914376 -0.040703032 0.25334167 -0.008922452 0.048181448 0.14518234
0.14519972 -0.09749852 -0.12813154 0.034288235 0.10492363 0.097662464 -0.25758085 -0.1301242
0.24683541 -0.027733369 0.0279229 0.015946558 -0.15835118 -0.029586589 -0.117993556 -0.35711285
-0.09171551 0.021134894 0.0457258 -0.19215477 0.24258992 0.120622724 0.17827332 -0.01866251
-0.27234766 -0.18332772 0.10687493 0.045511413 0.21641636 0.03678916 -0.053522028 -0.23345618
-0.12284745 0.09014612 0.1771293 0.028744634 0.34278706 -0.24214277 0.19086218 -0.09753113
0.07837673 0.26601854 0.098253936 -0.19605014 -0.12535521 0.034968432 0.29408285 0.16517748
0.080804445 0.14524975 -0.1452656 0.26542395 0.147571 0.1654625 0.021679718 -0.398092
-0.17126168 -0.13675448 -0.047215186 0.3515377 0.03538913 0.16649199 -0.064433835 -0.17248978
0.10031869 -0.16800462 0.0799875 -0.29200536 0.091789745 -0.06550193 0.18785393 -0.00905313
-0.25121486 0.45085898 0.31232527 -0.23777162 0.25808775 -0.11978861 0.14802699 -0.3934458
0.37358487 -0.01973197 0.4736572 -0.13844399 -0.5328477 -0.36416826 -0.35483566 0.44583505
0.09059836 0.10236097 0.29528144 0.15244019 -0.3075878 0.2625536 0.000135783 -0.29325247
0.193113 0.051434025 -0.3637416 0.2080236 0.049085423 -0.0747028 0.113513805 -0.025769064
0.051258788 0.28572103 0.30034855 0.39141253 -0.30555135 -0.1885075 0.07872647 -0.21251604
0.069813415 -0.46632567 0.13258626 0.41170597 -0.236998 -0.051580265 0.54046 0.64383906
0.45453003 0.05097968 0.17453511 0.35188094 -0.09372418 -0.058773715 0.18093418 0.09036881
-0.008175607 -0.5249047 0.09681349 -0.24884446 0.15317932 -0.01699441 0.15814373 -0.27309638
0.15845641 -0.37688127 0.39209303 0.06785828 -0.050837208 0.11870146 -0.051289964 -0.24255924
0.18636826 -0.3021703 -0.41228488 0.07977014 0.29625243 -0.30608937 0.2596415 0.17766604
0.11355891 -0.056978386 -0.50338167 -0.44657034 -0.03215047 0.17317998 0.01907982 -0.15469487
0.1788723 -0.44007525 0.053423416 0.26772133 -0.13531178 -0.07499657 0.016669849 -0.41800833
-0.3420408 -0.011321326 -0.14242129 0.15544632 -0.021793261 -0.44637957 0.12455259 0.19555408
-0.35741338 -0.05307529 -0.1773513 0.029554809 -0.15764764 0.12518968 -0.12543093 -0.099981
0.30061182 -0.15472698 0.1721067 0.13955711 0.36309785 0.2048654 -0.2716876 0.2365418
0.108936414 -0.27027816 0.06433217 -0.14799172 0.40535155 -0.5095538 -0.35100865 -0.63823164

fc3.bias f4 [4]
00000000: 9c27 f5bc fc41 d13b 525e 3bbd 7e6f 14bc
-0.029926114 0.00638604 -0.045744248 -0.009059785

bn1.weight f4 [128]
00000000: d336 0d3f 875a 463f 02c9 5a3f 2971 423f
00000010: 5d07 683f dd3f 103f 758c 773f 0a8b c63e
00000020: 721b 913f ab59 333f 43aa 523f ea51 053f
00000030: b2a5 843f 13e8 1b3f c4e0 e33e 9890 723f
00000040: 3b6a 223f 3e5f 6c3f 9887 803f 626f 823f
00000050: 9110 fc3e 52c3 6d3f 0048 e03e 8386 683f
00000060: 0ebd 603f 7004 2a3f f4e5 943f 1eb7 303f
00000070: a1f2 3a3f 2ebe 723f 2735 df3e c3e1 213f
00000080: 8c38 0e3f 560d 0e3f 2b9a ce3e d60b 003f
00000090: f4b6 773f 46a1 493f b892 8a3f 2541 3c3f
000000a0: 4890 be3e c853 da3e 1636 243f bd5f 213f
000000b0: 5d43 083f a7f6 8a3f 7389 733f 386e 0d3f
000000c0: 03d2 153f 6f61 4b3f 65bd 0a3f 52a4 6c3f
000000d0: 6c28 113f fa9d 883f 0b80 3e3f 28e6 e93e
000000e0: 13d0 e63e 9ce5 f63e 8073 6b3f 3675 1d3f
000000f0: e1cc 0c3f 1b5b cb3e b0cb f93e c24b b83e
00000100: a1d4 5d3f c2eb 503f 8379 2f3f 11f4 2e3f
00000110: dec3 4c3f cf68 243f bf10 303f cd4c 653f
00000120: 8ed1 da3e 3965 1c3f 31cf 433f 0e88 3f3f
00000130: 8547 853f c969 763f cfab 713f 1d5f f93e
00000140: 8188 423f 9a45 213f 6ea0 1f3f 9bba 793f
00000150: efcd c03e 667d 263f 34b7 893f b6a5 813f
00000160: 5ad5 3d3f c2fa 183f 01ec fd3e 0ff0 c03e
00000170: 54fa ea3e de0c 533f c0eb e43e 91ad 7d3f
00000180: 5d1e 0f3f 2810 163f c611 573f 45b9 843f
00000190: e2db 473f 66ba 043f 20e3 753f 301c e93e
000001a0: 7248 8b3f 6fb4 173f a533 043f 0540 763f
000001b0: 3b42 4c3f 8008 5e3f a229 e53e b6a4 763f
000001c0: a0b3 f83e 8663 483f 0bae 0b3f 4092 093f
000001d0: 04e2 fe3e 096e 313f d8d8 6c3f 7a35 653f
000001e0: 51ce 333f fccc 863f de63 233f 8293 653f
000001f0: 3573 3a3f 28d2 553f e45b 133f 91aa 893f
0.5516178 0.77481884 0.85462964 0.7595392 0.90636235 0.5634745 0.96698695 0.38777953
1.1336501 0.700587 0.8229105 0.52078116 1.0363066 0.6090099 0.4450742 0.9475188
0.63443345 0.9233283 1.004138 1.0190241 0.4923139 0.9287616 0.43804932 0.9083025
0.87788475 0.6641302 1.1632676 0.69029415 0.7302647 0.9482144 0.4359524 0.6323511
0.55555034 0.554891 0.40351996 0.5001806 0.9676354 0.7876171 1.0826025 0.735369
0.37219453 0.42642045 0.6414503 0.6303671 0.5322779 1.0856522 0.95131606 0.55246305
0.5852358 0.79445547 0.54195243 0.9243823 0.56702304 1.0673211 0.7441413 0.45683408
0.45080623 0.48222053 0.91973114 0.61506975 0.5500012 0.39717945 0.48788214 0.359953
0.8665257 0.8160974 0.6854479 0.68341166 0.7998637 0.64222425 0.6877555 0.89570314
0.42738003 0.61091954 0.76488024 0.7481698 1.0412451 0.96255165 0.94402784 0.48705378
0.7598954 0.6299683 0.6235417 0.9755036 0.37657115 0.6503509 1.0759034 1.0128696
0.74153674 0.59757626 0.4959412 0.3768315 0.4589411 0.8244151 0.44711113 0.99092966
0.55905706 0.586184 0.84011495 1.036904 0.7806989 0.5184692 0.9604969 0.45529318
1.0881484 0.59259695 0.51641303 0.96191436 0.7978856 0.8673172 0.44758326 0.9634508
0.48574543 0.7827686 0.54562443 0.53738785 0.4978181 0.69308525 0.9251838 0.89534724
0.7023669 1.0531306 0.6382426 0.89678204 0.7283204 0.835238 0.5756209 1.0755178

bn1.bias f4 [128]
00000000: bea2 a83d 7340 90bd ff22 a1bd 73f7 9f3c
00000010: 28cf a4bc 488e 30be b05b 60bd 0a65 d33d
00000020: 15d9 33be 0045 3fbc 4e48 d8bc 1e34 04bd
00000030: dedd 14be 8154 8dbd ec2b 603c 0b64 d5bd
00000040: 505d d33d 763f c9bc 4f21 55bd 5894 ddbd
00000050: 636d ec3b b7f6 eebb caac 8f3c 2748 b03c
00000060: 1717 423d 64d7 48bc 8dc8 49bc 365a f0bc
00000070: f50a bcbd ccf9 023e 26ea d1bc 83c4 a8bd
00000080: e540 6bbc 4bb8 2fbd 1a4f b83d 94ca d0bb
00000090: aeb0 ce3d 1e82 7cbd 9ed4 d43d b1ea 8cbd
000000a0: 41da 9fbd b738 5ebe 040b fcbc fa8b f23c
000000b0: 44e2 e43d fbd9 d93d 4837 cbbd d28f 63bc
000000c0: 85f0 42be b2bc 093d 81a1 343d 0ca8 f73c
000000d0: 41be 00bd 9bb2 99bd 8234 cfbc 06d6 0dbe
000000e0: 4e2a c6bc bde8 2ebe 16e2 01bd 32f8 bd3d
000000f0: f2d3 a73c ab94 d63c 1fbe 063d 2bba 2e3e
00000100: 677a 843d 1358 973d c45e a2bd 49d2 4abd
00000110: b413 a13d 5c9a 57bb 6ad0 6c3d 17b8 9cbd
00000120: 48bc a6bc 406f 42bd 0206 2ebe 129c c7bd
00000130: 4ac9 a7bd 1f0b 24be 7ba1 933d 0ddb bbbd
00000140: 3909 c6be e2f2 563d f925 aabd 645a 9f3d
00000150: 2f23 47bd 36a9 be3d 5976 ef3d 440e 123d
00000160: 81fe 31be d239 41bd 8a11 d93c 2a7f 613d
00000170: 5bda ce3d e124 6bbe 22fc 1cbd d9e3 14bd
00000180: e721 0dbe a2c6 c43d f8b9 41bc 7097 a9bc
00000190: efa7 34bd e7fb e93b 28c8 aa3c dd9e 7bbc
000001a0: 3023 883d 8533 853d 371b 94be 86ec 553c
000001b0: b5ce 00be ffc4 ba3c 9fea 7cbd 66e1 a7bb
000001c0: ffc8 29bd 986c 31bd c495 0fbe e4a2 ad3c
000001d0: eb56 d6be 1782 e53d 2360 d5bc f015 d4bc
000001e0: 69ec 8e3d e380 6a3d 4116 0fbe 4015 dabd
000001f0: a369 293d 51f2 1b3d 73a9 96be 23ce 90bd
0.082341656 -0.07043543 -0.07868003 0.019527173 -0.020118311 -0.17241776 -0.05477494 0.10322006
-0.17563279 -0.011674166 -0.026401665 -0.032276265 -0.1453776 -0.069008835 0.013682347 -0.10419472
0.10320532 -0.024566393 -0.05203372 -0.1081931 0.0072151884 -0.0072925943 0.017538447 0.02151878
0.0473853 -0.012258384 -0.012315881 -0.02933989 -0.091817774 0.12790602 -0.025624346 -0.08240607
-0.014358734 -0.042900365 0.089994624 -0.0063718054 0.10092293 -0.061647527 0.10392116 -0.06880701
-0.078053005 -0.21701322 -0.030766971 0.029607762 0.11175969 0.106372796 -0.099226534 -0.01388927
-0.19037063 0.03362722 0.044099335 0.030231498 -0.03143144 -0.075047694 -0.025293592 -0.13851175
-0.024190094 -0.1708097 -0.031709753 0.09275855 0.020486806 0.026193937 0.032896157 0.17063205
0.06468659 0.07389846 -0.07928231 -0.04951695 0.07865086 -0.0032898402 0.057815947 -0.076523
-0.020353451 -0.047469378 -0.1699448 -0.09746565 -0.0819269 -0.16019867 0.07208534 -0.0917264
-0.3867891 0.052477725 -0.08308024 0.077809125 -0.048617538 0.09309618 0.11692495 0.035658136
-0.17382242 -0.047174282 0.026497621 0.055052914 0.10100242 -0.22963287 -0.03832639 -0.036350105
-0.13782464 0.09608199 -0.011824124 -0.020702094 -0.044105466 0.007140625 0.020847395 -0.0153577
0.066473365 0.06503967 -0.28927013 0.01305688 -0.12578852 0.022799013 -0.06174719 -0.005123305
-0.04145145 -0.043316454 -0.14021975 0.021195836 -0.41863188 0.11206453 -0.026046818 -0.025889367
0.069786854 0.057251822 -0.13973333 -0.10648584 0.04136051 0.038072888 -0.29426154 -0.070705675

bn1.running_mean f4 [128]
00000000: 3793 a53d d284 ad3e 235a 6e3d ff98 273d
00000010: fe9e 4a3e 055e 1a36 793b 583e 9422 063d
00000020: 7b41 563d b969 9b3e 2063 253e 2ef9 ea39
00000030: d9f9 113e 9975 5b3e da7a b13d 26ff e13e
00000040: 9078 8a3e 132c af3d 9ac9 ce3e fe38 613d
00000050: b303 473f 3acc 833e e233 8f3e 8212 343f
00000060: be6d 633f c960 fe3d 1d84 e23d 5091 b63e
00000070: cb6f 193e 30f6 b53d 175c a43d e8cf 253e
00000080: c82f 293d fd5c ab3a 229b 623e 963e 2e3e
00000090: 4654 f53e efc4 b93d 7b31 2c3e 5b31 523e
000000a0: 645d 5e39 6bd2 0d3e 2522 5d3e b1e0 1b3e
000000b0: 2cdb 873f 5fce 453f ca67 043e 4c8c e63d
000000c0: 020a 303d 1776 0d3f fc88 a53e b1a3 663f
000000d0: 98f0 b13d 1ebd 173f 43ae ad3e 1319 f03d
000000e0: 0528 153d 3b1a 4339 0a24 8f3e aa04 8a3c
000000f0: 4ce3 213e 6d65 913c 8fff 853d 4e19 a13f
00000100: 1945 933d 6e89 4f3d b65a 9e3e 4318 003f
00000110: ae98 4b3e 40d7 853e 5f2f a03e 0ab2 743d
00000120: 3500 cd3d 3472 ee3d c4e8 123f fe2d 643d
00000130: 638a 813e 5771 973d 32e2 483d 4ee2 453d
00000140: 89f0 8d3b bd56 133f 2acb c43e 2a3e cf3d
00000150: 44f7 373d f9e9 a43d a1d9 b03e 2431 523e
00000160: 5209 123d c70b 933e 2fe6 103f c506 533d
00000170: 1525 f33d 6540 943c 5099 b83d 34b3 9b3e
00000180: 3e8c 183e e33e 943d 27a6 f83d a0a0 ec3c
00000190: 2555 793e 2fee 143f 4499 323f e226 a83e
000001a0: f65d 463e 9a91 fd3c 95df 183d 371c 6b3e
000001b0: 4076 8a3e 3302 023e 0525 e43e 02c0 ac3e
000001c0: a68d cc3c 56f3 ad3d a134 163e 1553 383d
000001d0: fb9c 213e 5b4e 103f 5ceb af3e 9eaf 023e
000001e0: 73cd 723f 6bba 573e 0e23 db37 68ef 043e
000001f0: 61d7 0e3e 3876 713d a2e1 403b 2887 ab3d
0.0808472 0.33890396 0.05819143 0.040917393 0.19787213 2.3002515e-06 0.21116437 0.03274782
0.05230854 0.30354097 0.16151094 0.0004481761 0.14255466 0.21431579 0.0866601 0.44139975
0.27045107 0.08553328 0.40388185 0.054985993 0.7774002 0.2574175 0.2796927 0.7034074
0.8883933 0.12420804 0.11060355 0.3565774 0.14984052 0.08884847 0.08025377 0.16192591
0.041305333 0.0013073977 0.22129491 0.17016062 0.47915858 0.09070765 0.1681575 0.2052664
0.0002120636 0.138498 0.21595056 0.15222432 1.0613761 0.7726802 0.12930217 0.11257228
0.042978294 0.55258316 0.32331073 0.90093523 0.08688468 0.59272945 0.33922014 0.117235325
0.03641512 0.00018606421 0.27957183 0.016847927 0.15809363 0.017748559 0.065428846 1.2585847
0.07190914 0.050668173 0.30928582 0.5003702 0.19882461 0.26140785 0.3128614 0.059740104
0.10009805 0.11642876 0.5738642 0.055707924 0.25300893 0.07394665 0.04904384 0.048311524
0.0043316525 0.5755423 0.38436252 0.10119279 0.044913545 0.08052439 0.34541038 0.20526558
0.03565342 0.28719923 0.5660123 0.051520128 0.11872307 0.018097112 0.09013617 0.3041016
0.14897248 0.07238557 0.12141066 0.028885186 0.24348886 0.5817594 0.69765115 0.32842165
0.19371781 0.030953217 0.0373226 0.22959982 0.27043343 0.12696151 0.44559494 0.3374024
0.024969887 0.08493678 0.14668514 0.04500111 0.1578254 0.5636956 0.34359252 0.12762305
0.9484474 0.21067207 2.6123158e-05 0.12981951 0.13949348 0.058950633 0.0029431363 0.083753884

bn1.running_var f4 [128]
00000000: 4672 9d3c 48a6 4a3e 7350 923c ed83 9a3c
00000010: cf6f ec3d 2f5a 9833 3c1f b93d de24 123c
00000020: fb7a ba3c 5c6f 4f3e 7757 393d c4fe 3b39
00000030: 2dae cd3d 82d6 b23d db2e f63c b5bc fc3d
00000040: 333c 4a3e 7412 5b3d ba3e 393e 8b63 1d3c
00000050: c109 e03d 2e7a 313e 1d77 493e c430 593e
00000060: 1c26 c13d 4358 263d b673 493d 97f0 033e
00000070: 538b 8c3d dea6 d93c b20a ca3c 6844 8c3d
00000080: 302b 7f3c a764 013a 32a2 143e 8148 553d
00000090: cdc6 ae3e 2a75 0b3d 552a 683d f33d f83d
000000a0: af3b 5038 2859 793d d5aa 4f3e 2a5d ac3d
000000b0: 0aa7 103f 65a4 853e d672 bb3d 8f08 5f3d
000000c0: 3d54 1f3c 0c9a f13e 186b 523e 5cda 073e
000000d0: 234d ca3c 1a64 e13e 0c36 2a3e 4766 b13d
000000e0: 9e9c 5c3c a896 ec37 b0f7 b13d 5173 443c
000000f0: 31a8 503d 1416 063c ba2c a63c 8171 a03e
00000100: f430 c83c 57b9 5a3c ae51 253e a9b8 9d3e
00000110: b885 c33d 8b71 4c3e b369 513e 735f a13c
00000120: f23a 013d 5212 503d 9627 8e3e 5b4c 003d
00000130: 6af8 053e 5b40 053d 4e64 ed3c 4178 c33c
00000140: 9390 993b 1d81 0d3f fdf1 a33e a83b 1b3d
00000150: 730c 9d3c 80c0 a93c 736e 033e ed5d ce3d
00000160: a910 f13b 78fb 523e 3d2f cc3e afe0 e63c
00000170: 6c46 4a3d 635a ec3b 3830 303d 3b50 903e
00000180: 2f63 883d 420d 3d3c 80c3 4e3d 735e 333c
00000190: 6b36 893d b2b4 8b3e 3fbb a83e 5e5e 953e
000001a0: 50e8 653d 6fa7 743c 8180 463c 3b02 213e
000001b0: 23b4 d63d 3cd4 113d eb6e c33e 2617 8c3e
000001c0: 29ca 083c 50f2 153d 9671 8e3d a5a7 463c
000001d0: 07e3 933d 72b2 0f3f caad 273e fceb af3d
000001e0: 00f5 243e db7e 923d 5646 c336 83e3 253d
000001f0: 6bd4 933d dc25 983c aa00 b33a d3ac 413d
0.019219529 0.19789994 0.017860627 0.018861735 0.11544763 7.094456e-08 0.090391606 0.008919923
0.02276372 0.20257324 0.04524943 0.00017928617 0.10042987 0.0873232 0.03005164 0.123406805
0.19749527 0.053484395 0.18090335 0.009606252 0.109393604 0.17331764 0.19674344 0.21210009
0.09431097 0.040611517 0.049182616 0.12884746 0.068625115 0.026568826 0.024663303 0.06848985
0.015574262 0.0004935958 0.14514998 0.0520711 0.34136048 0.034047283 0.056680996 0.12121191
4.964665e-05 0.06087604 0.20280011 0.08416207 0.5650488 0.26101986 0.091527626 0.05445152
0.009724674 0.4718784 0.20548666 0.13266891 0.024694985 0.44021684 0.1662218 0.08662086
0.013465075 2.8203547e-05 0.08689821 0.011990384 0.05094165 0.008183975 0.020285 0.31336597
0.024437405 0.0133498525 0.1614444 0.30804947 0.09546989 0.19965188 0.20450477 0.019698834
0.031550355 0.05079872 0.27764577 0.03132282 0.13083044 0.032532077 0.028978493 0.023861052
0.004686424 0.55275136 0.3202056 0.03789869 0.019170975 0.020721674 0.12835102 0.10076509
0.0073567224 0.2060374 0.3987979 0.02818331 0.049383566 0.0072129234 0.043014735 0.2818621
0.06659543 0.011538805 0.050479412 0.010947811 0.066998325 0.27286297 0.32955357 0.2917356
0.056129754 0.014932497 0.012115599 0.15723507 0.10483577 0.035602793 0.3817056 0.2736141
0.00834898 0.03660804 0.069552585 0.0121249305 0.072210364 0.5613166 0.16374889 0.08589932
0.16109085 0.07153102 5.819641e-06 0.040500175 0.0721825 0.01857274 0.0013656814 0.04728396

bn2.weight f4 [128]
00000000: b073 533f 1bcd 173f 1ebf c33e 2cdc 203e
00000010: 0084 023d d0d5 073e 0978 7b3f 384e 113f
00000020: aa00 403f bf39 2e3f e8b0 093f 4936 513f
00000030: 397d 3f3f e0b4 243d fb30 393f 0276 bb3e
00000040: a2f7 913e 970e 113f e45e 753f 5053 3e3e
00000050: 489c bc3e a302 6d3f 8061 eb3d 0846 503f
00000060: 9879 013f a85d 6f3e a5fc 493f 29ab 1c3f
00000070: 8601 e63e 5ed3 733f 1832 443e a8a3 b63d
00000080: 8291 c93e 42f7 cd3e db5c 0b3f d363 493f
00000090: c5f8 7d3f 80e3 6d3e b2c0 273f 6662 6b3f
000000a0: 3940 053f 9061 4b3e 1897 4a3f 2c40 a23e
000000b0: b297 143f 7383 0f3f 207a 8b3e 1c19 963e
000000c0: 535a 383f 4899 883e 72a4 663f 69bb 193f
000000d0: b0dd ac3e b6d0 e53e 703f 963d 144e 5a3f
000000e0: b8e6 ab3e 7cbb 7b3f a431 1e3f b003 ee3e
000000f0: d281 a83e a0d5 513f c016 7c3e 0aba 2d3f
00000100: d87a 823e ca4c ff3e 802a 763e 7d03 0b3f
00000110: fc4f 353f 0aab c23e 3431 d63e 30db 433f
00000120: 504c 6a3e 38dd d73d 14e8 a23e b042 0b3f
00000130: 928d 2e3f 49f4 683f 200b 443d d0be a53d
00000140: 075b 203f c058 863d 0bd3 293f 4efd d53e
00000150: d68f 2e3f a442 523f 70e5 753e 70cf 043f
00000160: 3a28 473f 7cd8 653e 8993 643f 26d0 383f
00000170: f192 483f 027c de3e f4da eb3e 6a05 6b3f
00000180: 78b2 253f 5016 233e 180b d53d 309a 9e3e
00000190: 1d90 353f e0dc 103d fb16 683f d5a2 1e3f
000001a0: 703e c33d 8089 7e3c c268 653f 5e48 a13e
000001b0: 12bc 9b3e b655 8c3e 60f7 c33d 5baa 2c3f
000001c0: 73d8 093f e82b b93e 9bdc 283f 0ca8 9b3e
000001d0: 9e09 2d3f 8083 b13d 2cea 383e e0d0 623e
000001e0: 34b6 3e3f 48cf 503f 4880 793e 2885 693e
000001f0: 1bda 5f3f 7a09 c53e 6035 e73d d5cc 553f
0.825984 0.5929734 0.38231748 0.15708989 0.031864166 0.13265157 0.98230034 0.5675998
0.75001013 0.68056864 0.5378556 0.8172346 0.7480045 0.04021156 0.72340363 0.3661347
0.2850924 0.5666289 0.95847917 0.18586469 0.36837983 0.9258215 0.11493206 0.8135686
0.5057616 0.23375571 0.7890113 0.6119867 0.44923037 0.95244396 0.19159734 0.08917934
0.39368826 0.40227705 0.5443856 0.78667945 0.9920772 0.23231316 0.65528405 0.9194702
0.5205112 0.19861436 0.791368 0.31689584 0.5804397 0.5605995 0.2724161 0.29316032
0.72012824 0.26679444 0.90094674 0.6005159 0.33762884 0.44885796 0.073363185 0.8527539
0.33574462 0.98332953 0.61794496 0.46487188 0.32911545 0.8196659 0.24618053 0.67862
0.25484347 0.49863273 0.2403965 0.543022 0.7082517 0.38021117 0.41834414 0.7650633
0.22880673 0.10540241 0.31817687 0.5439863 0.6818477 0.9099775 0.047862172 0.08093035
0.62638897 0.065598965 0.6633765 0.4179482 0.68188226 0.82132936 0.24013305 0.51879025
0.77795756 0.22445863 0.8928762 0.7219261 0.78349215 0.43453985 0.46065485 0.91805136
0.64725447 0.1592648 0.104025066 0.3097701 0.70923024 0.035366893 0.90660065 0.6196721
0.095333934 0.015535712 0.8961297 0.31500524 0.30416924 0.27409142 0.095686674 0.6744744
0.538459 0.3616631 0.6596162 0.30401647 0.675928 0.0866766 0.1805808 0.22149992
0.7449677 0.81566286 0.24365342 0.22804701 0.8744218 0.38483793 0.11289477 0.83515674

bn2.bias f4 [128]
00000000: 0000 0000 0000 0000 0000 0000 0000 0000
00000010: 0000 0000 0000 0000 0000 0000 0000 0000
00000020: 0000 0000 0000 0000 0000 0000 0000 0000
00000030: 0000 0000 0000 0000 0000 0000 0000 0000
00000040: 0000 0000 0000 0000 0000 0000 0000 0000
00000050: 0000 0000 0000 0000 0000 0000 0000 0000
00000060: 0000 0000 0000 0000 0000 0000 0000 0000
00000070: 0000 0000 0000 0000 0000 0000 0000 0000
00000080: 0000 0000 0000 0000 0000 0000 0000 0000
00000090: 0000 0000 0000 0000 0000 0000 0000 0000
000000a0: 0000 0000 0000 0000 0000 0000 0000 0000
000000b0: 0000 0000 0000 0000 0000 0000 0000 0000
000000c0: 0000 0000 0000 0000 0000 0000 0000 0000
000000d0: 0000 0000 0000 0000 0000 0000 0000 0000
000000e0: 0000 0000 0000 0000 0000 0000 0000 0000
000000f0: 0000 0000 0000 0000 0000 0000 0000 0000
00000100: 0000 0000 0000 0000 0000 0000 0000 0000
00000110: 0000 0000 0000 0000 0000 0000 0000 0000
00000120: 0000 0000 0000 0000 0000 0000 0000 0000
00000130: 0000 0000 0000 0000 0000 0000 0000 0000
00000140: 0000 0000 0000 0000 0000 0000 0000 0000
00000150: 0000 0000 0000 0000 0000 0000 0000 0000
00000160: 0000 0000 0000 0000 0000 0000 0000 0000
00000170: 0000 0000 0000 0000 0000 0000 0000 0000
00000180: 0000 0000 0000 0000 0000 0000 0000 0000
00000190: 0000 0000 0000 0000 0000 0000 0000 0000
000001a0: 0000 0000 0000 0000 0000 0000 0000 0000
000001b0: 0000 0000 0000 0000 0000 0000 0000 0000
000001c0: 0000 0000 0000 0000 0000 0000 0000 0000
000001d0: 0000 0000 0000 0000 0000 0000 0000 0000
000001e0: 0000 0000 0000 0000 0000 0000 0000 0000
000001f0: 0000 0000 0000 0000 0000 0000 0000 0000
0.0 0.0 0.0 0.0 0.0 0.0 0.0 0.0
0.0 0.0 0.0 0.0 0.0 0.0 0.0 0.0
0.0 0.0 0.0 0.0 0.0 0.0 0.0 0.0
0.0 0.0 0.0 0.0 0.0 0.0 0.0 0.0
0.0 0.0 0.0 0.0 0.0 0.0 0.0 0.0
0.0 0.0 0.0 0.0 0.0 0.0 0.0 0.0
0.0 0.0 0.0 0.0 0.0 0.0 0.0 0.0
0.0 0.0 0.0 0.0 0.0 0.0 0.0 0.0
0.0 0.0 0.0 0.0 0.0 0.0 0.0 0.0
0.0 0.0 0.0 0.0 0.0 0.0 0.0 0.0
0.0 0.0 0.0 0.0 0.0 0.0 0.0 0.0
0.0 0.0 0.0 0.0 0.0 0.0 0.0 0.0
0.0 0.0 0.0 0.0 0.0 0.0 0.0 0.0
0.0 0.0 0.0 0.0 0.0 0.0 0.0 0.0
0.0 0.0 0.0 0.0 0.0 0.0 0.0 0.0
0.0 0.0 0.0 0.0 0.0 0.0 0.0 0.0

bn2.running_mean f4 [128]
00000000: 0000 0000 0000 0000 0000 0000 0000 0000
00000010: 0000 0000 0000 0000 0000 0000 0000 0000
00000020: 0000 0000 0000 0000 0000 0000 0000 0000
00000030: 0000 0000 0000 0000 0000 0000 0000 0000
00000040: 0000 0000 0000 0000 0000 0000 0000 0000
00000050: 0000 0000 0000 0000 0000 0000 0000 0000
00000060: 0000 0000 0000 0000 0000 0000 0000 0000
00000070: 0000 0000 0000 0000 0000 0000 0000 0000
00000080: 0000 0000 0000 0000 0000 0000 0000 0000
00000090: 0000 0000 0000 0000 0000 0000 0000 0000
000000a0: 0000 0000 0000 0000 0000 0000 0000 0000
000000b0: 0000 0000 0000 0000 0000 0000 0000 0000
000000c0: 0000 0000 0000 0000 0000 0000 0000 0000
000000d0: 0000 0000 0000 0000 0000 0000 0000 0000
000000e0: 0000 0000 0000 0000 0000 0000 0000 0000
000000f0: 0000 0000 0000 0000 0000 0000 0000 0000
00000100: 0000 0000 0000 0000 0000 0000 0000 0000
00000110: 0000 0000 0000 0000 0000 0000 0000 0000
00000120: 0000 0000 0000 0000 0000 0000 0000 0000
00000130: 0000 0000 0000 0000 0000 0000 0000 0000
00000140: 0000 0000 0000 0000 0000 0000 0000 0000
00000150: 0000 0000 0000 0000 0000 0000 0000 0000
00000160: 0000 0000 0000 0000 0000 0000 0000 0000
00000170: 0000 0000 0000 0000 0000 0000 0000 0000
00000180: 0000 0000 0000 0000 0000 0000 0000 0000
00000190: 0000 0000 0000 0000 0000 0000 0000 0000
000001a0: 0000 0000 0000 0000 0000 0000 0000 0000
000001b0: 0000 0000 0000 0000 0000 0000 0000 0000
000001c0: 0000 0000 0000 0000 0000 0000 0000 0000
000001d0: 0000 0000 0000 0000 0000 0000 0000 0000
000001e0: 0000 0000 0000 0000 0000 0000 0000 0000
000001f0: 0000 0000 0000 0000 0000 0000 0000 0000
0.0 0.0 0.0 0.0 0.0 0.0 0.0 0.0
0.0 0.0 0.0 0.0 0.0 0.0 0.0 0.0
0.0 0.0 0.0 0.0 0.0 0.0 0.0 0.0
0.0 0.0 0.0 0.0 0.0 0.0 0.0 0.0
0.0 0.0 0.0 0.0 0.0 0.0 0.0 0.0
0.0 0.0 0.0 0.0 0.0 0.0 0.0 0.0
0.0 0.0 0.0 0.0 0.0 0.0 0.0 0.0
0.0 0.0 0.0 0.0 0.0 0.0 0.0 0.0
0.0 0.0 0.0 0.0 0.0 0.0 0.0 0.0
0.0 0.0 0.0 0.0 0.0 0.0 0.0 0.0
0.0 0.0 0.0 0.0 0.0 0.0 0.0 0.0
0.0 0.0 0.0 0.0 0.0 0.0 0.0 0.0
0.0 0.0 0.0 0.0 0.0 0.0 0.0 0.0
0.0 0.0 0.0 0.0 0.0 0.0 0.0 0.0
0.0 0.0 0.0 0.0 0.0 0.0 0.0 0.0
0.0 0.0 0.0 0.0 0.0 0.0 0.0 0.0

bn2.running_var f4 [128]
00000000: 0000 803f 0000 803f 0000 803f 0000 803f
00000010: 0000 803f 0000 803f 0000 803f 0000 803f
00000020: 0000 803f 0000 803f 0000 803f 0000 803f
00000030: 0000 803f 0000 803f 0000 803f 0000 803f
00000040: 0000 803f 0000 803f 0000 803f 0000 803f
00000050: 0000 803f 0000 803f 0000 803f 0000 803f
00000060: 0000 803f 0000 803f 0000 803f 0000 803f
00000070: 0000 803f 0000 803f 0000 803f 0000 803f
00000080: 0000 803f 0000 803f 0000 803f 0000 803f
00000090: 0000 803f 0000 803f 0000 803f 0000 803f
000000a0: 0000 803f 0000 803f 0000 803f 0000 803f
000000b0: 0000 803f 0000 803f 0000 803f 0000 803f
000000c0: 0000 803f 0000 803f 0000 803f 0000 803f
000000d0: 0000 803f 0000 803f 0000 803f 0000 803f
000000e0: 0000 803f 0000 803f 0000 803f 0000 803f
000000f0: 0000 803f 0000 803f 0000 803f 0000 803f
00000100: 0000 803f 0000 803f 0000 803f 0000 803f
00000110: 0000 803f 0000 803f 0000 803f 0000 803f
00000120: 0000 803f 0000 803f 0000 803f 0000 803f
00000130: 0000 803f 0000 803f 0000 803f 0000 803f
00000140: 0000 803f 0000 803f 0000 803f 0000 803f
00000150: 0000 803f 0000 803f 0000 803f 0000 803f
00000160: 0000 803f 0000 803f 0000 803f 0000 803f
00000170: 0000 803f 0000 803f 0000 803f 0000 803f
00000180: 0000 803f 0000 803f 0000 803f 0000 803f
00000190: 0000 803f 0000 803f 0000 803f 0000 803f
000001a0: 0000 803f 0000 803f 0000 803f 0000 803f
000001b0: 0000 803f 0000 803f 0000 803f 0000 803f
000001c0: 0000 803f 0000 803f 0000 803f 0000 803f
000001d0: 0000 803f 0000 803f 0000 803f 0000 803f
000001e0: 0000 803f 0000 803f 0000 803f 0000 803f
000001f0: 0000 803f 0000 803f 0000 803f 0000 803f
1.0 1.0 1.0 1.0 1.0 1.0 1.0 1.0
1.0 1.0 1.0 1.0 1.0 1.0 1.0 1.0
1.0 1.0 1.0 1.0 1.0 1.0 1.0 1.0
1.0 1.0 1.0 1.0 1.0 1.0 1.0 1.0
1.0 1.0 1.0 1.0 1.0 1.0 1.0 1.0
1.0 1.0 1.0 1.0 1.0 1.0 1.0 1.0
1.0 1.0 1.0 1.0 1.0 1.0 1.0 1.0
1.0 1.0 1.0 1.0 1.0 1.0 1.0 1.0
1.0 1.0 1.0 1.0 1.0 1.0 1.0 1.0
1.0 1.0 1.0 1.0 1.0 1.0 1.0 1.0
1.0 1.0 1.0 1.0 1.0 1.0 1.0 1.0
1.0 1.0 1.0 1.0 1.0 1.0 1.0 1.0
1.0 1.0 1.0 1.0 1.0 1.0 1.0 1.0
1.0 1.0 1.0 1.0 1.0 1.0 1.0 1.0
1.0 1.0 1.0 1.0 1.0 1.0 1.0 1.0
1.0 1.0 1.0 1.0 1.0 1.0 1.0 1.0
