checkpoint_actor.pth (torch_old, 92000 bytes, 14 tensors)

fc1.weight f4 [128, 33]
00000000: 955d 0cbe bef3 7dbd a5b5 183e 59d5 7bbd
00000010: 66e0 65bc b39c b53d ab8c 8f3d f6b7 08bd
00000020: 0eaf 84bc eba7 46bd 38ce 793d fef1 863d
00000030: b2db af3d 6ffd d03d 3297 543d a202 2bbd
00000040: 538e e73d 5ac0 8dbd 2791 c5bd c7c4 65bd
00000050: 3504 6dbd 669f a93b 887a 543c 7c7e 073e
00000060: 7ccc 85bc 899a 2bbb c926 013d 39a5 d73d
00000070: 00ec b83c 56be 0a3d 5563 efbc bc2b 9cbd
00000080: 6059 06bf 0bf5 8f3d 8570 a73d 9ee9 fdbd
00000090: 9804 083d 8a74 113e 37a1 bd3d 2edf 2ebd
000000a0: a0aa 98bd acf1 1d3e e47f 48bc 8ff0 c63d
000000b0: be71 1f3d 4490 53bc 272f 39bd e83e 6b3c
000000c0: c920 1a3e 253f 443d b65e 3b3c 0e75 c2bc
000000d0: 3fa1 903b efbf bb3b b455 b5bc e655 b3bc
000000e0: 56b4 47bd 2d71 ac3c a015 a13b 0864 51bd
000000f0: d6db ad3e 63d2 30be 2ed0 6c3d f414 96be
00000100: 30fc 113d ea71 56be 43c2 2fbd 2534 1e3e
00000110: 5db3 13be a822 b13d 8900 b7bd e02d 9d3d
00000120: dea9 c4bd 12a2 16bc 24bd 95bd bb76 843a
00000130: f943 8b3b 4b7c a63d 69c5 8a3c e12c 073e
00000140: b8be 35bd b4db 593c cc35 3d3c 325c 76bb
00000150: 716e 64bd 76e8 6c3d d76d eebb fc8f 9e3d
00000160: 7f17 31bd 24c1 003e 4ea6 afbb 67d8 253d
00000170: fc7e 393d 842e 413e a014 ed3d f1af 1dbd
00000180: b169 5fbe 8693 1d3d ba4d afbe 3195 273e
00000190: 18be 11bc 8d1f 5abe 9788 ddbc 3853 863c
000001a0: ee93 1ebd 1f1d 41bd e0f6 c83c 2852 dfbc
000001b0: 0b1f 95bc e8d1 a5bb 7b40 d13c 7e91 16bc
000001c0: 20e2 3abe 8da0 14bd a24a 033d 13ed 2d3d
000001d0: 3592 913b b97c 943a 4d94 e43b 0a93 03bb
000001e0: ac42 dbbc 9cca 423c cc5b b2ba 1c04 433d
000001f0: f090 acbc 7225 ea3d f452 5a3b 06ba 423d
00000200: e81c d13c 70f5 08be ad46 8a3d 46d8 12bf
00000210: 948e 383e a4e0 983d 6e7c 4a3e d09c fbbc
00000220: e079 c5bd 5351 cd3d 45ff 84bd fe46 fb3b
00000230: a49f b5bd 77aa 863d a726 09bd 2148 d5bc
00000240: f4a0 983d 2760 4c3c 8a6c cabd 2388 bcbc
00000250: 994a edbc f001 253d 8a3e bc3d 35d5 953d
00000260: a6c5 e53b 7124 48bd 7de2 943d d88d b73d
00000270: 71e1 ca3c ed40 93ba b52a 38be e87c 573d
00000280: 5df6 d5bd 1383 9e3d bf65 fabd cae4 373d
00000290: f3f1 f2bd 74a7 65bd c951 b73d 239c ddbd
000002a0: 972e 9a3d c997 9abc f17c 06be 8c96 3b3d
000002b0: 6f39 98b9 43bd 7dbc 4d89 6ebe ab0c 00be
000002c0: 87f5 dd3d 82a3 ad3b a9b2 783c 726f 033e
000002d0: 611f 10be b3e0 913d e410 5dbd 331f fc3d
000002e0: a9db 30bd 7c16 20bd bb20 1b3e e02f 373b
000002f0: 95d7 ccbd 910f d43d dcdd 13be 995e ac3c
00000300: 1b80 413e 209a 1fbe c235 533d f9e6 92bd
00000310: 302b da3c 6967 bf3e ef41 c8bd 93f2 5fbe
00000320: ca58 ae3d 7fcb 613e b01f 3bbd 24f0 313e
00000330: ac24 d8bd 98a4 ffbc 19d2 873e 8f4c 86bd
00000340: a1c8 11be 0672 29be c107 173e 6bcb 503c
00000350: dc92 26be 811f 633c 44dd 07bd 0346 d2bd
00000360: a5be 2abd 6eb6 3e3d c52d 8fbd d1ca 85bd
00000370: 29e2 ab3d 8da3 c83c b30c 983d 1fe8 953d
00000380: 7986 2bbd e1c3 c1be 6d79 3b3d a00b 523b
00000390: e43d b03e e98c 843d e76b 623e f680 45bd
000003a0: 421f 083e bac8 acbd a4ff 453c 3dcb c5bd
000003b0: a33c 9abd 2fb3 01bd 9ff6 e3bb 3510 f63d
000003c0: 9eeb ae3d ea01 c03b 4744 c23c ee33 dcbc
000003d0: 0700 b9bd 06c8 adbd cf6a e83d 9fe8 c13b
000003e0: c471 e2bb a164 133b 2b1e d63c 4bda 2a3b
000003f0: fd5b ac3c 3bdb 2fbd 69fc 47bd 0e52 33bd
-0.13707574 -0.06200003 0.14913042 -0.06148276 -0.014030552 0.08867779 0.07009252 -0.033378564
-0.016196754 -0.048499983 0.06098768 0.06589125 0.085868254 0.102045886 0.051902004 -0.041750558
0.11306443 -0.06921454 -0.09646826 -0.056095865 -0.05786534 0.0051764725 0.012968667 0.13231844
-0.016332857 -0.002618464 0.03153113 0.105295606 0.022573471 0.033872925 -0.02922217 -0.07625529
-0.52480125 0.0702916 0.08175758 -0.123980746 0.033207506 0.14204612 0.09259265 -0.04269331
-0.07454419 0.15424222 -0.012237523 0.09713852 0.038926832 -0.012912814 -0.045210984 0.01435826
0.15051569 0.04791178 0.011436155 -0.023737457 0.0044137533 0.0057296674 -0.022135593 -0.021891546
-0.048755966 0.02105006 0.004915908 -0.051120788 0.33956784 -0.17267756 0.057815723 -0.2931286
0.035640895 -0.20941892 -0.04290987 0.15449579 -0.1442389 0.08649188 -0.08935649 0.076747656
-0.09602712 -0.009193914 -0.07311466 0.0010106185 0.0042500463 0.08129176 0.016939836 0.13200714
-0.044371337 0.01329701 0.011548471 -0.0037591574 -0.055769388 0.05783888 -0.0072762775 0.077423066
-0.0432353 0.12573677 -0.0053604012 0.04048958 0.045287117 0.188654 0.115761995 -0.03849787
-0.21817662 0.038470767 -0.34238988 0.16365506 -0.00889542 -0.21301098 -0.02704267 0.016397104
-0.038715295 -0.047146913 0.024531782 -0.027260855 -0.018203279 -0.005060423 0.025543442 -0.0091899615
-0.18250322 -0.036285926 0.032053597 0.04246242 0.004442478 0.0011328674 0.0069756866 -0.0020076656
-0.02676519 0.011889126 -0.001360768 0.04761134 -0.021065205 0.114329234 0.0033313604 0.047540687
0.025526479 -0.13374877 0.067517616 -0.5736126 0.18023139 0.07464722 0.19774029 -0.030714422
-0.096423864 0.10025277 -0.06494001 0.007668375 -0.0886834 0.06575482 -0.033484127 -0.02603537
0.07452574 0.012474096 -0.098839834 -0.023014134 -0.028966235 0.04028505 0.09191616 0.07316057
0.007012087 -0.04886288 0.07269762 0.089626014 0.024765702 -0.0011234559 -0.17985041 0.052609354
-0.10447381 0.07739844 -0.12226438 0.044895925 -0.118625544 -0.0560679 0.08951146 -0.10820796
0.075284176 -0.018871205 -0.13133599 0.04579787 -0.0002903449 -0.015487018 -0.23294564 -0.12504832
0.10837846 0.0052990327 0.015179315 0.12835482 -0.1407447 0.07122936 -0.053971186 0.12310638
-0.043178234 -0.039083943 0.15149204 0.002795212 -0.100020565 0.103545316 -0.14440101 0.021041201
0.18896525 -0.15586138 0.05156494 -0.07172961 0.026631922 0.37383583 -0.09778201 -0.21869878
0.08513029 0.22050284 -0.045684516 0.17376763 -0.105538696 -0.031206414 0.2652748 -0.06557571
-0.1423669 -0.16547403 0.14749052 0.012743811 -0.1626696 0.013862492 -0.03317 -0.1026726
-0.04168572 0.046560697 -0.06991152 -0.06532825 0.08392746 0.02449205 0.07424297 0.07319664
-0.04187629 -0.37844756 0.045770098 0.0032050386 0.3442222 0.06472189 0.22111474 -0.04821869
0.13293174 -0.08436723 0.012084875 -0.09657905 -0.07531097 -0.031665023 -0.0069568898 0.1201481
0.08541034 0.005859603 0.023714198 -0.02688023 -0.09033208 -0.08485417 0.11348497 0.005917623
-0.0069105346 0.00224904 0.026137432 0.0026070054 0.021039957 -0.042933684 -0.0488247 -0.043779425

fc1.bias f4 [128]
00000000: 33c7 5f3d 6e4c 1dbe 2cd8 5ebe 86b4 5cbd
00000010: 870a 26be 2f7d c6bd bce6 123f 8afd a1be
00000020: 2d73 b2be 56e3 bb3d c9c5 b2bd e687 b13d
00000030: d1dd 743e 6a71 adbc 9b64 a1be 1384 eb3c
00000040: 5fba b9bd c889 c13d 7557 56be c182 9f3d
00000050: 5286 02bc 522b a3be b364 8dbe bb02 dabd
00000060: a44a 11bd 396f f6bd dc4c d1bd 8d1b 78be
00000070: 1a87 b0be 838d 913e 43ac 2fbe 3269 bcbd
00000080: a279 51bd e7ef 203c 01fd 96be db5c 45be
00000090: bf5a 5bbe 653f ee3d 0041 acbe f4e6 c6bd
000000a0: fab5 10be 2dac 0fbe 6ea8 aabe 67cd 85bd
000000b0: 803b 8ebd 7af1 d1bc d198 95bd da02 33be
000000c0: 2380 293e 7d37 823d 38d7 de3d 7768 db3d
000000d0: f070 30be e4bc dfbc 252c 10be b9b6 573d
000000e0: 5b35 52be 7e0c 0cbe 55d4 97bd 7781 a6be
000000f0: 553a 03be 64a7 4b3c 7da5 6abd 26bf 4cbe
00000100: 793e 00be 43ee 1fbe 00b0 f0bd e502 de3b
00000110: 8d67 57bd c602 b0be 8441 2bbe 4216 1fbe
00000120: 8c56 a7bc bb46 63bd 1b70 223e 2744 31be
00000130: 1258 103e b69e 68be bc2a 1ebe 2900 ff3c
00000140: 6b6c cabd d630 3f3c 9567 fabd 712f 3e3e
00000150: d138 a3bd d939 e1be 3edb 12bd 1b3a 1abe
00000160: b443 ef3c d336 31bd 95df a4be fcaa e7bc
00000170: 664d 80be 9d9a 9c3d 384a ba3d 91fc c7be
00000180: 5fff c7bd c2ab 82be 5810 6d3c 2271 623e
00000190: aa66 58be 4e09 26be f121 09be 23ea 263d
000001a0: 4340 113e bf43 d7bd aeeb 22bd 5b59 04be
000001b0: 8f01 903d f83c 35be f0cc e8bd 7b77 7cbd
000001c0: ef81 503d ea0e 553d 213a 2dbe d92f 41be
000001d0: 869c 46bd 7b35 703e 80a6 1fbe c0f1 4ebe
000001e0: 3abe ffbd 096d 9f3d 799e 083e 5210 14bd
000001f0: 2a98 c63d 7e75 b3bc e272 3fbd 5bde 063e
0.05463333 -0.15361187 -0.2176215 -0.053883098 -0.16214953 -0.096918456 0.5738332 -0.31638747
-0.34853497 0.0917422 -0.08729131 0.08668499 0.23912741 -0.021172244 -0.31522068 0.028749501
-0.090687506 0.09450108 -0.209318 0.07788611 -0.007966595 -0.31868988 -0.2761589 -0.10645052
-0.035471573 -0.12032933 -0.10219738 -0.2422926 -0.34478074 0.28428277 -0.17155556 -0.09199752
-0.05114139 0.009822822 -0.29489902 -0.19273703 -0.21421336 0.11633185 -0.3364334 -0.097120196
-0.14131919 -0.14030524 -0.33331627 -0.06533318 -0.069449425 -0.02562784 -0.07304538 -0.17481557
0.16552787 0.0635824 0.108808935 0.107132845 -0.17230582 -0.02731175 -0.1407934 0.052664492
-0.20528166 -0.1367664 -0.07413546 -0.3252065 -0.1281522 0.012430046 -0.05728673 -0.19994792
-0.12523831 -0.15618233 -0.11752319 0.0067752474 -0.052588988 -0.34377116 -0.16724211 -0.15535834
-0.020427011 -0.055487376 0.15863077 -0.17311154 0.14096096 -0.22716793 -0.1544599 0.031128006
-0.0988396 0.011669358 -0.12226788 0.18572785 -0.07969821 -0.43989447 -0.035853617 -0.15061228
0.029207088 -0.043265175 -0.3220183 -0.028279774 -0.2505905 0.07646678 0.09096187 -0.3905988
-0.09765505 -0.25521666 0.014469229 0.22113469 -0.21132913 -0.16214487 -0.13391854 0.040750634
0.1418467 -0.105109684 -0.039775543 -0.12924711 0.07031547 -0.17699039 -0.11367214 -0.061637383
0.050905164 0.052016176 -0.16916706 -0.18865909 -0.048489116 0.23457901 -0.15590858 -0.20209408
-0.12487455 0.07784469 0.13341703 -0.036148377 0.09696992 -0.02190661 -0.04674042 0.1317076

fc2.weight f4 [128, 128]
00000000: c6b0 b13d 106e 203a 26e7 62be a24d 2cbd
00000010: de5c 103e b42e b33d 1da0 e2bd a54c 0a3e
00000020: f33a 70be 9bb2 a33d 783c bfbd 9a14 983c
00000030: 3efc a13d 8f02 27bd 8d69 a6be 47ca 1d3e
00000040: 086d 73bd 0dbd 383e df48 343e 11ee c5bd
00000050: b7d5 673d b598 193e b3ad 7ebe c1af 10be
00000060: d5b1 8bbc ad28 423d b34a 373d fe56 f5bd
00000070: 58a1 87bd 6b11 25be b5c1 08be 84fa a23e
00000080: 81a6 ccbd e4e4 c93d 9f51 42bd ac7b ebbd
00000090: 8694 b3bd 2440 123d 8837 283d 3aeb 973e
000000a0: af0d 8dbe 9cf7 fabd d6bc de3d 3dda 0abe
000000b0: 243c 48be db27 833e 2613 a4bd 35ae 503d
000000c0: 2c46 ac3d 013e cc3d df60 343c cccc 11be
000000d0: d6e3 0e3e 6489 213e c8f7 c43d 8103 173e
000000e0: 0ef2 15bd 9b50 66bd 3398 123a c260 1d3e
000000f0: da02 933d 642c 8d3d a2eb 4cbe 9ad8 293e
00000100: 98f4 e53d d223 253d 4419 353e db35 2a3c
00000110: e50d 3b3e 8095 f93d ee88 05bd 0d0d 0abd
00000120: 566e 2f3e 5661 16be 2f90 063c 307d 903d
00000130: 2ddc e93e a46d 6cbe 5b82 fb3d 339c 723d
00000140: 26a8 563e b8e7 d43b 27fa a83e 777d be3d
00000150: a7ff 29bc f2ce 4ebe 7aaf 39be e630 553d
00000160: c8c7 73be 5bd8 c63d ea7d 04be 35cd 233e
00000170: 6b05 69ba 02b6 353c 256b df3d 3e62 ea3d
00000180: 3fdf 433e 6e2a ec3e d868 3c3d ee3f 1abe
00000190: a9a4 443b 9f3a a73c a943 d7bb 1f2e b13d
000001a0: 39ed 68bd b592 bc3c b252 d3bd 7c16 93bd
000001b0: bb93 c33c c891 aa3d 74c5 ddbd ad6f 5cbd
000001c0: fd38 e63d 6713 37bd ee97 5d3e 673f c3bc
000001d0: 90ea 77bd 3d0e 28bd 743e 353e b93b 123e
000001e0: 38dc 023e 8f1f 92be 3195 0c3b 96c7 3cbe
000001f0: a56f ba3c 5d69 babb 9726 18be 96f4 3dbe
00000200: e9de 07be 5aab 21bd 469a 8a3d 628e 24be
00000210: c624 533e 3ee9 09be 3d8c 1a3e 3219 26be
00000220: 55eb 423c 433b 923e e7d0 3db9 e1b5 3dbe
00000230: 8cc7 21bd 1145 bfbd a2f3 02bc 6b8c de3d
00000240: dd3b 1e3e b18f 133d cc91 913d bcd6 6e3d
00000250: 6ed1 a73c b179 4f3e e8db 9f3d 904c ae3e
00000260: b54c f23c 2c89 b2bc 8a11 543e 68c3 48bd
00000270: e422 04be 5057 80bd f701 70bd 05c2 113e
00000280: 2e70 15be 59ec d53d 18f9 303e aa0d 05be
00000290: a7b3 943d 5a43 0a3e 5b9c 31be 1551 6f3e
000002a0: a7a1 e4bd a51c 803c 8b20 e43d c71a 34be
000002b0: 8b26 c93d 3564 d5be c539 2fbd a3e2 9d3d
000002c0: 7274 653e b220 8fbd 0eed fc3d e353 a5bc
000002d0: d3ab 8d3e 4507 823e fba1 483e af60 353e
000002e0: a88d 713c 6b2a 243e 12ab b5bd 5477 7fbd
000002f0: 6e6d ec3d 5d45 283e 5c15 73be b5a5 01bf
00000300: 6142 63be 670b a33d 535c d8bd ccd8 443e
00000310: aadc a83d 340d 08bc fead 2e3d 5bf1 863e
00000320: ea1f 82be 731b da3c 7a31 f9bc 39fb e43d
00000330: f7d1 66be f6b7 b13d 0a14 903d a513 b23d
00000340: 7962 443e 6be3 803e 415b ac3d ed29 1ebb
00000350: 2049 1ebe 1b28 cf3d 5fab 24bc 88ce dfbd
00000360: 8419 bbbe 6659 353d d591 8ebe 885e 9fbd
00000370: 64f5 3c3e 39cc 56be b291 8abd 127e eb3b
00000380: 83b2 98bc fdf4 773c 36ab 903e dcaa ca3c
00000390: 6806 2c3d 4b7a febc f1dc 31bd a8b4 67be
000003a0: 384a 293e 20f5 483e 8023 f53c 4fd7 2f3c
000003b0: f3ce 9f3e 00e5 4dbe b3a4 ad3b ac73 873e
000003c0: ffe9 093e dc0b 72be f4ca 14be cc4b b3bd
000003d0: acae 433e 58fe 55be 4dae 3d3d baba 303e
000003e0: 6369 3b3e 14cd c93d 0eea 1a3d 9e02 a13d
000003f0: a9ca cfbc 3a1f c8bd eb81 89bc 1c3d 6dbd
0.08676295 0.0006119916 -0.22158489 -0.042066224 0.14097926 0.08749142 -0.110656954 0.135058
-0.23459987 0.07993051 -0.093377054 0.018564511 0.079094395 -0.040773924 -0.32502404 0.15409194
-0.059430152 0.18040867 0.17605923 -0.09664548 0.0566003 0.1499966 -0.24870948 -0.14129545
-0.01705257 0.047402073 0.044748973 -0.11979483 -0.06622571 -0.16119926 -0.13355143 0.31831753
-0.099926956 0.098581105 -0.04744112 -0.11498198 -0.08768563 0.0357057 0.041068584 0.2967165
-0.27549502 -0.12254259 0.10875861 -0.13559814 -0.19554192 0.25616345 -0.08011465 0.050947387
0.08411822 0.09972764 0.011009424 -0.1423828 0.139541 0.15775067 0.09617573 0.1474743
-0.036607794 -0.056229215 0.00055921375 0.15368941 0.07178278 0.068932325 -0.20011762 0.16586533
0.11228293 0.040317364 0.1768542 0.010388817 0.18267019 0.12186718 -0.03260129 -0.033703852
0.17131934 -0.14685568 0.008213087 0.070551276 0.45675793 -0.230887 0.12280723 0.059230994
0.20962581 0.0064973496 0.3300335 0.09301274 -0.010375894 -0.20196131 -0.18133345 0.052048586
-0.23806679 0.09709235 -0.12938657 0.15996249 -0.0008889052 0.011090757 0.10909108 0.114445195
0.1912813 0.4612612 0.045998424 -0.1506345 0.0030005372 0.020413695 -0.006569345 0.08651375
-0.05686686 0.023019174 -0.10318507 -0.07182023 0.023874154 0.08328587 -0.10828677 -0.05381744
0.112413384 -0.044696238 0.21639988 -0.023833944 -0.06052643 -0.041029204 0.17699605 0.14280595
0.1277932 -0.28539702 0.002145123 -0.18435511 0.022758314 -0.00568883 -0.14858471 -0.18550333
-0.13268627 -0.039470054 0.067677066 -0.1606994 0.20619497 -0.13467881 0.15092559 -0.16220549
0.011896928 0.28560838 -0.00018102267 -0.18526413 -0.039496943 -0.09339345 -0.007992657 0.10866626
0.15452524 0.036025707 0.07107887 0.058310255 0.020485606 0.20261265 0.07805616 0.34042788
0.029577592 -0.021793924 0.20709816 -0.04901448 -0.12903935 -0.062666535 -0.058595624 0.14234169
-0.14593574 0.1044547 0.17282522 -0.12993494 0.072608285 0.13502255 -0.17344801 0.23370774
-0.11163645 0.015638659 0.111390196 -0.1758834 0.098218046 -0.41678014 -0.042779703 0.07709243
0.22407702 -0.06988658 0.12349902 -0.020181602 0.27670154 0.2539617 0.1959304 0.17712663
0.014743246 0.16031806 -0.0887052 -0.06236966 0.115443096 0.1643271 -0.23738617 -0.50643474
-0.2219329 0.07961159 -0.105644844 0.19223326 0.08245213 -0.008303929 0.0426464 0.26356015
-0.25414973 0.026624417 -0.0304191 0.111807294 -0.22541033 0.08677666 0.07035072 0.08695153
0.1917819 0.25173506 0.08415843 -0.0024133876 -0.15457582 0.101150714 -0.010050624 -0.109280646
-0.36542904 0.04427471 -0.27845636 -0.07781702 0.18452984 -0.20976342 -0.067660704 0.0071866596
-0.018639809 0.015134093 0.28255624 0.024739675 0.041998297 -0.031064173 -0.043423597 -0.22627509
0.16532218 0.19624758 0.029924154 0.010732486 0.31212577 -0.20106888 0.0052991747 0.26455438
0.13468169 -0.23637336 -0.14530545 -0.087546915 0.19109601 -0.20897806 0.046308804 0.1725873
0.1830192 0.09853569 0.03782087 0.07861827 -0.02536519 -0.09771581 -0.016785583 -0.057919607

fc2.bias f4 [128]
00000000: 4311 efbc d128 8c3d 4bcc 8e3c 9793 abbc
00000010: 3210 273d a10d 713d 7fcb 873d 2c19 59be
00000020: 7d93 68be 106c 77be daae 9ebc bba0 bc3d
00000030: 01eb bfbd 587e 543e 625f 16bd 3f90 2ebe
00000040: dc07 3abc 9fc4 aebd a83a 7fbd b5b5 753d
00000050: 50e8 f7bd 43b4 023e 95d6 b3bd 9386 553c
00000060: 1239 0d3d eeb7 1a3e b825 c0bc 951c 593d
00000070: 5a09 103e fcc8 8b3c 80f8 f4bd 8f78 42be
00000080: 66f7 a23d 01cf ad3c e7c1 b63c a80a b1bc
00000090: fcd4 89bd 811d 02bd c88d 0a3e 3a4a 123c
000000a0: 7c46 4ebe cd91 09bd b604 8abd 4cd3 6c3e
000000b0: 72e0 1e3d 91f7 ff3c b065 cb3d 0707 6d3d
000000c0: 0631 953e a4c0 82bd df0e b5bd a4b8 1fbe
000000d0: 3160 5d3e 93b4 90bd 9485 903d 8d35 de3d
000000e0: 4534 033c f4f5 7c3c 8ade 95bd 40a3 78bd
000000f0: a1f1 0f3d e0ee 033e 17b8 203d 5499 303e
00000100: 9bf6 e33c 83e8 363e bd22 8c3d 63f0 f8bd
00000110: c696 803d a470 713d 4c38 37be 6d3e da3c
00000120: 729f 25be 4e44 843e acbb c43d 0994 03bd
00000130: 6ea9 143d 3590 013e c1e6 dcbd d68f 20be
00000140: d273 783d be30 06be a3e0 6e3c 811b 8c3d
00000150: 83c9 3b3d fb9f 2fbe 8c12 c4be 916b 24be
00000160: 68ef 7fbe d47d 02bd 86a5 fa3c 17d3 0fbd
00000170: 5ee3 aabd af20 823d 2f3a b63d 5948 053e
00000180: d6b6 a93d 2187 63be 443b 383d 9c14 abbc
00000190: 3025 d23d f0df 8e3d 70c0 363e f055 ebbe
000001a0: 7166 443d 1a24 4b3d e1a1 23be 3aaa 44bd
000001b0: f827 e2bd b173 bb3d 43c9 5dbe d10e ac3d
000001c0: 31a8 33bc 8c1b 47be 1915 0d3e 677f f73d
000001d0: d3d5 5c3e 1b58 503d f343 f7bc 87f5 153e
000001e0: 0bb4 23be 5bd9 49be a65d 3a3c 6f21 1cbc
000001f0: b4c0 47bb ee0e d1bb 3188 29bd 8ebb dc3b
-0.029183036 0.068437226 0.017431399 -0.0209444 0.04078693 0.05885089 0.06630611 -0.21201009
-0.22712512 -0.24162316 -0.019370485 0.092103444 -0.09370995 0.20751321 -0.036712058 -0.17047213
-0.011354413 -0.08533596 -0.0623118 0.059987742 -0.12104857 0.12764077 -0.08781163 0.013032573
0.034478255 0.15109226 -0.023455486 0.053005774 0.14066067 0.01706361 -0.1196146 -0.18991302
0.07957344 0.021216871 0.022309257 -0.021611527 -0.06730077 -0.03176642 0.13530648 0.00892883
-0.20144075 -0.033586312 -0.0673918 0.23127478 0.038788266 0.031245979 0.09931505 0.05786803
0.29138964 -0.063843995 -0.08840727 -0.15597779 0.21618725 -0.07065692 0.07056728 0.10850058
0.0080080675 0.015439499 -0.073178366 -0.060702562 0.035142545 0.12884092 0.03923806 0.1724599
0.027827552 0.17862134 0.06842563 -0.12155225 0.06278758 0.058945313 -0.1789257 0.026641095
-0.16174105 0.25833362 0.09606108 -0.0321236 0.036294393 0.12652667 -0.107862 -0.15679869
0.06065733 -0.13104531 0.014579925 0.068411835 0.045846473 -0.17150871 -0.382954 -0.16056658
-0.2499367 -0.03185828 0.030596506 -0.03511342 -0.08344148 0.0635389 0.088978164 0.1301588
0.08286826 -0.22219516 0.044978395 -0.02088385 0.10260999 0.069763064 0.17846847 -0.45964003
0.04794926 0.049594976 -0.1597972 -0.048013903 -0.1104278 0.09152926 -0.21658807 0.084012635
-0.010965393 -0.19444102 0.1377758 0.12084847 0.21565942 0.050865274 -0.030183768 0.14644442
-0.1598665 -0.19711821 0.011374867 -0.009529456 -0.003047985 -0.0063799536 -0.041389648 0.0067362254

fc3.weight f4 [4, 128]
00000000: 94f7 c9be b90d 233f 27aa 783d 1447 603e
00000010: eff7 993e 3b13 35bd 208d d6be a993 47be
00000020: 5c4b 0ebf 74f3 b73e 9a68 b03d 4d4e d5be
00000030: 81f1 5bbf b496 543e f4e8 22bf fc01 f2be
00000040: 36d5 493f 31d4 293f 1c30 c9be d0bd 943e
00000050: a147 53be 46fe b9bd 6a33 2ebe a6d5 a43e
00000060: c753 2b3e 4f9f e5bd e379 1d3f 1a2e 78bf
00000070: 8535 683f 9c6b 10be 2bd7 05be de7e f2bc
00000080: 2b8a 8fbd 7c7e 93be 2794 113f 0c77 f63e
00000090: 005a 033f 0dfb 893e 6db4 29bf 04da 093f
000000a0: ceff 14bf b6d0 163f 9360 1abf a1bd 15bf
000000b0: 3281 aebe 3189 95be 8266 2e3f 6cf1 3abd
000000c0: ad69 8fbe 6149 a2be 9d62 61be b6ce ae3e
000000d0: 5b67 b23e 2af1 39bd fd9c 06bf 15ed ce3e
000000e0: 1e20 143e 8164 0abf 1c5e 243f dcd4 293d
000000f0: c6ed 133f 5359 29bf b5ef 9ebe d236 e7be
00000100: 9da0 b1be 5df2 41be 8a07 d0be d452 d3bd
00000110: b377 91be 3c4a a63d 9dd4 42bd 6957 e5be
00000120: 006e a5bd c43f 12bf 63aa 0fbc 28d0 e1be
00000130: f70d 723f d743 03bb eb0a 78bd 7dbe 42be
00000140: 729f 94be a7be 8e3f 7d75 373e 7a86 5f3e
00000150: 8b88 c6be 792a 88be 4f38 573e cb5b 013f
00000160: 0cd1 d3be cc76 52bc d454 023f db18 0fbe
00000170: 35a8 253e bd8e cabe c0ce 463e 630b 2cbe
00000180: 4584 04be aa16 f4be e3a1 c33e ea87 43bf
00000190: 911f 30bf c887 a13b a2d2 19bf 002a d6bd
000001a0: 6d90 ae3e cada 193f 4d5b 2bbf 36c9 9ebb
000001b0: af92 8b3e 275d 113f 5382 d83e cbac 89be
000001c0: 4793 0e3e ab69 4d3d aa6d 063f 1cb9 ed3e
000001d0: 67b7 4a3f 1e14 0c3f be8d 2fbe b660 cebe
000001e0: e20c 28be 1d7e 9a3e 8a2c 2a3e de5d 35bf
000001f0: a2ba 123f a654 0bbd 9d95 e53e 82c7 9b3d
00000200: 2e53 0c3e b041 cc3c eda1 863d bacc 2dbe
00000210: 4f4f 7d3e 8632 a0bd 404b 50be ef69 8cbe
00000220: 5762 d8bd ee09 2fbc 1fab 82be 3508 00be
00000230: fe62 9c3d 63e4 8dbe c841 65bd fd63 0b3e
00000240: ba84 9e3b e84b fb3c e8ae 75be ea33 35be
00000250: a394 233d 396f aebd d4f1 393e 0dd3 6b3e
00000260: 04bd 563c 6115 dbbc 038e 39be 0edc 893c
00000270: acf6 293c 5335 ebbd 97f5 bbbd 88f8 113e
00000280: f49a 6bbd 5ef9 1f3d 55aa 353e e477 2c3e
00000290: d342 48be 64fb 5f3d 5fd5 be3c 22d8 ac3d
000002a0: d8c0 c03e 5006 603d f1e5 563e cafd acbd
000002b0: 3bff 11be a35d 28bc 02ec 0b3e 2a8f 653d
000002c0: fe56 8b3d 84fe 08be b6c5 cbbd ecc1 b53e
000002d0: e0d9 45be bb06 75bd e1da ad3d 328b e7bc
000002e0: 2f7c 093d ee5c 6cbd b778 053f 9c24 aa3e
000002f0: 8be3 bebb 304a 2fbe 9f65 023e 62b2 5b3e
00000300: ec80 c83c 36ca 0ebe 0af8 63bc 6def cc3e
00000310: 1174 803e 3c4a 5b3d c603 a03e 7fb8 f6bd
00000320: 0b38 053f 6424 713d bae3 403e 6770 acbd
00000330: 533a c8bd 5591 fbbd bb95 9bbe 55c2 5a3d
00000340: ab95 983e a244 493d 782e 273d 5ba1 d5bc
00000350: d018 043e f5be 82be e0b1 9b3b 3efd b9bc
00000360: 23c1 77bd 565f debd e768 8ebe 3f7d a33e
00000370: 4af7 2f3e 35e5 0c3e 6bf1 8d3e adb2 d7bd
00000380: ab66 f1bd 0dd3 54bd 12ac d0bd 63be 653d
00000390: 9096 c1bd 98e9 95bd 0ce0 a13e d769 f7bd
000003a0: 9145 d0bc 3566 053e 89b6 373d 8cae 89bd
000003b0: d165 85be d3c4 513e 3e97 dd3d 7ff5 2cbe
000003c0: 7f50 ef3d f090 30be bcc8 6a3e b7da c83c
000003d0: 992d 48bd 38b2 a03d 6a7a c83d 1f46 a6bd
000003e0: 4b62 2ebe 0c1a 183e f43c ff3d dd49 65bd
000003f0: f6fa 35be eee4 be3d a6b5 febc dc39 25be
-0.394467 0.63692814 0.060709145 0.21902114 0.3007197 -0.044207793 -0.41904545 -0.19489922
-0.5558374 0.35927927 0.08613701 -0.416613 -0.8591538 0.20760614 -0.6363671 -0.4726714
0.7884096 0.66339403 -0.39294517 0.29051065 -0.20632793 -0.09081702 -0.170118 0.3219425
0.16731177 -0.11212026 0.6151411 -0.96945345 0.90706664 -0.1410355 -0.13070361 -0.02960151
-0.07008775 -0.28807437 0.5686669 0.481377 0.51309204 0.2694935 -0.6629093 0.5384829
-0.58202827 0.5891222 -0.6030361 -0.58492476 -0.34082943 -0.2920623 0.68125165 -0.045640394
-0.28010312 -0.3169661 -0.22010274 0.34142083 0.3484448 -0.045396008 -0.52583295 0.40415254
0.14465377 -0.54059607 0.642061 0.041462764 0.5778469 -0.6615192 -0.31042257 -0.45159012
-0.3469285 -0.1894011 -0.40630752 -0.103185326 -0.28411636 0.08119628 -0.047566045 -0.4479325
-0.080776215 -0.5712855 -0.008768651 -0.44104123 0.9455256 -0.002002945 -0.060557287 -0.19017978
-0.29027897 1.1151932 0.17915912 0.21828642 -0.3877605 -0.26594904 0.21017574 0.5053069
-0.41370428 -0.012845706 0.5091069 -0.13974325 0.16177447 -0.39562026 0.19414806 -0.16801219
-0.12941082 -0.4767354 0.38209447 -0.76379263 -0.68798167 0.0049295165 -0.60087025 -0.104572296
0.34094563 0.6009947 -0.6693619 -0.0048457636 0.27260348 0.56782764 0.4228693 -0.26889643
0.1392337 0.0501496 0.52511084 0.4643029 0.791861 0.54718196 -0.17143914 -0.4030816
-0.16411164 0.30174342 0.16618553 -0.70846355 0.5731603 -0.034016274 0.44840708 0.076064125
0.13703606 0.024933666 0.06573854 -0.16972628 0.24737285 -0.078221366 -0.20341206 -0.2742457
-0.10565632 -0.01068352 -0.2552118 -0.1250313 0.07636069 -0.27713308 -0.055970937 0.13612361
0.0048375996 0.030675843 -0.23992503 -0.17695585 0.039936673 -0.08517308 0.18158656 0.23029728
0.013106588 -0.026743593 -0.1812058 0.016828563 0.010373753 -0.1148478 -0.09177702 0.14254963
-0.05752082 0.039056174 0.17740758 0.1684261 -0.19556741 0.054683104 0.023295103 0.084396616
0.37647128 0.05469352 0.20986153 -0.08446844 -0.14257519 -0.010276231 0.13664249 0.056044735
0.06803702 -0.1337834 -0.0994982 0.35499513 -0.19321394 -0.05982087 0.084890135 -0.028264616
0.033565696 -0.057705812 0.5213732 0.33231056 -0.005825465 -0.17118144 0.12734078 0.21454766
0.024475537 -0.13944325 -0.013914118 0.40026417 0.25088552 0.053537592 0.3125288 -0.120469086
0.5203864 0.058872595 0.18836871 -0.084198765 -0.097767495 -0.12283579 -0.30387673 0.053407986
0.29801688 0.04913772 0.0408158 -0.026077917 0.1290009 -0.25536314 0.004751429 -0.022703763
-0.060486924 -0.10858028 -0.2781441 0.31931493 0.17184177 0.1375931 0.2772325 -0.105321266
-0.117871605 -0.051959086 -0.1018907 0.05608977 -0.09452546 -0.07319945 0.31616247 -0.12080734
-0.025423797 0.1302727 0.044851813 -0.06722745 -0.26054242 0.20485239 0.10819863 -0.16890524
0.11685275 -0.1724279 0.22928137 0.024518354 -0.04887161 0.078464925 0.09788974 -0.08118843
-0.17029683 0.14853686 0.12462798 -0.055978645 -0.17771515 0.093210086 -0.031092476 -0.16135353

fc3.bias f4 [4]
00000000: 758a ccbd 615d a93d 1c86 b0bd 534d 8dbd
-0.09987346 0.08269764 -0.08619329 -0.06899514

bn1.weight f4 [128]
00000000: a568 3d3f d0a0 623f ef8f 4b3f bc86 443f
00000010: 7fe9 4e3f fc70 053f 11d1 743f 2c5d d53e
00000020: 2ed6 843f ee1a 663f 7f65 2e3f a848 f13e
00000030: 31cb 8a3f be81 683f cfe4 e23e 60b8 813f
00000040: 8a83 5d3f acfc 633f 3bf0 8c3f f90e 863f
00000050: aebb 273f 8033 513f 4e7e 063f ceed 8e3f
00000060: a5f7 643f 0e5f 4e3f 1d17 803f b8ea 353f
00000070: 5545 853f 7fe9 803f 9e94 d23e b093 5a3f
00000080: 3938 183f 9a85 263f e007 e93e 7d30 b53e
00000090: e637 783f 6fc8 443f 880f 923f bef8 683f
000000a0: 0713 013f 5ff1 df3e 5084 323f aabc 5f3f
000000b0: 53e1 2a3f 24ba ad3f f110 933f 2565 153f
000000c0: 1a4e e33e effd 2c3f 5bd4 0b3f 987d 4c3f
000000d0: ee44 103f 7c49 753f 96be 0e3f 12bf e93e
000000e0: b186 053f 9157 353f db3f 5d3f 49ff 3a3f
000000f0: fedc 2a3f f7c0 ee3e dcba f13e 9012 f73e
00000100: 9a1a 793f 2a29 dd3e 9bad 313f 75bb 3c3f
00000110: 302e 6c3f fe36 293f 1ef0 413f 304c 953f
00000120: 20ea 1b3f be18 133f 2926 493f de24 6b3f
00000130: aa59 963f d9d9 903f f8c6 8a3f 103b 193f
00000140: 2cc2 753f 4400 833f b1b5 533f f017 813f
00000150: 2615 233f 807c c73e f012 5c3f 2f80 983f
00000160: 507d 523f 3ad3 103f a99b 033f 737b 3b3f
00000170: cbc2 203f 18c5 843f aa8c 1b3f 068b 6f3f
00000180: 022a 1a3f ac54 293f 5f0c 553f 4104 573f
00000190: 0e13 333f 1ef7 1d3f d45f 973f fb83 053f
000001a0: 9b88 7c3f e61f 2b3f bf7b 053f 7a60 753f
000001b0: 227a 443f 8e8f 473f 0d96 173f d067 8a3f
000001c0: d247 f43e 17a0 803f d769 433f 5f81 1f3f
000001d0: 9773 583f 7fda 243f b561 693f b322 263f
000001e0: f3c7 303f 1565 9a3f 3ab4 303f 88aa 7b3f
000001f0: 7189 273f 9d01 0f3f db7d 643f 0ad5 9c3f
0.739878 0.8852663 0.795165 0.7676809 0.80825037 0.52125525 0.9563151 0.41672647
1.0377862 0.8988484 0.6812362 0.47125745 1.0843259 0.9082297 0.44315192 1.0134392
0.8652884 0.8905742 1.1010813 1.0473319 0.6552075 0.8171921 0.52536476 1.1166322
0.89440376 0.8061379 1.0007054 0.7106128 1.0411783 1.0071257 0.4112901 0.85381603
0.5946079 0.6504761 0.4551382 0.35388556 0.96960294 0.7686834 1.141099 0.9100455
0.5041966 0.4373884 0.6973314 0.87397254 0.6675007 1.3572431 1.1489545 0.5835746
0.44395524 0.6757497 0.54620904 0.7987914 0.5635518 0.95815253 0.5575956 0.45653588
0.5215865 0.7083674 0.8642556 0.73045784 0.6674346 0.46631595 0.47212875 0.4825635
0.97306216 0.43195468 0.69405526 0.73723537 0.92257977 0.66099536 0.75757015 1.1663876
0.6090412 0.5745963 0.7857385 0.9185313 1.1746113 1.1316482 1.084197 0.5985575
0.9599941 1.0234456 0.82699114 1.008543 0.63704145 0.38962173 0.85966396 1.1914119
0.8222246 0.56572306 0.51409394 0.73235244 0.6279723 1.0372648 0.6076151 0.9357151
0.6022035 0.66144824 0.83222 0.83990866 0.6995095 0.61705196 1.182612 0.5215451
0.98645943 0.6684555 0.52141947 0.95850337 0.7674886 0.7795342 0.59213334 1.0812931
0.47711045 1.0048856 0.76333374 0.6230678 0.84551376 0.643959 0.91164714 0.64896697
0.690551 1.2062098 0.69025004 0.98307085 0.65444094 0.55861837 0.8925454 1.2252514

bn1.bias f4 [128]
00000000: 4627 1f3d 5c3b 21bc 3ad1 003e 0573 383d
00000010: cde1 83be 7606 143d 9ff1 153e a8d8 2dbd
00000020: 022f 433d 0f29 80be 4fb6 3abe 3837 10bd
00000030: ce3f 9fba 16f7 15be a394 273e f15e 31be
00000040: 6980 403e 8ef1 653d 5fb6 02be 3022 063d
00000050: 0d8b 173d a334 0dbe a4cf df3d a474 b2bd
00000060: 8882 103e feb3 f93d adb0 38bc 67dd 1a3e
00000070: d161 f43d 8512 f03d dbb0 033d 4913 523d
00000080: 4928 043e 3e00 c83d a085 7c3d f1fd 0d3e
00000090: 5578 b13d 7194 213e f566 35be 15aa 29bd
000000a0: 9b35 503d 161f 13be a71d c9bd bbef 40be
000000b0: d07c 53bd e444 39bd 0701 4cbd f434 793d
000000c0: 675d 263c 5114 60bd cfb3 dbbb a33a 42bc
000000d0: 110e 01be 7f89 12be b3d6 98be e8ae ecbd
000000e0: f02d 4f3e ed72 a33d 0793 4abd 958c 8f3e
000000f0: 8f3b 0a3e e092 5ebc 3dd5 2ebd 0228 af3d
00000100: 7351 133e 6f17 7bbe c214 d2bd b21f c73c
00000110: 036f 82bd 0d17 0abe e32a 4b3d 2dc9 f33c
00000120: 7a00 8d3d 0108 f33c b1c1 d2bd 5ddf 1e3d
00000130: f4cc b93d 9699 94bc 0338 413e c7fb b23d
00000140: d9ea 7bbd a2d8 b43c 2568 363d 6a09 223d
00000150: ecfd 213e 0530 28be 2f82 4e3b 4807 a53e
00000160: c41d 7bbc 1848 fdbd 6078 0a3e 9510 94bd
00000170: 9a7e 083e 62cf 6c3e 4cae aa3d c014 0fbe
00000180: 1cbd 00be 3c3c c2bc b464 8e3b cec8 07bd
00000190: 3191 71bd 4a89 043e d67e d03d e8e4 733c
000001a0: 9ad4 8dbd b4b2 8f3d a399 953c e94e b93d
000001b0: 294e fe3b 0191 143d c882 b33d e9bd e33c
000001c0: 5302 1abe 3ede bebd 04e9 053c ec8e 39be
000001d0: 6174 e8bd c295 16be d179 633e 417b 32be
000001e0: 8528 9ebd eeb6 df3d fbe7 cb3d 49f3 a23c
000001f0: ea85 bf3d edc8 bcbc b9c5 62be 78b8 98bd
0.038855813 -0.0098408125 0.12579814 0.045031566 -0.2575821 0.036138974 0.14642952 -0.042442948
0.047652252 -0.25031325 -0.18233608 -0.03520891 -0.0012149753 -0.14645037 0.16365294 -0.17321374
0.18798985 0.056138568 -0.12764882 0.032747447 0.036997844 -0.1378961 0.10928276 -0.08713654
0.14112294 0.12192534 -0.011272592 0.15123521 0.119327195 0.11722282 0.032151084 0.051287923
0.12905993 0.09765671 0.061650872 0.13866402 0.0866553 0.15779282 -0.17715056 -0.04142197
0.050832372 -0.14367327 -0.09820109 -0.1884145 -0.051632702 -0.045231715 -0.049805667 0.060841516
0.010154105 -0.054706875 -0.0067047845 -0.0118548 -0.12603022 -0.14310263 -0.29851303 -0.11556798
0.20232368 0.07980905 -0.049456622 0.28036943 0.13499282 -0.013584822 -0.04268383 0.08552553
0.14386539 -0.24520658 -0.102578655 0.024307106 -0.0636883 -0.13485356 0.049601447 0.029759014
0.068848565 0.029666902 -0.1029085 0.038787235 0.09072295 -0.018139642 0.18869023 0.08739429
-0.061503265 0.022075955 0.044532914 0.03955976 0.1581952 -0.16424568 0.00315107 0.32232118
-0.015326921 -0.123672664 0.13522482 -0.07229725 0.13329545 0.23125985 0.08334026 -0.13972759
-0.1257214 -0.023710363 0.004345501 -0.033150487 -0.058976356 0.12942997 0.10180442 0.0148861185
-0.06925316 0.07016507 0.018261736 0.09048254 0.0077607823 0.0362711 0.08765179 0.027800517
-0.15039949 -0.09319733 0.008173231 -0.18120927 -0.113503225 -0.14705566 0.22214438 -0.1742983
-0.07722572 0.10923563 0.09956356 0.019891398 0.09351714 -0.023045028 -0.22145738 -0.074570596

bn1.running_mean f4 [128]
00000000: 516d 4d3e f5dc ab3c 0228 023e dba8 0d3e
00000010: 5509 e43e 5aa5 ae3e e767 1340 5772 6e3a
00000020: 8e13 e53d 90a9 543d 7084 263f 33dc 233f
00000030: 50ca 8e3e 02b1 c33e 5935 323d b445 013e
00000040: ab93 813e 59cf ab3f e0a4 083e 8d81 0a3e
00000050: 6595 1b3f aade 2b3e 4379 0d3e 3a12 953d
00000060: 326d 4a3e d687 8d3d 69b0 3b3f bc2b 803e
00000070: 442b 973c 106d e63e ab03 6939 3cb6 763d
00000080: 5e8a 893e ffa1 d23e e487 f23b 61bc c73d
00000090: 9698 cd3e 92bc db3e ec3b 913d 7173 483e
000000a0: 4d2d 873e 1280 f93d b1df d13d 03fd 093e
000000b0: df7a a83e cb4a 1e3e e59a 6f3e f6b7 333e
000000c0: 956e bb3e e8e1 173f 9dd2 943e 0092 8b3e
000000d0: 0b27 2439 d51c 973e 16ec e03d 168d 073f
000000e0: a87d cb3d da3b f83d 4107 453d 8269 193e
000000f0: 7c82 363f af1c e23d bc2d 113f 9240 2e3f
00000100: 48c5 a63d 31dd e43d d7c8 c43d 7e52 dd3e
00000110: faac 383e f753 4039 406b 6c3e 1434 923d
00000120: 5dcb 9e3d 04a5 103e 9048 2b3f 7637 c33d
00000130: 1472 5b3e 3ddf fa3d 7f90 173e 77cf 4c3e
00000140: 3f59 a63e e602 0c3e 58b4 313d 000b 973e
00000150: 0cd6 4f3e ec10 8239 5990 823d f972 3c3d
00000160: 4e64 aa3d 3b72 673f 04dc 383e 5cdd b03d
00000170: 53dd 8b3e d447 243e 9390 053f 6fef 1639
00000180: ddee 4a3f 3194 4e3d ae67 583d 75b0 b03f
00000190: 0f45 5d3e c029 e93d ee1e ce3e 53d4 323e
000001a0: 0098 d73e cf5b 0e3e 8c78 7f3e c33d 2a3f
000001b0: 0946 133f 3935 a93e 8f50 8e3d a725 2f3e
000001c0: 7ae2 453f b1d7 0a3e 0a59 933e 5e41 013e
000001d0: 720c c13e 7543 983e e2e4 0c3e 1469 663e
000001e0: 18e7 233e 727f 583e b874 703f 6449 073e
000001f0: 3761 1b3e 2f2e 053f 8483 b63d d991 5f3f
0.20061232 0.020979384 0.12710574 0.13833944 0.4453837 0.34110528 2.3032167 0.00090960175
0.111853704 0.05191952 0.65045834 0.6400787 0.27888727 0.38220984 0.043507908 0.12624246
0.25307974 1.3422652 0.13344145 0.13525982 0.6077483 0.16784158 0.13815789 0.07278867
0.19768217 0.06910674 0.73316056 0.25033367 0.018453248 0.45005083 0.00022221978 0.060232386
0.26863378 0.41139218 0.0074014533 0.09752727 0.40155476 0.42917305 0.07091507 0.19575287
0.2640175 0.121826306 0.10247744 0.13475423 0.32906243 0.15458219 0.23398931 0.17550644
0.36607805 0.5932908 0.29066935 0.27259827 0.00015654803 0.29514185 0.1098253 0.52949655
0.099360764 0.12120791 0.04810262 0.14981654 0.71292853 0.11040627 0.5671041 0.68067276
0.08143097 0.111750014 0.0960862 0.43227 0.18034735 0.00018341826 0.23087788 0.07138839
0.07753632 0.14125448 0.66907597 0.09532063 0.21430236 0.122496106 0.14801215 0.20001017
0.32489964 0.1367298 0.04338488 0.2950058 0.20296496 0.0002480814 0.063751884 0.046008084
0.08319913 0.90408677 0.1805268 0.08635971 0.27317294 0.16043025 0.5217373 0.0001439431
0.79270726 0.050434295 0.05283325 1.380385 0.21608375 0.11384916 0.40257972 0.17463808
0.42108154 0.1390221 0.24948329 0.6650049 0.5752874 0.33048418 0.06948959 0.17104207
0.772987 0.13558842 0.2877887 0.12622592 0.37704808 0.29738966 0.13759187 0.22501022
0.16006124 0.21142367 0.939281 0.1321159 0.15173803 0.52023596 0.08911803 0.8733192

bn1.running_var f4 [128]
00000000: bbb8 f23d cb52 933b c0a2 8d3d 8682 1d3d
00000010: 33ff 633e 6c6d d23e 48d8 5a3f 3916 a039
00000020: 7c45 673d 2085 a93c f865 863e 263b 1b3f
00000030: bc3f 203e 10b0 3d3e ba2a be3c c076 773d
00000040: b019 a03e 0656 a23f af7e 673d 3b89 283d
00000050: 6c9b 253e fa18 bd3d 3006 a13d 9538 e33c
00000060: 5035 bf3d 9339 473d 3ddb 843e 714a 1b3e
00000070: 3753 d93b 0412 3f3d c418 0239 523d a83c
00000080: 674f 213e 1324 9e3e d544 003b da02 eb3c
00000090: f13e 9c3e 4bf2 723e 1162 e03c ca87 b03d
000000a0: 12ac 533e 8d11 6d3d 0088 4a3d 9ab2 903d
000000b0: d387 1e3e 5931 5a3d f2d3 083e 95b1 da3d
000000c0: 903a 4a3e 6dc3 853e ff46 5b3e 076f 743e
000000d0: 92f6 5238 845d 3a3e 1f9b c73d 5114 143f
000000e0: 7cb2 7c3d 5973 253d 1894 eb3c 0f39 003e
000000f0: 1b4f 6d3e b0e3 b33d 7d4e a73e 4652 7e3e
00000100: ea16 b13d 80aa 4b3d 8799 8d3d 7bea 7c3e
00000110: 825e b33d bc68 ef37 7ce4 103e 85f3 0b3d
00000120: b171 183d 5471 ad3d f81b 7a3e 41a9 3c3d
00000130: f011 133d 1e69 ad3d 9b96 a73d 6d84 d53d
00000140: 0299 a43d 73c2 9c3d 51bb be3c 3bac a03d
00000150: 612d 0b3e 1362 b738 fef3 1c3d 4f83 9e3c
00000160: 9c11 cb3c d672 4d3f f9a9 063e 5850 453d
00000170: d7da 393e a8ba b13d bc5e 383e e69d 0638
00000180: fb98 3d3f 5197 eb3c f8e0 cd3c eb70 813e
00000190: 2892 4d3e 6db7 a03d 32ef 8c3e 52e6 9e3d
000001a0: a5a4 063e ccaa 843d 90bd 5e3e 4f54 273f
000001b0: 3c78 ea3e 30cc 813e 7659 9b3c fff2 873d
000001c0: 3ee7 4c3f 1a63 313d da19 573e 5da8 a33d
000001d0: a9c3 513e 132d 1e3e cc51 bf3d e8a5 253e
000001e0: f0ff 2f3d dd4e 2d3e ad9e 0b3f 69c9 a43d
000001f0: 2e8d 483d 3ddd 0f3f 12be 003d 5b3b 8d3e
0.11851641 0.0044959537 0.06915808 0.038454555 0.2226532 0.41099107 0.8548627 0.00030534135
0.05646275 0.020693362 0.2624967 0.6063713 0.15649313 0.18524194 0.023213733 0.060415983
0.31269598 1.2682502 0.0565173 0.0411465 0.1617257 0.092332795 0.07862508 0.027736941
0.093363404 0.04863889 0.25948516 0.15165116 0.0066322344 0.04664804 0.00012406992 0.020537052
0.15752946 0.30886897 0.0019572277 0.028687883 0.3051677 0.2372524 0.027390512 0.0861965
0.20671108 0.057878066 0.049446106 0.070653155 0.154815 0.053269718 0.133621 0.10678402
0.19748902 0.2612566 0.21413802 0.23870479 5.0297538e-05 0.18199736 0.09746384 0.578435
0.061693653 0.040393207 0.02875714 0.12521766 0.23174708 0.08783662 0.3267707 0.24836072
0.08646949 0.04972315 0.06914049 0.24698822 0.0875826 2.8539791e-05 0.1414966 0.034167785
0.0372178 0.08468881 0.24424732 0.04605985 0.03590578 0.08467315 0.081830226 0.10425649
0.080369964 0.07654276 0.023282679 0.0784535 0.1359153 8.744388e-05 0.038318627 0.019349722
0.02478867 0.8025335 0.13150777 0.048172325 0.18149887 0.0867818 0.18004888 3.2095144e-05
0.74061555 0.028758677 0.025131688 0.25281462 0.20075285 0.07847486 0.27526242 0.07758774
0.13148744 0.064778894 0.21752 0.6536302 0.45794857 0.25351095 0.018963557 0.06638145
0.8004035 0.0433074 0.21005955 0.07991097 0.20484795 0.15446882 0.093417734 0.1617657
0.04296869 0.16924615 0.54538995 0.080462284 0.048962764 0.5619696 0.031431265 0.27584347

bn2.weight f4 [128]
00000000: b073 533f 1bcd 173f 1ebf c33e 2cdc 203e
00000010: 0084 023d d0d5 073e 0978 7b3f 384e 113f
00000020: aa00 403f bf39 2e3f e8b0 093f 4936 513f
00000030: 397d 3f3f e0b4 243d fb30 393f 0276 bb3e
00000040: a2f7 913e 970e 113f e45e 753f 5053 3e3e
00000050: 489c bc3e a302 6d3f 8061 eb3d 0846 503f
00000060: 9879 013f a85d 6f3e a5fc 493f 29ab 1c3f
00000070: 8601 e63e 5ed3 733f 1832 443e a8a3 b63d
00000080: 8291 c93e 42f7 cd3e db5c 0b3f d363 493f
00000090: c5f8 7d3f 80e3 6d3e b2c0 273f 6662 6b3f
000000a0: 3940 053f 9061 4b3e 1897 4a3f 2c40 a23e
000000b0: b297 143f 7383 0f3f 207a 8b3e 1c19 963e
000000c0: 535a 383f 4899 883e 72a4 663f 69bb 193f
000000d0: b0dd ac3e b6d0 e53e 703f 963d 144e 5a3f
000000e0: b8e6 ab3e 7cbb 7b3f a431 1e3f b003 ee3e
000000f0: d281 a83e a0d5 513f c016 7c3e 0aba 2d3f
00000100: d87a 823e ca4c ff3e 802a 763e 7d03 0b3f
00000110: fc4f 353f 0aab c23e 3431 d63e 30db 433f
00000120: 504c 6a3e 38dd d73d 14e8 a23e b042 0b3f
00000130: 928d 2e3f 49f4 683f 200b 443d d0be a53d
00000140: 075b 203f c058 863d 0bd3 293f 4efd d53e
00000150: d68f 2e3f a442 523f 70e5 753e 70cf 043f
00000160: 3a28 473f 7cd8 653e 8993 643f 26d0 383f
00000170: f192 483f 027c de3e f4da eb3e 6a05 6b3f
00000180: 78b2 253f 5016 233e 180b d53d 309a 9e3e
00000190: 1d90 353f e0dc 103d fb16 683f d5a2 1e3f
000001a0: 703e c33d 8089 7e3c c268 653f 5e48 a13e
000001b0: 12bc 9b3e b655 8c3e 60f7 c33d 5baa 2c3f
000001c0: 73d8 093f e82b b93e 9bdc 283f 0ca8 9b3e
000001d0: 9e09 2d3f 8083 b13d 2cea 383e e0d0 623e
000001e0: 34b6 3e3f 48cf 503f 4880 793e 2885 693e
000001f0: 1bda 5f3f 7a09 c53e 6035 e73d d5cc 553f
0.825984 0.5929734 0.38231748 0.15708989 0.031864166 0.13265157 0.98230034 0.5675998
0.75001013 0.68056864 0.5378556 0.8172346 0.7480045 0.04021156 0.72340363 0.3661347
0.2850924 0.5666289 0.95847917 0.18586469 0.36837983 0.9258215 0.11493206 0.8135686
0.5057616 0.23375571 0.7890113 0.6119867 0.44923037 0.95244396 0.19159734 0.08917934
0.39368826 0.40227705 0.5443856 0.78667945 0.9920772 0.23231316 0.65528405 0.9194702
0.5205112 0.19861436 0.791368 0.31689584 0.5804397 0.5605995 0.2724161 0.29316032
0.72012824 0.26679444 0.90094674 0.6005159 0.33762884 0.44885796 0.073363185 0.8527539
0.33574462 0.98332953 0.61794496 0.46487188 0.32911545 0.8196659 0.24618053 0.67862
0.25484347 0.49863273 0.2403965 0.543022 0.7082517 0.38021117 0.41834414 0.7650633
0.22880673 0.10540241 0.31817687 0.5439863 0.6818477 0.9099775 0.047862172 0.08093035
0.62638897 0.065598965 0.6633765 0.4179482 0.68188226 0.82132936 0.24013305 0.51879025
0.77795756 0.22445863 0.8928762 0.7219261 0.78349215 0.43453985 0.46065485 0.91805136
0.64725447 0.1592648 0.104025066 0.3097701 0.70923024 0.035366893 0.90660065 0.6196721
0.095333934 0.015535712 0.8961297 0.31500524 0.30416924 0.27409142 0.095686674 0.6744744
0.538459 0.3616631 0.6596162 0.30401647 0.675928 0.0866766 0.1805808 0.22149992
0.7449677 0.81566286 0.24365342 0.22804701 0.8744218 0.38483793 0.11289477 0.83515674

bn2.bias f4 [128]
00000000: 0000 0000 0000 0000 0000 0000 0000 0000
00000010: 0000 0000 0000 0000 0000 0000 0000 0000
00000020: 0000 0000 0000 0000 0000 0000 0000 0000
00000030: 0000 0000 0000 0000 0000 0000 0000 0000
00000040: 0000 0000 0000 0000 0000 0000 0000 0000
00000050: 0000 0000 0000 0000 0000 0000 0000 0000
00000060: 0000 0000 0000 0000 0000 0000 0000 0000
00000070: 0000 0000 0000 0000 0000 0000 0000 0000
00000080: 0000 0000 0000 0000 0000 0000 0000 0000
00000090: 0000 0000 0000 0000 0000 0000 0000 0000
000000a0: 0000 0000 0000 0000 0000 0000 0000 0000
000000b0: 0000 0000 0000 0000 0000 0000 0000 0000
000000c0: 0000 0000 0000 0000 0000 0000 0000 0000
000000d0: 0000 0000 0000 0000 0000 0000 0000 0000
000000e0: 0000 0000 0000 0000 0000 0000 0000 0000
000000f0: 0000 0000 0000 0000 0000 0000 0000 0000
00000100: 0000 0000 0000 0000 0000 0000 0000 0000
00000110: 0000 0000 0000 0000 0000 0000 0000 0000
00000120: 0000 0000 0000 0000 0000 0000 0000 0000
00000130: 0000 0000 0000 0000 0000 0000 0000 0000
00000140: 0000 0000 0000 0000 0000 0000 0000 0000
00000150: 0000 0000 0000 0000 0000 0000 0000 0000
00000160: 0000 0000 0000 0000 0000 0000 0000 0000
00000170: 0000 0000 0000 0000 0000 0000 0000 0000
00000180: 0000 0000 0000 0000 0000 0000 0000 0000
00000190: 0000 0000 0000 0000 0000 0000 0000 0000
000001a0: 0000 0000 0000 0000 0000 0000 0000 0000
000001b0: 0000 0000 0000 0000 0000 0000 0000 0000
000001c0: 0000 0000 0000 0000 0000 0000 0000 0000
000001d0: 0000 0000 0000 0000 0000 0000 0000 0000
000001e0: 0000 0000 0000 0000 0000 0000 0000 0000
000001f0: 0000 0000 0000 0000 0000 0000 0000 0000
0.0 0.0 0.0 0.0 0.0 0.0 0.0 0.0
0.0 0.0 0.0 0.0 0.0 0.0 0.0 0.0
0.0 0.0 0.0 0.0 0.0 0.0 0.0 0.0
0.0 0.0 0.0 0.0 0.0 0.0 0.0 0.0
0.0 0.0 0.0 0.0 0.0 0.0 0.0 0.0
0.0 0.0 0.0 0.0 0.0 0.0 0.0 0.0
0.0 0.0 0.0 0.0 0.0 0.0 0.0 0.0
0.0 0.0 0.0 0.0 0.0 0.0 0.0 0.0
0.0 0.0 0.0 0.0 0.0 0.0 0.0 0.0
0.0 0.0 0.0 0.0 0.0 0.0 0.0 0.0
0.0 0.0 0.0 0.0 0.0 0.0 0.0 0.0
0.0 0.0 0.0 0.0 0.0 0.0 0.0 0.0
0.0 0.0 0.0 0.0 0.0 0.0 0.0 0.0
0.0 0.0 0.0 0.0 0.0 0.0 0.0 0.0
0.0 0.0 0.0 0.0 0.0 0.0 0.0 0.0
0.0 0.0 0.0 0.0 0.0 0.0 0.0 0.0

bn2.running_mean f4 [128]
00000000: 0000 0000 0000 0000 0000 0000 0000 0000
00000010: 0000 0000 0000 0000 0000 0000 0000 0000
00000020: 0000 0000 0000 0000 0000 0000 0000 0000
00000030: 0000 0000 0000 0000 0000 0000 0000 0000
00000040: 0000 0000 0000 0000 0000 0000 0000 0000
00000050: 0000 0000 0000 0000 0000 0000 0000 0000
00000060: 0000 0000 0000 0000 0000 0000 0000 0000
00000070: 0000 0000 0000 0000 0000 0000 0000 0000
00000080: 0000 0000 0000 0000 0000 0000 0000 0000
00000090: 0000 0000 0000 0000 0000 0000 0000 0000
000000a0: 0000 0000 0000 0000 0000 0000 0000 0000
000000b0: 0000 0000 0000 0000 0000 0000 0000 0000
000000c0: 0000 0000 0000 0000 0000 0000 0000 0000
000000d0: 0000 0000 0000 0000 0000 0000 0000 0000
000000e0: 0000 0000 0000 0000 0000 0000 0000 0000
000000f0: 0000 0000 0000 0000 0000 0000 0000 0000
00000100: 0000 0000 0000 0000 0000 0000 0000 0000
00000110: 0000 0000 0000 0000 0000 0000 0000 0000
00000120: 0000 0000 0000 0000 0000 0000 0000 0000
00000130: 0000 0000 0000 0000 0000 0000 0000 0000
00000140: 0000 0000 0000 0000 0000 0000 0000 0000
00000150: 0000 0000 0000 0000 0000 0000 0000 0000
00000160: 0000 0000 0000 0000 0000 0000 0000 0000
00000170: 0000 0000 0000 0000 0000 0000 0000 0000
00000180: 0000 0000 0000 0000 0000 0000 0000 0000
00000190: 0000 0000 0000 0000 0000 0000 0000 0000
000001a0: 0000 0000 0000 0000 0000 0000 0000 0000
000001b0: 0000 0000 0000 0000 0000 0000 0000 0000
000001c0: 0000 0000 0000 0000 0000 0000 0000 0000
000001d0: 0000 0000 0000 0000 0000 0000 0000 0000
000001e0: 0000 0000 0000 0000 0000 0000 0000 0000
000001f0: 0000 0000 0000 0000 0000 0000 0000 0000
0.0 0.0 0.0 0.0 0.0 0.0 0.0 0.0
0.0 0.0 0.0 0.0 0.0 0.0 0.0 0.0
0.0 0.0 0.0 0.0 0.0 0.0 0.0 0.0
0.0 0.0 0.0 0.0 0.0 0.0 0.0 0.0
0.0 0.0 0.0 0.0 0.0 0.0 0.0 0.0
0.0 0.0 0.0 0.0 0.0 0.0 0.0 0.0
0.0 0.0 0.0 0.0 0.0 0.0 0.0 0.0
0.0 0.0 0.0 0.0 0.0 0.0 0.0 0.0
0.0 0.0 0.0 0.0 0.0 0.0 0.0 0.0
0.0 0.0 0.0 0.0 0.0 0.0 0.0 0.0
0.0 0.0 0.0 0.0 0.0 0.0 0.0 0.0
0.0 0.0 0.0 0.0 0.0 0.0 0.0 0.0
0.0 0.0 0.0 0.0 0.0 0.0 0.0 0.0
0.0 0.0 0.0 0.0 0.0 0.0 0.0 0.0
0.0 0.0 0.0 0.0 0.0 0.0 0.0 0.0
0.0 0.0 0.0 0.0 0.0 0.0 0.0 0.0

bn2.running_var f4 [128]
00000000: 0000 803f 0000 803f 0000 803f 0000 803f
00000010: 0000 803f 0000 803f 0000 803f 0000 803f
00000020: 0000 803f 0000 803f 0000 803f 0000 803f
00000030: 0000 803f 0000 803f 0000 803f 0000 803f
00000040: 0000 803f 0000 803f 0000 803f 0000 803f
00000050: 0000 803f 0000 803f 0000 803f 0000 803f
00000060: 0000 803f 0000 803f 0000 803f 0000 803f
00000070: 0000 803f 0000 803f 0000 803f 0000 803f
00000080: 0000 803f 0000 803f 0000 803f 0000 803f
00000090: 0000 803f 0000 803f 0000 803f 0000 803f
000000a0: 0000 803f 0000 803f 0000 803f 0000 803f
000000b0: 0000 803f 0000 803f 0000 803f 0000 803f
000000c0: 0000 803f 0000 803f 0000 803f 0000 803f
000000d0: 0000 803f 0000 803f 0000 803f 0000 803f
000000e0: 0000 803f 0000 803f 0000 803f 0000 803f
000000f0: 0000 803f 0000 803f 0000 803f 0000 803f
00000100: 0000 803f 0000 803f 0000 803f 0000 803f
00000110: 0000 803f 0000 803f 0000 803f 0000 803f
00000120: 0000 803f 0000 803f 0000 803f 0000 803f
00000130: 0000 803f 0000 803f 0000 803f 0000 803f
00000140: 0000 803f 0000 803f 0000 803f 0000 803f
00000150: 0000 803f 0000 803f 0000 803f 0000 803f
00000160: 0000 803f 0000 803f 0000 803f 0000 803f
00000170: 0000 803f 0000 803f 0000 803f 0000 803f
00000180: 0000 803f 0000 803f 0000 803f 0000 803f
00000190: 0000 803f 0000 803f 0000 803f 0000 803f
000001a0: 0000 803f 0000 803f 0000 803f 0000 803f
000001b0: 0000 803f 0000 803f 0000 803f 0000 803f
000001c0: 0000 803f 0000 803f 0000 803f 0000 803f
000001d0: 0000 803f 0000 803f 0000 803f 0000 803f
000001e0: 0000 803f 0000 803f 0000 803f 0000 803f
000001f0: 0000 803f 0000 803f 0000 803f 0000 803f
1.0 1.0 1.0 1.0 1.0 1.0 1.0 1.0
1.0 1.0 1.0 1.0 1.0 1.0 1.0 1.0
1.0 1.0 1.0 1.0 1.0 1.0 1.0 1.0
1.0 1.0 1.0 1.0 1.0 1.0 1.0 1.0
1.0 1.0 1.0 1.0 1.0 1.0 1.0 1.0
1.0 1.0 1.0 1.0 1.0 1.0 1.0 1.0
1.0 1.0 1.0 1.0 1.0 1.0 1.0 1.0
1.0 1.0 1.0 1.0 1.0 1.0 1.0 1.0
1.0 1.0 1.0 1.0 1.0 1.0 1.0 1.0
1.0 1.0 1.0 1.0 1.0 1.0 1.0 1.0
1.0 1.0 1.0 1.0 1.0 1.0 1.0 1.0
1.0 1.0 1.0 1.0 1.0 1.0 1.0 1.0
1.0 1.0 1.0 1.0 1.0 1.0 1.0 1.0
1.0 1.0 1.0 1.0 1.0 1.0 1.0 1.0
1.0 1.0 1.0 1.0 1.0 1.0 1.0 1.0
1.0 1.0 1.0 1.0 1.0 1.0 1.0 1.0
