checkpoint_critic.pth (torch_old, 92366 bytes, 13 tensors)

fcs1.weight f4 [128, 33]
000000 e9 f3 e6 3d f6 fd e6 bd e4 58 20 3c b2 42 fc 3c
       0.11276991 -0.11278908 0.009786818 0.030793522
000010 c5 eb b9 bd 4f a3 d3 bc af e3 60 3d 4e e0 11 3d
       -0.090781726 -0.025834708 0.054904636 0.035614304
000020 39 e9 3e bd 6a 1b 19 3c b4 61 be bc 94 0d 0d bd
       -0.046609137 0.009344915 -0.023239948 -0.034436777
000030 d2 ab 5a 3c c4 b5 3d be 06 f9 e5 3d 8a a9 7a bd
       0.013346629 -0.1852637 0.11229138 -0.06119684
000040 59 90 e5 3b 9b e6 0b 3c eb 70 44 bd 66 72 0a 3c
       0.007005733 0.008538867 -0.04795925 0.008450126
000050 9e f2 93 bc 8b 04 00 bd f6 d4 bd 3c f5 74 13 3c
       -0.018060025 -0.031254333 0.023172837 0.009000053
000060 34 52 5b 3d 56 74 63 3d 6b 41 f5 3d 56 34 58 bc
       0.053545192 0.05553087 0.11975368 -0.013196072
000070 1a 05 ad 3c 1e af 52 3d ce 85 b4 bd e2 01 34 3d
       0.021120597 0.051436536 -0.08814584 0.043947108
000080 61 68 19 3e a8 51 e6 bc 5c a5 c3 3d 8d fa 44 3c
       0.14981224 -0.028115109 0.09553024 0.012022627
000090 dc 84 23 3d 63 9f c2 bd 6f 72 8c 3d 49 55 69 3d
       0.039921626 -0.09503057 0.06857764 0.0569661
0000a0 ed 30 66 3c cd a6 24 3d 4a 7a a4 bd 00 ff f8 ba
       0.014049751 0.040198136 -0.08031137 -0.0018996894
0000b0 94 e1 7b bc 13 0e 80 bd 5a f4 e3 3d 3b 19 3d be
       -0.015373606 -0.062526844 0.11130591 -0.18466656
0000c0 f8 3f 2e be 6b a5 39 3d fe a5 58 bd fd f5 63 3c
       -0.1701659 0.04532377 -0.052892677 0.013913629
0000d0 9d 03 3b 3c 38 1d 9c bc bc 91 db bb 85 44 37 bc
       0.011414436 -0.019056901 -0.0067007225 -0.01118577
0000e0 2c 13 a1 3d 15 15 cd bc 6a 18 05 3c d3 fc 2e bd
       0.07864985 -0.025034467 0.008123497 -0.04272158
0000f0 26 ea 84 3d 71 f2 ae 3d e0 03 cd bb 67 df e0 bc
       0.06489973 0.08542336 -0.0062565655 -0.027450277
000100 3d 7e 82 3d 94 02 ff bd a0 9e d9 3c fd 12 f5 3c
       0.06371734 -0.124516636 0.026564896 0.02991628
000110 65 69 91 3d 8d 60 67 3d c6 c9 1d bc 95 ca c1 3d
       0.071001805 0.056488562 -0.009630626 0.094624676
000120 92 8a ca 3d 12 f9 42 3d 09 60 6d ba b6 63 d5 bc
       0.098897114 0.047600813 -0.0009055143 -0.026048522
000130 49 52 db 3c 29 56 51 3b 68 02 39 be de 74 22 bd
       0.026772635 0.0031942225 -0.18067324 -0.039662234
000140 de ae b9 3d c1 c1 29 be 35 4f 4f bd f1 f2 f0 bb
       0.090665564 -0.16577817 -0.050612647 -0.0073531796
000150 33 91 31 3d 27 1f 9c bc 0b e8 81 bd 3a c8 44 bd
       0.043351363 -0.019057823 -0.06343087 -0.048042513
000160 13 ee a4 3d bb 41 02 3c e6 69 f0 3d 35 5c fd bd
       0.080532216 0.007950242 0.117389485 -0.12371103
000170 cb af d1 bc 1c 48 51 3d 0a ec 7f bd 9d b8 90 3d
       -0.02559652 0.05109416 -0.062480964 0.07066462
000180 85 59 ae 3c 80 51 9e 3c 89 98 4e bd 81 41 62 bd
       0.02128292 0.019325972 -0.050438438 -0.05523825
000190 14 cf 94 bc 10 d8 7a 3d 36 7a 8e bb 26 55 9a bd
       -0.018165149 0.06124121 -0.004348065 -0.07535772
0001a0 50 9b 20 bd c2 0c a9 3d c9 d1 04 3b 84 90 c9 3d
       -0.039210618 0.082543865 0.0020266643 0.09842017
0001b0 98 5b 03 be 72 5d 76 bb 2f a2 13 3d 12 c4 85 bd
       -0.12827909 -0.003759232 0.036043342 -0.06531538
0001c0 bc 7c 21 be c3 80 8f 3d 05 79 39 bd 72 36 17 3d
       -0.15770239 0.07006981 -0.04528143 0.036917157
0001d0 e0 b6 28 3d 47 9a 05 3d f2 b1 2a 3d 6d 6a 8b bd
       0.04119003 0.032617833 0.041673608 -0.068074085
0001e0 63 bc 5e bd f7 c1 c7 bd 31 e7 f5 3c 6b e3 88 b9
       -0.05437888 -0.09753793 0.030017467 -0.0002610938
0001f0 3b 6d 86 3c 61 9e 86 3d 61 50 e9 3d 52 8b a2 bd
       0.016409507 0.06573177 0.11392284 -0.079367295
000200 64 f3 b8 3c fb 2b 84 bd 44 d2 a6 3c e9 e8 62 be
       0.022576995 -0.06453701 0.020363934 -0.2215916
000210 67 df 8e 3c b2 78 ee 3d db ea c0 3a 2d ff 14 3b
       0.01744051 0.116441146 0.001471843 0.0022735104
000220 d4 02 cb 3c 55 5c 30 bd c7 d6 23 3d ba ae 7c 3d
       0.024781622 -0.043056805 0.03999975 0.06169007
000230 e4 cb e6 bd d3 49 a9 bd a0 51 66 3d d3 e9 af 3c
       -0.11269358 -0.08266034 0.056230187 0.0214738
000240 2d 5d dd ba f0 03 02 be 2a 57 29 bd 03 68 c7 bd
       -0.001688873 -0.12696815 -0.04134289 -0.097366355
000250 52 91 31 be 45 a9 39 3d 5a a5 ac 3d 91 5b 19 3c
       -0.17340592 0.045327444 0.08429976 0.00936021
000260 66 5c 19 3d 30 28 23 3d b9 f9 b8 bc 22 0e 2e be
       0.037441634 0.039833248 -0.022580015 -0.16997579
000270 48 13 2e bd e5 34 49 3c 26 9e 84 3d 29 e4 fa 3d
       -0.042498857 0.012280677 0.06475477 0.12250549
000280 2e da 18 bd 53 5c 9e 3d 89 83 4c bd 8c eb a0 bc
       -0.037317447 0.07732453 -0.04993013 -0.019643568
000290 70 41 10 bd 04 f5 5b 3d 84 d0 9c bd c5 72 3e be
       -0.035218656 0.053700462 -0.07656959 -0.18598469
0002a0 5d fd 05 3d f8 f4 be bc e6 13 4e 3d c5 09 89 bc
       0.03271233 -0.02331017 0.050311945 -0.016728291
0002b0 ed 4a 79 bd da 34 b1 3c 31 b6 87 bd 09 e0 07 bc
       -0.06086247 0.021631647 -0.06626547 -0.00829316
0002c0 50 eb 92 bc 79 18 b3 3d af 2a 3e bd fa b1 d1 3c
       -0.017934471 0.08744902 -0.046427425 0.025597561
0002d0 c6 8c 0b 3d da 02 81 3d 17 62 8d bd 89 c6 df bc
       0.0340698 0.06299372 -0.06903475 -0.027316349
0002e0 4a fe 85 bd 07 d2 10 3e 20 58 e5 bc 39 9e 2f bd
       -0.065426424 0.14142619 -0.027996123 -0.042875502
0002f0 94 08 91 3c a8 47 72 3d 4a 56 be bc dc fc 85 3c
       0.017704286 0.059150368 -0.023234505 0.016355924
000300 ce a2 89 bd ee cd 54 3d 61 35 aa 3d dc b2 a4 3d
       -0.06720506 0.051954202 0.083109625 0.08041927
000310 66 36 6b 3d 87 4c 9b 3e 34 c5 d7 3d f6 e3 21 3e
       0.057424925 0.30331823 0.105356604 0.15809616
000320 2f 87 27 bb 49 8a df 3c 49 96 26 3c e0 09 c3 bd
       -0.0025562753 0.02728762 0.010167667 -0.09523368
000330 4e 67 ac bd c8 f4 06 3d c4 30 3e 3d 79 8e 92 3d
       -0.08418141 0.032948285 0.046433225 0.07156081
000340 fa 06 52 3c 76 40 08 3e 04 21 4b 3d 74 83 02 3c
       0.012819046 0.1330584 0.049592033 0.007965911
000350 d3 7d 20 3c e8 4d 81 bd 5d bf 21 3d af 50 47 bd
       0.009795624 -0.063136876 0.03948914 -0.04866093
000360 3d af c6 3d 04 09 c9 3c 9f 78 01 be ba 8a d9 bd
       0.09701393 0.024540432 -0.1264367 -0.10622163
000370 f5 4e 3f 3d a5 69 58 3d d5 bf ca bd 70 fd d7 bd
       0.04670616 0.052835125 -0.0989987 -0.10546386
000380 72 23 ca bc f4 33 a5 3d 29 7a 87 bc 50 bc 7c bd
       -0.024675105 0.0806655 -0.016537743 -0.061703026
000390 7a 8c d3 bd e0 e3 1d bb fe 63 02 3e d8 e3 98 bd
       -0.10329528 -0.0024092123 0.12733456 -0.07465333
0003a0 cf 46 5c 3e e1 dc 38 3c eb 3d 45 bd e8 3c 15 bc
       0.21511386 0.01128313 -0.048154753 -0.009108759
0003b0 90 0c 18 bd 84 71 69 3d 8d 22 09 bd 9c 92 5f 3d
       -0.037121356 0.056993023 -0.033480216 0.054583177
0003c0 fe f1 61 3c 21 c9 21 3c ee 69 69 3d ef 15 1d 3c
       0.013790606 0.009874613 0.056985788 0.009587749
0003d0 57 8b 1b 3e 67 cf b0 bd 65 22 a2 3c f2 01 03 3b
       0.15189873 -0.08633309 0.019791791 0.0019990173
0003e0 76 41 0e bc e5 49 02 bd dc 48 bc 3b c7 56 b7 bc
       -0.008682599 -0.031808753 0.00574599 -0.022380246
0003f0 ec 1c 54 3c fd 9c 92 3c c6 42 93 3d 2b e8 90 bd
       0.012946349 0.017897123 0.071904704 -0.070755325

fcs1.bias f4 [128]
000000 80 6d c4 3d 78 85 59 3d d5 c6 e7 bd a1 88 99 bd
       0.09591198 0.0531058 -0.11317221 -0.07496763
000010 d7 df 1b be 8f 32 37 3e 9f b0 91 3d a6 30 46 be
       -0.15222107 0.1789038 0.07113766 -0.19354495
000020 74 e0 e2 bd 08 1d 2b 3e 25 2b 1c be 0b 5d 33 3d
       -0.11077967 0.16710293 -0.15250833 0.043789905
000030 91 67 bc 3d 61 94 b7 bb fa 35 52 bd 14 6b 5e 3d
       0.09199441 -0.005602405 -0.051321007 0.054301336
000040 75 ad 05 be eb ee 05 be 1f bf 4e be e2 74 a4 3d
       -0.1305445 -0.13079421 -0.20190094 0.08030106
000050 f0 a1 2f be a1 28 cc bd e6 64 e5 bd 7c 23 73 bd
       -0.17151618 -0.09968687 -0.112008855 -0.059360012
000060 cc d2 87 bd 0b e1 c7 bc b8 35 d1 bd 2a 31 42 be
       -0.06632003 -0.024399301 -0.10215324 -0.18964067
000070 c2 3e 70 be dd 06 83 3d 00 e8 e0 3d ab 02 c4 bd
       -0.2346144 0.063977934 0.109817505 -0.095708214
000080 e4 e0 23 bd 56 c9 b2 bd d1 6f 93 bd 75 22 88 3c
       -0.040009394 -0.08729808 -0.07199062 0.016617993
000090 00 21 38 be 00 07 ea ba e0 78 74 be 5f 4f da bc
       -0.17981339 -0.0017854869 -0.23874235 -0.026649175
0000a0 0b fc 7f bd 4a 8a 07 3d 66 bc 4f bd b9 2e f9 3d
       -0.062496226 0.033090867 -0.05071678 0.12167115
0000b0 a3 d0 85 bd 17 d9 ce 3d 62 8c d1 bd f6 43 4f bd
       -0.06533935 0.101 -0.10231854 -0.050601922
0000c0 0a ec c6 3d 69 41 c8 bc d9 6a 66 b8 f4 a0 27 3d
       0.0971299 -0.024445252 -5.4935783e-05 0.04092498
0000d0 c4 f2 6f bd 7b 68 0c be 37 65 05 3e 82 a2 09 bd
       -0.05858113 -0.13711731 0.13026892 -0.033602245
0000e0 5c 41 1a bd e3 48 3c bd 00 06 80 bd 30 7e 61 be
       -0.037659988 -0.045967948 -0.062511444 -0.22020793
0000f0 22 47 72 3d 91 d3 db 3d 6e e9 19 bd 87 8e ed bd
       0.05914987 0.107337125 -0.03757613 -0.115994506
000100 43 27 34 be 5f 78 87 bd 8d a9 31 bc 2d 38 ec bc
       -0.17593102 -0.06614756 -0.010843647 -0.02883538
000110 31 97 41 bd b2 8b e7 bd 7f 25 34 be 99 8e d4 bd
       -0.047263328 -0.11305942 -0.17592429 -0.10378761
000120 a3 a2 72 3d d0 df 6d bc e0 1f 16 bd 0e 4f 19 bd
       0.059237134 -0.014518693 -0.036651492 -0.037428908
000130 c6 08 40 3d c7 c1 64 be 35 9a ed 3c 05 85 1b be
       0.046883367 -0.22339545 0.029004196 -0.15187462
000140 8c 13 2d bb 2b 72 c0 3d 43 0e ff 3c 54 8d 48 3d
       -0.0026409356 0.09396776 0.03113473 0.048962906
000150 50 b3 8c 3d e4 f3 e3 bd 0b 9c 80 3d 8a 67 d6 bd
       0.06870139 -0.11130503 0.06279763 -0.10468967
000160 a2 2c ee 3d 27 2c d8 bd bd 2b 5c be 6e 1e 02 3e
       0.11629607 -0.105552964 -0.2150106 0.1270692
000170 19 7d 10 be 48 10 bd bd b4 93 c1 3d 9f 11 0e be
       -0.14110221 -0.09231621 0.09452 -0.1387391
000180 86 f0 dd ba 5b 3f 19 be 2b 8e a2 3d a5 59 52 bc
       -0.0016932643 -0.14965574 0.07937273 -0.012838756
000190 88 85 38 be 38 44 88 3d 33 53 de bc 5d 75 9d 3d
       -0.18019688 0.06653637 -0.027139282 0.07688401
0001a0 b4 30 cc bc 94 68 b8 bd cc 8a ae bd a9 9a 71 be
       -0.024925567 -0.09004322 -0.08522567 -0.23594154
0001b0 9e b1 a5 bb e7 5a 2f bd 28 a9 e8 3c c2 8f 32 be
       -0.005056574 -0.0428113 0.028400972 -0.17437652
0001c0 51 bd 33 3e f4 1d 0a 3d 00 88 8f bd 65 78 2d be
       0.17552687 0.03371997 -0.07008362 -0.16940458
0001d0 ec aa af 3d 47 04 b2 3d 44 78 d6 bc 1c ca 85 bd
       0.08577523 0.08692222 -0.026180394 -0.0653269
0001e0 56 d5 09 be f0 2b 43 3d 88 ce aa bb d3 97 d2 3d
       -0.13460287 0.047649324 -0.0052126087 0.102828644
0001f0 cf cf 08 3d 7d 46 52 3d 1e 36 e1 bc 37 ba 6c 3c
       0.033401307 0.051336754 -0.027491625 0.014448694

fc2.weight f4 [128, 132]
000000 39 23 b3 3d 24 cd c9 bd ba f9 ff bc 3c ec 72 bd
       0.087469526 -0.098535806 -0.031247009 -0.059307322
000010 92 05 09 be 94 c7 e0 b9 20 c7 fe bc 5b 98 88 3d
       -0.13381031 -0.00042873307 -0.03110081 0.066696845
000020 b9 2d e6 3d 7a fc 1a bd a5 83 2c 3d 97 50 de 3c
       0.1123919 -0.037838437 0.042117734 0.027138038
000030 41 27 4d 3d af 03 39 3c 43 ec 04 3c 59 c4 19 3d
       0.050086264 0.011292382 0.00811297 0.037540767
000040 8e 79 7b 3e 42 04 7e bb aa af 23 bd b3 1d 9d bd
       0.24558088 -0.0038759862 -0.03996245 -0.0767168
000050 92 23 e0 3d 7f e4 6a bd 11 60 7e bd a2 a5 56 bd
       0.109442845 -0.057346817 -0.062103335 -0.052404054
000060 97 54 a0 3d b7 fc fe 3c 39 c3 fb 3c 5c b8 3d bd
       0.07828634 0.031126363 0.030732738 -0.046318397
000070 e9 a3 f4 3d 3f 63 9d 3c f0 ed e5 bc 6d 26 a3 3c
       0.11945326 0.019212363 -0.028067559 0.019915784
000080 85 9a c5 3c 1a 24 61 bd a3 c4 3d bd fa 3d 0f 3e
       0.024121532 -0.05496607 -0.046330106 0.13988486
000090 d6 62 21 3b f3 a0 a6 bd 9e e2 6c 3b 97 13 6f bd
       0.0024625561 -0.081361674 0.0036145817 -0.05836829
0000a0 b5 57 7d 3d 8f aa 11 3d bc 0c ed bc 82 4e 1d 3d
       0.061851222 0.035563048 -0.028936736 0.03840495
0000b0 47 ec 40 bd fa 50 83 3d f7 c5 99 3b 5d be 96 3b
       -0.04710033 0.064119294 0.0046927887 0.00460033
0000c0 0f 27 e0 bd 78 4f 80 3c 4f d1 97 3d a8 40 55 bc
       -0.1094495 0.015662894 0.07412969 -0.0130159035
0000d0 e4 1b ad bd 3c be 4b 3d 55 ea 23 3e 1c 4e 1d bc
       -0.08452585 0.04974197 0.1600736 -0.009601142
0000e0 22 51 84 bd 62 76 08 be d8 c6 e1 3b a7 08 3f bd
       -0.06460787 -0.1332641 0.006890159 -0.04663911
0000f0 01 90 84 3a 2a 7c 6b bd c8 b6 a4 3d 72 22 15 3e
       0.0010113717 -0.05749146 0.08042675 0.14563921
000100 c5 eb 36 3d 72 7b f3 3a d9 d0 2f bd b0 20 ad 3d
       0.04465844 0.0018576218 -0.042923782 0.084535
000110 ab 30 7e bd 36 29 5b bc dc 06 63 3d 49 ae 9b 3b
       -0.062058132 -0.013376525 0.055426463 0.004751001
000120 b9 2f 6c 3d 1a eb 99 bd 9b 0e 57 3d 6c 58 1f be
       0.0576627 -0.07515545 0.052504163 -0.15561074
000130 b2 77 0c 3e 4b 0e 0f 3d a5 f6 a8 3d c5 b2 2e bd
       0.13717535 0.03492574 0.08250169 -0.042650957
000140 26 cd 02 3e 6c e6 2b be d0 ee 1b bd 67 7b 80 bd
       0.1277357 -0.16787118 -0.038069546 -0.06273537
000150 4f 7a af 3d f5 aa b5 3d 17 5a 14 3d 3f f4 bf bd
       0.085682504 0.08870498 0.03621873 -0.09372758
000160 36 8d b0 3c 58 96 25 bd e9 3d ac 3c 99 5b eb 3c
       0.02155171 -0.040426582 0.021025615 0.0287302
000170 5b 54 8b bd d9 15 72 3c 61 9b df 3b 3c 2f d2 3c
       -0.06803199 0.014775717 0.0068239425 0.025657289
000180 6f 5b db bc 33 83 d0 bd ac a2 b1 3c 1c 1a 04 be
       -0.026776997 -0.10181274 0.021684013 -0.12900585
000190 42 99 48 bc cd e8 df 3d 66 93 e0 3d 98 eb d7 ba
       -0.012243571 0.10933075 0.10965614 -0.0016473411
0001a0 29 82 b4 3d 02 c7 06 3e f9 b2 49 bd 82 d6 4b 3d
       0.088138886 0.13161853 -0.049242947 0.049765117
0001b0 ed 51 00 be cc 34 84 3d 2e 21 0a 3d f5 66 84 bd
       -0.12531252 0.06455383 0.03372305 -0.0646495
0001c0 a5 34 a5 bd aa b9 8b 3d c3 ea a9 bc 9b 9e 56 3d
       -0.08066682 0.06822522 -0.020741826 0.05239735
0001d0 ba f8 90 3c f0 f1 5e bd c0 64 8c b9 8a b3 5c bd
       0.017696727 -0.05442995 -0.00026777945 -0.05388216
0001e0 f5 ed 9f bd e8 b6 f4 3b d6 87 8d bd 33 b9 0f bd
       -0.078090586 0.007468093 -0.06910674 -0.03508873
0001f0 64 64 03 3d 43 31 34 3d 55 4a 2f 3c d7 8a 5d bd
       0.03207816 0.043992292 0.0106988745 -0.054087486
000200 41 cb 31 3c fa 49 de bb f5 13 9b bd 79 4e 24 be
       0.010851682 -0.006783721 -0.07572166 -0.1604556
000210 b7 ad 3b be 0b b2 88 3d 2e 5f 94 3a 0d 11 52 3d
       -0.18327986 0.06674584 0.001131987 0.051285792
000220 76 bd 96 bd 04 29 eb 3c a7 d6 3f bd 9b a2 bc bd
       -0.073603556 0.028706081 -0.046835568 -0.09210702
000230 16 49 de 3d ea 58 8a bc e0 30 88 bb 61 df 85 3d
       0.10853784 -0.0168881 -0.004156217 0.06536747
000240 29 76 0a 3d b0 90 68 bd 59 22 20 3c 03 bd bc 3c
       0.033804093 -0.05677861 0.009773814 0.023039347
000250 42 3a 51 3e 73 35 8d bd 22 10 38 3d 0f 90 3c bd
       0.2043238 -0.0689496 0.04493726 -0.046035822
000260 05 ff 29 bd c0 03 b0 3d 75 5d 97 3d 9d 21 72 bd
       -0.04150297 0.08594465 0.073908724 -0.059114087
000270 12 28 01 bc f1 d1 20 3c 92 ae 43 bd df 39 4e 3b
       -0.007883089 0.009815679 -0.047773905 0.00314676
000280 fc 22 48 3d 23 3e f5 bc cd 52 59 bd 9f 8e 5c 3d
       0.04886149 -0.029936856 -0.05305748 0.05384695
000290 34 af 10 3c 9b bd ee bd 91 06 89 bd 97 23 0a be
       0.008830834 -0.11657258 -0.066907056 -0.13490139
0002a0 df 08 87 3c 1c 6c d1 bc b4 39 29 3b c2 73 41 3b
       0.016483722 -0.025564246 0.0025821747 0.002951846
0002b0 72 56 53 3c 97 21 b1 3a af 82 82 3d dd 5d 3f bd
       0.012899028 0.0013514039 0.06372582 -0.046720374
0002c0 46 46 80 3c 94 68 c6 bc a6 14 5c bd a4 79 fb 3c
       0.015658509 -0.024219789 -0.05373063 0.030697651
0002d0 e3 ed 90 bd 50 7f ef 3c 08 7b 5b bd 8e 4c b8 bd
       -0.07076623 0.029235512 -0.05358413 -0.08998977
0002e0 fb 83 ba bd e1 df 3d 3c d1 2d 23 be 7d 57 8f bc
       -0.091072045 0.011589021 -0.15935446 -0.017497772
0002f0 a3 d8 e6 bb 16 2c 07 be dc d1 71 3b 12 94 39 3d
       -0.007044868 -0.13200411 0.0036898768 0.045307226
000300 5b e7 9a 3d 76 73 c1 3d 7e 3a 36 bd 01 60 1a be
       0.07563659 0.094458506 -0.044489376 -0.15075685
000310 b0 bb 08 be ee 7c e8 3d 90 48 a4 3c 68 3f 14 3e
       -0.13352847 0.113519534 0.020054132 0.14477313
000320 26 98 72 bd a1 3e 78 bc c0 60 5a 3c 90 74 38 bd
       -0.05922713 -0.015151651 0.013328731 -0.045033038
000330 77 5e ac bd d5 32 9d bc 4f b4 ec bb fb 46 29 3d
       -0.08416455 -0.019189278 -0.007223643 0.041327458
000340 18 cd 2b bc 67 5e 4a bd 3c 76 e0 bd 59 bc c3 3d
       -0.01048591 -0.049406435 -0.109600514 0.09557409
000350 51 e2 a3 bd 43 d5 fe 3c 28 e7 ba 3d 2a c1 34 3d
       -0.08002151 0.03110755 0.09126121 0.044129528
000360 d0 49 b4 3d 11 58 eb bd e8 69 83 bd e5 71 1a 3e
       0.08803141 -0.11491407 -0.064166844 0.1508251
000370 c1 93 8b bc 7b 2b 7e 3c 42 51 92 3c cb 7f 3b 3d
       -0.017038228 0.015513296 0.017861012 0.04577617
000380 0f b4 07 3e 6b a7 02 3e 5b dc 02 3d b3 60 32 3d
       0.1325228 0.12759177 0.03194843 0.04354925
000390 73 84 35 3d be 64 05 bd cf 14 a6 bd 4a fe 3c 3c
       0.044315767 -0.03256678 -0.08109438 0.011535237
0003a0 02 ab 08 bb ea f8 61 3c aa fc dc bd 06 ba 10 bd
       -0.0020853882 0.013792256 -0.10790379 -0.035333656
0003b0 f3 f3 c0 3d 34 a6 0c bd 51 bb 85 bc ca f2 f1 bb
       0.094215296 -0.03433819 -0.016324671 -0.007383679
0003c0 02 d9 0d be f1 15 63 3c d5 21 0d bd 24 d3 ec 3d
       -0.13852313 0.013860212 -0.034456093 0.115637094
0003d0 5a b5 a4 bc 93 7d a2 3d 55 6d 9d 3c 71 3e 90 3d
       -0.020106006 0.07934108 0.019217173 0.0704316
0003e0 81 1a 49 3e 89 63 7f 3d fc 9e 92 3d 56 99 e7 3d
       0.19639017 0.062350783 0.0715923 0.113085434
0003f0 10 39 1e 3d 86 bd 02 bd 67 33 9f bd 8c 73 89 3d
       0.038628638 -0.031919025 -0.07773476 0.06711492

fc2.bias f4 [128]
000000 3a d8 29 be 34 86 9f bd 06 53 9a 3d 5f 4a 91 bd
       -0.1658639 -0.07789269 0.07535367 -0.07094263
000010 a7 03 f7 bd c0 b0 56 be 07 0f 6f bd cc 8e e0 bd
       -0.120612435 -0.20965862 -0.05836394 -0.10964736
000020 fb 4d 4c be bb c8 98 bd f4 a8 15 be b2 6b ed 3d
       -0.19951622 -0.07460161 -0.14615232 0.11592807
000030 66 c9 b5 bd 64 e9 55 3d fa 40 d6 bd 3b 32 0a be
       -0.08876304 0.05222453 -0.10461612 -0.13495724
000040 19 ce 2d 3e ff 07 ba 3c eb dd 9b 3c 9b 37 33 be
       0.16973151 0.022708891 0.019026717 -0.1750168
000050 2b cd 86 be c4 6a 54 be 7d 47 6e be b4 0a 9d 3c
       -0.26328406 -0.20743853 -0.23269458 0.019170143
000060 5a f5 5c 3c 02 51 3e 3d d6 a2 63 be b7 35 18 bd
       0.013486231 0.046463974 -0.22230086 -0.0371606
000070 91 1f 1c be b8 3a 20 be 50 27 07 be 5a f9 86 3c
       -0.15246417 -0.156474 -0.1319859 0.016476322
000080 55 46 03 be 4b 21 b8 3d 51 5c a9 bd bc 64 27 be
       -0.12819798 0.08990725 -0.08269561 -0.16347021
000090 4a c3 8f 3d 32 61 63 bd 1f 6e 3e be 09 1e 48 bd
       0.0701967 -0.055512615 -0.18596695 -0.04885677
0000a0 8a 18 9e 3d a9 f0 01 be a3 fa d9 bd e7 7f 15 be
       0.07719524 -0.12689461 -0.10643508 -0.14599572
0000b0 93 3e 8b 3d 16 b7 8b 3d c9 58 cb bd 31 07 6e 3d
       0.067990445 0.0682203 -0.09929044 0.058112327
0000c0 6a 40 ce 3d 99 f3 f2 bd 8d 7f 05 be 9f 87 d2 3d
       0.1007088 -0.11862869 -0.13036938 0.10279774
0000d0 e3 71 ee bb bc 96 10 be 53 f6 5d be c5 50 f2 3c
       -0.00727676 -0.1412 -0.21675996 0.02957953
0000e0 b0 26 71 be 55 31 6d 3d 44 67 76 bd 2b 78 f7 3c
       -0.23549914 0.057908375 -0.060157076 0.030208668
0000f0 f2 0d 00 be 5f da 1f 3e 6b fe 8a 3d 2b 36 3b be
       -0.1250532 0.15610646 0.067868076 -0.18282382
000100 11 92 c5 3d 18 ea 98 bd a0 9d ef bd f7 3f 66 bd
       0.096470006 -0.07466525 -0.116999865 -0.056213345
000110 69 76 1d be 92 43 97 3d 96 22 68 be 45 9d 02 be
       -0.15377201 0.07385935 -0.22669443 -0.12755306
000120 5a f8 f4 bc d8 05 a5 3d f3 19 a6 ba 9b 64 a6 3b
       -0.02990358 0.08057755 -0.0012672528 0.005077911
000130 88 05 11 3d 12 9e 24 be ea 85 9f 3c f7 3a 82 3d
       0.035405666 -0.16075924 0.019473035 0.06358903
000140 93 6a 71 3d 36 6c c8 bc bd b8 c8 3d d9 fd b1 3d
       0.058939528 -0.024465661 0.09800861 0.08690996
000150 4b fe b6 3d 7a bf 32 be 53 9e 0b be e1 4e a9 3d
       0.08935221 -0.17455855 -0.13634615 0.08266998
000160 23 0f 80 3b 4c a3 c5 3d 8c 73 22 be eb e3 6a 3e
       0.0039080544 0.09650287 -0.1586439 0.22938506
000170 45 38 1a 3c 60 4a 26 3e 12 b7 9a bc b0 01 45 be
       0.00941283 0.1623931 -0.018886123 -0.19238925
000180 60 15 7e 3c ff ae 99 3c 1e 17 77 3d 44 30 4c 3d
       0.015508026 0.018760202 0.06032478 0.049850717
000190 3f 60 2b be 91 ac 7c 3e 85 a9 23 be 69 f8 3c 3c
       -0.16735934 0.24675204 -0.15982635 0.011533835
0001a0 ba 2f 9e 3c fb 0a 36 be 2b 68 f4 bd eb 53 29 be
       0.019309867 -0.17777626 -0.11933931 -0.16535918
0001b0 8b 0d 13 be 7d ec 18 be 44 a3 06 be 01 9a c7 bd
       -0.14360635 -0.14933963 -0.13148218 -0.09746171
0001c0 8f ab 3c 3e e7 e8 68 be ad e9 03 be ef 5b 7e bd
       0.1842482 -0.22745095 -0.12882109 -0.062099393
0001d0 ef f9 10 be 5c bd 18 3e da 3c 3d 3d 38 c7 01 be
       -0.14157842 0.14915985 0.04620061 -0.12673652
0001e0 6e 4d 83 be cb c8 1e be 5d b6 ca 3d a9 71 93 bc
       -0.25645012 -0.15506284 0.09898064 -0.017998533
0001f0 0d fb 28 be 02 8a f9 bd be 00 2b be 59 73 2a be
       -0.16502018 -0.12184526 -0.16699502 -0.16645564

fc3.weight f4 [1, 128]
000000 04 60 59 bd 1c 80 61 bd 38 5d 38 3d ce a4 28 3d
       -0.053070083 -0.055053815 0.045010775 0.041172795
000010 ac 6e 42 bd d0 3d 88 bd 9d 21 06 bd da ef 22 bd
       -0.047468826 -0.06652415 -0.0327469 -0.03977952
000020 2c ad 05 bd 6a 38 1c bd 54 12 b8 bd e6 bb 5e 3d
       -0.032635853 -0.03813974 -0.08987871 0.054378413
000030 64 03 d2 bd 97 12 9b 3d 8e bd 70 bd 8d 9e fe bc
       -0.10254553 0.07571905 -0.058774523 -0.031081462
000040 eb 82 33 3d 3a 98 8e 3c 67 a5 09 3d f9 6c 62 bd
       0.043826025 0.017406572 0.033605006 -0.055279706
000050 7a ca a0 bd 08 f6 63 bd 6c 5e 91 bd 46 db 76 3d
       -0.07851119 -0.055654556 -0.07098088 0.06026771
000060 a8 fa 6b 3d 68 26 0d 3d 96 3f 57 bd de d0 4a 3d
       0.05761209 0.034460455 -0.052550875 0.049515598
000070 54 8c 0d 3d fa cd 20 bd 17 9f 32 3d 56 eb 9d 3d
       0.034557655 -0.039258935 0.04360875 0.077109024
000080 ad d7 02 bd 78 10 81 3d fa 90 14 bd bc f8 2b be
       -0.031943966 0.06301969 -0.036271073 -0.16794103
000090 22 c0 1f 3d e5 a5 54 3d f7 a8 39 bd 83 9e 0c 3d
       0.03900159 0.05191602 -0.045327153 0.034330856
0000a0 8e 5b 19 3d 6b c3 7f bc f5 36 28 bd 5f b3 bf bc
       0.03744083 -0.015610556 -0.041068036 -0.02340096
0000b0 e4 6c 0a 3d 20 67 41 3d df c8 98 bc 7d 2d 42 3d
       0.033795252 0.04721749 -0.01865047 0.047406662
0000c0 80 37 5f 3d db 1c e3 bd b6 05 d3 3c 27 66 21 3d
       0.05449629 -0.11089488 0.02575956 0.03940406
0000d0 36 90 f6 3c 15 27 39 bd a1 86 2e bd e2 9b c7 3c
       0.030098062 -0.045203287 -0.04260886 0.024366323
0000e0 1c a0 ce bd 91 09 77 3d 0d 93 fd bc d0 ec 39 3c
       -0.10089132 0.060311858 -0.030953908 0.011347964
0000f0 aa 6b 2c bd aa ff 63 3d 26 8c 3f 3d d1 11 f0 bd
       -0.042094864 0.055663742 0.046764515 -0.11722148
000100 be 03 6d 3d 5a 2a 29 bd 7f e4 0d bd 2d b1 55 3d
       0.057864897 -0.041300155 -0.03464174 0.05217092
000110 98 74 04 be 26 f0 0d 3d 4a 1f 38 bd d8 93 f0 bc
       -0.12935102 0.03465285 -0.044951715 -0.029367372
000120 e1 80 2f 3d c9 0f 4a 3d 31 e8 03 3d 21 7b 4b 3d
       0.042847518 0.04933146 0.032203857 0.04967797
000130 1a 47 32 3d 7f 23 1a bd f2 3b 2a 3d a6 cc 12 3d
       0.04352484 -0.037631508 0.041561075 0.0358397
000140 e4 71 5f 3d f3 2e 20 3d b3 28 2a 3d fd 32 3e 3d
       0.054551974 0.039107274 0.04154272 0.046435345
000150 18 e8 17 3d 92 09 3b bd 17 e2 59 bd 2b 57 39 3d
       0.037086576 -0.045663424 -0.05319413 0.045249145
000160 cb a6 95 3d 0a e2 1c 3d af a7 5e bd 11 43 71 3d
       0.07307204 0.038301505 -0.054359134 0.05890185
000170 a8 b7 da 3c 81 72 7d 3d 24 00 f2 3c 68 2b ec bd
       0.026698902 0.061876778 0.029541083 -0.115317166
000180 2d be 3b 3d 6b 0b 46 3d b4 43 31 3d c5 4c 48 3d
       0.045835663 0.048350733 0.043277457 0.048901338
000190 fd 76 41 bd 4f 7d 6d 3d c1 45 eb bc 82 44 23 3d
       -0.047232617 0.05798083 -0.028719785 0.039860256
0001a0 84 5b 54 3d 01 32 f7 bc 4b fc 00 bd 87 e0 28 bd
       0.05184509 -0.03017521 -0.031490605 -0.04122975
0001b0 33 c9 12 bd 5c 67 c3 bc ac 99 b0 bc 8e 27 ab bd
       -0.03583641 -0.023852997 -0.021557651 -0.08357154
0001c0 45 2f 56 3d 7b 46 38 bd 62 f0 8d bd b0 8e 9f 3c
       0.052291173 -0.04498909 -0.06930615 0.019477218
0001d0 13 17 a3 bd 24 51 5d 3d f8 b4 d4 3c f1 5e d0 bc
       -0.079633854 0.05403246 0.025965199 -0.025435897
0001e0 1c e8 d4 bd 2f 18 c7 bd 46 b9 11 3d bd 8d d3 3c
       -0.10395834 -0.097214095 0.03557708 0.025824422
0001f0 28 9a dc bd fa 3a 0a bd 66 95 89 bc 27 07 66 bd
       -0.107715905 -0.03374765 -0.016794872 -0.056159165

bn1.weight f4 [128]
000000 d4 20 c4 3e 2c 5c 23 3f e2 b1 54 3f fb 05 15 3f
       0.38306296 0.6381252 0.8308393 0.5821225
000010 7f 8a 01 3f 4c 4f 9b 3e 9e 38 2d 3e 20 c0 b1 3d
       0.50601953 0.30333936 0.16916129 0.08679223
000020 63 62 0a 3e 61 4b 4b 3f 25 64 25 3f a1 b1 2f 3f
       0.13514094 0.79411894 0.64605933 0.68630415
000030 61 a7 14 3f 7c 6a d5 3e ba ce 33 3f 3e d3 2b 3f
       0.580679 0.41682804 0.70237315 0.67119205
000040 2d cd 47 3d 4b a4 2e 3f 09 c7 ba 3e 06 3d 8c 3e
       0.048779655 0.6821944 0.36479977 0.27390307
000050 51 fa fc 3e 85 2b 56 3f 03 de 2c 3e 1b 99 b3 3e
       0.49409726 0.83660156 0.16881566 0.35077748
000060 33 b6 50 3f 9e 8d 2c 3e 06 95 25 3f 54 95 ca 3e
       0.81528014 0.16850898 0.64680517 0.39567053
000070 5f 15 90 3e d2 61 2e 3f 0c 58 ec 3e 97 62 b5 3e
       0.28141305 0.6811801 0.46160924 0.3542678
000080 43 9b 68 3f c9 47 e7 3d 9a 7d 0f 3e 1a 9f 07 3f
       0.9086191 0.11292989 0.14012757 0.52977145
000090 d6 c8 c7 3e 2e 96 fc 3e 62 dc 3a 3f 76 a3 51 3f
       0.39020413 0.49333328 0.7299253 0.81890047
0000a0 35 96 3e 3e b2 22 1b 3f 1e dd 38 3f 30 04 02 3f
       0.18611987 0.60599816 0.722124 0.5078764
0000b0 09 38 8b 3e da a0 3a 3f 8b ff db 3e fb 7f 1d 3f
       0.2719119 0.7290169 0.429684 0.6152341
0000c0 29 fd dc 3e 8d 92 6b 3e c9 17 5b 3e 7c a3 2f 3f
       0.43161896 0.23005123 0.21395792 0.6860883
0000d0 b7 34 1d 3e c1 d9 15 3f 5a f6 1a 3f 93 f3 d4 3e
       0.1535214 0.5853539 0.6053215 0.41592082
0000e0 52 5f d2 3e 3d 9f e2 3d 10 a3 41 3f a3 42 a8 3e
       0.4108835 0.110655285 0.7563944 0.3286334
0000f0 9f 08 66 3f f7 c5 d4 3e ed f6 18 3f 4e 31 cc 3e
       0.89856905 0.41557285 0.5975178 0.39881366
000100 42 43 6b 3f 76 af 26 3e 90 d2 08 3f 27 5b 42 3e
       0.918995 0.1627787 0.5344629 0.18980084
000110 da b3 0f 3f 3a 18 9b 3e e3 36 e2 3e 91 f5 07 3f
       0.56133807 0.3029192 0.441825 0.5310908
000120 28 12 8a 3e ba da c5 3e 63 ea 26 3f 05 59 53 3e
       0.26966977 0.38643438 0.65201396 0.20639427
000130 3f fc 90 3d 40 70 d7 3e 2a 15 0a 3f 66 13 37 3f
       0.07079362 0.42077827 0.53938544 0.71513975
000140 e5 7a 3a 3f db ad 59 3d 78 07 80 3e f4 80 2e 3f
       0.7284377 0.053144317 0.25005698 0.68165517
000150 66 74 0c 3e 22 0b 31 3f 26 82 c2 3e 63 73 fb 3e
       0.13716277 0.6915761 0.3798992 0.4911147
000160 ac f2 35 3f 1e df 39 3e 70 9e dd 3e cc 73 27 3f
       0.7107341 0.18151519 0.4328494 0.65411067
000170 c1 05 89 3e f1 0a 5a 3f 41 89 13 3f 34 bd 2d 3f
       0.26762202 0.85172945 0.5763131 0.67866826
000180 cc 96 d6 3e 1c 1b 03 3f 4c e5 4d 3f 0c d0 09 3f
       0.41911924 0.5121324 0.80428004 0.5383308
000190 bf 9e ef 3d a5 f7 b1 3d 90 de bf 3e 6d 7a 11 3f
       0.117002 0.086898126 0.3747449 0.5682743
0001a0 7c 80 bb 3d c7 ee 67 3f 20 6f f7 3e e8 57 ed 3d
       0.09155366 0.9059872 0.4832697 0.115890324
0001b0 e9 9d c5 3c ea c3 44 3f e1 59 8c 3e 4b 4a 8f 3e
       0.024123149 0.7686144 0.27412322 0.2798637
0001c0 e5 85 7b 3e 2a da af 3d ec 4f 02 3f 1c af ec 3e
       0.24562795 0.08586533 0.509032 0.46227348
0001d0 28 22 bb 3e bf ac 11 3f 15 78 8f 3e a2 15 03 3f
       0.36549497 0.56904215 0.28021303 0.51204884
0001e0 a9 5f 20 3e 7a c4 d9 3d 60 04 9c 3e c5 1c 20 3f
       0.15661491 0.10633178 0.30472088 0.625439
0001f0 93 b8 16 3f 6d fe b8 3e 0f d1 7a 3e 29 8e 2e 3f
       0.5887539 0.3613161 0.24493812 0.6818567

bn1.bias f4 [128]
000000 51 8a 77 bb 66 40 9d bd a4 80 84 bd a9 24 fe bd
       -0.0037771652 -0.07678299 -0.06469849 -0.12409336
000010 3b 07 01 3d f6 ce 17 3a 3a da 0c be 89 cf 96 bd
       0.031501036 0.00057910325 -0.13755122 -0.07363803
000020 8a c7 dd bd bb 6a df 3d d3 47 3f bd 89 e0 a5 bd
       -0.10829075 0.10909029 -0.046699356 -0.08099467
000030 49 25 15 be 72 7d 86 bd 27 25 d5 3c 55 e8 2f be
       -0.14565004 -0.065668955 0.026018692 -0.17178471
000040 44 a2 61 be e2 9c 92 bd 23 1c 43 ba fe 09 26 bc
       -0.22034556 -0.07158829 -0.00074428524 -0.010134218
000050 90 79 3a bd 01 23 74 bd 9c 9b 03 be b0 12 f6 3d
       -0.045526087 -0.059603695 -0.12852329 0.12015283
000060 9a d9 9e bd 2f e2 19 be 8d a2 8d bd 55 0d 21 be
       -0.07756348 -0.15027688 -0.0691577 -0.15727742
000070 e4 0e e1 bd bc d4 87 3d c3 e2 dc bd 8d 52 19 be
       -0.10989168 0.06632373 -0.10785439 -0.14972897
000080 6b 33 0c bd e2 44 36 3e 46 35 e8 bb 42 d6 a9 bd
       -0.034228723 0.17799714 -0.007086429 -0.082928196
000090 61 65 0a bd b1 94 33 bd 6e e6 cb 3a c4 9c ad bd
       -0.03378809 -0.043842975 0.0015556344 -0.08477166
0000a0 32 2b 8c 3c 9e 09 87 bd ee 0d 1a bd c9 65 c8 bd
       0.01711044 -0.06593631 -0.03761094 -0.09785039
0000b0 72 ff ce 3d 3b 22 91 bd 2b 16 87 bd f6 fd 67 bd
       0.10107316 -0.07086607 -0.06596025 -0.05663868
0000c0 6a 46 59 3c 13 aa 4c bd 35 06 da bc 98 d8 04 bb
       0.013261417 -0.049966883 -0.026614288 -0.0020270701
0000d0 0a a2 c1 3d 08 bb 4e 3e b5 a5 24 3d a2 80 9c bc
       0.094547346 0.20188534 0.040197093 -0.019104306
0000e0 b1 2a 91 bd fe af 16 3c ab 69 99 bd 22 bf 84 3c
       -0.07088221 0.009197233 -0.07490858 0.01620442
0000f0 76 d3 90 bc 99 c5 db bd 6f 81 e1 bc 99 9b e8 bd
       -0.017678957 -0.10731048 -0.027527539 -0.11357803
000100 d9 b8 07 bd 89 49 02 be 43 85 cc bd 3f 36 c1 bd
       -0.03313527 -0.12723364 -0.09986355 -0.09434175
000110 80 45 01 3d 1a c1 19 3e 4f aa f9 bd d9 5d 9e bd
       0.03156042 0.15015069 -0.12190687 -0.07732744
000120 02 06 6d 3e 6a 8c cd bc 05 f5 78 bc ab 8c 00 3e
       0.23146823 -0.025091369 -0.015195136 0.1255366
000130 2b 92 47 be 58 c9 05 be 87 4e 57 bc 62 cb d9 bb
       -0.19489352 -0.13065088 -0.013141281 -0.0066465596
000140 8c 60 dc bd 72 69 2a 3e 6f 95 5e bd 8e 7f ab bd
       -0.10760602 0.16641787 -0.05434173 -0.083739385
000150 39 bd 74 3d 70 30 cf bc da 5f 95 bc ec cf d3 3c
       0.05975077 -0.025291651 -0.018234182 0.02585598
000160 bc f6 0a 3d 15 41 ff bd 08 11 c3 bd e6 43 e3 bd
       0.03392671 -0.12463585 -0.09524733 -0.11096935
000170 36 43 da bd de 12 65 3c 1e 2a 6f bb 02 5e eb bd
       -0.10657351 0.013981549 -0.003649361 -0.1149254
000180 ac 20 54 bd 02 a0 01 3d 6a 44 47 be c4 84 8f be
       -0.05178897 0.031646736 -0.19459692 -0.2803098
000190 43 48 cb 3d 58 56 46 be 14 c5 5b bd 6b 95 e6 bd
       0.09925892 -0.19368875 -0.053654745 -0.11258968
0001a0 42 95 f9 bd 9b 55 9a bd f4 fa 41 bd 8b 22 c3 bd
       -0.12186672 -0.07535859 -0.04735847 -0.09528073
0001b0 65 66 42 3e a7 20 a0 3d b9 0b 09 3c 6f 47 6e 3d
       0.18984373 0.07818728 0.008364611 0.058173593
0001c0 7d 68 6c 3e a4 43 ad bd 24 16 0e bd 92 43 b1 bc
       0.23086734 -0.08460167 -0.034689084 -0.021638665
0001d0 ee 9d 1b bc bc 7b 33 bd 6f 85 50 bd 04 d5 09 be
       -0.009498103 -0.043819174 -0.050908502 -0.13460165
0001e0 fc f8 d0 bd 18 38 07 be c7 64 9f bd 6f 00 be 3d
       -0.1020374 -0.13204992 -0.07782894 0.092774265
0001f0 8a e5 a9 bd 9b c8 0c be 67 19 23 be ef 92 1e be
       -0.08295734 -0.137484 -0.15927659 -0.15485738

bn1.running_mean f4 [128]
000000 17 10 02 3e 21 d4 c7 3e 67 4d a2 3e c5 b6 91 3d
       0.1270145 0.3902903 0.31699678 0.07114939
000010 b6 dd ba 3d 90 73 17 3f a9 9a b1 3d fe 85 a3 3b
       0.09124319 0.5916071 0.08672077 0.0049903383
000020 4c 70 8b 3e 06 96 f9 3e d4 17 2c 3e ef 68 e1 3d
       0.27234113 0.4874727 0.16805965 0.110063426
000030 41 2f 50 3e 67 30 ab 3d f8 e2 d3 3e e0 5b 57 3e
       0.20330526 0.083588414 0.413841 0.21031141
000040 18 3e 45 3e 35 67 b6 3d 00 19 e4 3d c3 55 ff 3d
       0.19261968 0.08906404 0.11137581 0.124675296
000050 02 0e 83 3d 41 0c 9f 3e f2 0a 61 3e d8 64 82 3e
       0.06399156 0.31064036 0.21976832 0.25467563
000060 0e f7 13 3e b6 84 df 3d 11 d2 64 3e 95 08 62 3e
       0.14449713 0.109139845 0.22345759 0.22073586
000070 06 91 e2 3d 2e c9 54 3e c3 cc 86 3e 3e 0e fb 3e
       0.11062817 0.20779869 0.26328096 0.49034303
000080 ad 9d b2 3e a6 c2 b1 3e b1 ca 29 3e 72 8e 8a 3d
       0.34885922 0.34718817 0.16581227 0.067654505
000090 d0 47 0c 3e 2e 0f f0 3a ba 6d 14 3e 10 0c b7 3e
       0.1369927 0.0018315071 0.14494982 0.3575139
0000a0 b6 d6 1d 3e e4 b3 ee 3d a2 e3 4b 3e e8 b2 49 3e
       0.15413937 0.11655405 0.19911054 0.19697154
0000b0 aa c7 22 3e 39 1e 38 3e 67 9c e4 3c 59 92 12 3e
       0.15896478 0.17980279 0.02790661 0.1431364
0000c0 33 b8 22 3d cc a1 a5 3e 70 f2 81 3e c1 8a a6 3e
       0.039726447 0.32350004 0.25380278 0.32527736
0000d0 64 06 80 3c 32 ef 1d 3e 16 f2 c5 3d 4c e8 3a 3c
       0.015628047 0.15423277 0.09665315 0.011407923
0000e0 e4 50 04 3d 4a 4c 99 3d c1 b4 e6 3c e7 86 84 3e
       0.032303706 0.07485254 0.028162362 0.25884172
0000f0 77 aa 91 3e 31 61 9e 3e 93 33 33 3e 9c a1 a7 3d
       0.28450367 0.30933526 0.17500143 0.081851214
000100 ff 2d bc 3d e8 f4 26 3f ef 59 14 3f 07 f8 ca 3e
       0.091884606 0.6521745 0.5794973 0.39642355
000110 dc 0b 90 3d e3 05 de 3d f2 e3 f6 3e 14 cd c7 3c
       0.07033512 0.108409666 0.48220783 0.024389781
000120 d0 a1 09 3f e9 04 f9 3d 7c dc 54 3e 11 8d 8a 3e
       0.5376253 0.1215914 0.20787233 0.2706075
000130 f4 18 9c 3e 8f 37 28 3e 34 3d 86 3e d3 c3 4c 3e
       0.30487788 0.16427444 0.2621857 0.19996576
000140 9d f8 24 3e 3f 9a 62 3f 20 5c 3c 3d 4f a2 57 3d
       0.16110463 0.8851661 0.045986295 0.052645024
000150 48 ae c4 3d 15 dd fa 3c 22 52 30 3e 66 49 a8 3e
       0.09603554 0.030622998 0.17218831 0.328685
000160 37 ec 5c 3f 70 5b 9b 3d f8 65 15 3d e8 2f e0 3d
       0.86297935 0.075858 0.036474198 0.109466374
000170 46 64 9a 3e 43 b1 f4 3d 46 2c 05 3f cd ee 43 3e
       0.30154628 0.119478725 0.5202068 0.19134064
000180 6a 73 6b 3e 76 d9 f2 3e f9 0b e9 3d 9d b2 01 3f
       0.22993246 0.47431535 0.11379237 0.5066317
000190 a3 ed 59 3d 3f fb f0 3e 33 99 2c 3e e8 eb 30 3f
       0.053205144 0.47066686 0.16855316 0.69109964
0001a0 3b 08 e2 3d e2 ce 2a 3d 56 81 02 3e ba 2c d5 3a
       0.11036726 0.041701205 0.1274465 0.001626394
0001b0 14 ed ea 3d c2 d7 68 3e 71 8f 88 3e 8c 8e 5a 3d
       0.11471 0.22738555 0.26671937 0.0533586
0001c0 83 f6 e9 3e 23 4b 3f 3f 9c 45 7d 3e 44 b2 80 3e
       0.45695886 0.74724025 0.24733585 0.25136006
0001d0 fa f4 4a 3e 50 6b fe 3e 86 fd ab 3e f6 45 0f 3f
       0.19820014 0.49691248 0.3359186 0.55966127
0001e0 0b 55 dd 3c 20 36 41 38 85 36 e4 3d 51 97 ab 3f
       0.02701809 4.6065194e-05 0.11143211 1.3405553
0001f0 0c 86 82 3e 34 35 b2 3d 5c 34 dd 3e 1e c1 04 3f
       0.25492895 0.08701554 0.4320401 0.51857173

bn1.running_var f4 [128]
000000 a1 7a 01 3d e5 2c de 3d 10 16 80 3e 8c 73 cf 3c
       0.03161109 0.10848407 0.25016832 0.025323652
000010 82 2a 5c 3d 7b 58 be 3d 38 27 4a 3d e9 d9 11 3b
       0.053751476 0.0929422 0.04935381 0.0022255129
000020 31 c0 2b 3e 50 fd 58 3e 6b 0c 4b 3d ac 42 20 3d
       0.16772534 0.21190381 0.04957239 0.039126083
000030 12 c5 05 3e 25 8f 45 3d 51 ec 8f 3e 03 ad 49 3e
       0.13063458 0.048232216 0.28109983 0.19694905
000040 8a 77 03 3e 0f a8 b9 3c e5 09 1e 3d d7 2d 7b 3d
       0.1283857 0.022663144 0.038583655 0.061323013
000050 c0 a4 cf 3c 64 2a 0e 3e 75 ee 29 3e ec b4 f9 3d
       0.025347114 0.13883358 0.1659487 0.12192711
000060 ac a5 80 3d 43 0a 5d 3d 02 a3 0e 3e 41 e5 0a 3e
       0.062815994 0.053964864 0.1392937 0.13564016
000070 fb 85 29 3d 29 22 6d 3d cc 11 1d 3e 09 a4 cb 3e
       0.04138754 0.057893906 0.1533882 0.39773586
000080 e4 50 4d 3e 52 a9 2e 3e 77 33 c4 3d 5b 81 90 3c
       0.20050389 0.17056778 0.09580129 0.017639806
000090 81 80 7f 3d be e9 55 3a f9 ae 21 3d 58 c7 2f 3e
       0.06237841 0.00081601355 0.039473508 0.17165887
0000a0 02 3c 11 3e 32 fd 3d 3d 52 06 27 3e e9 f1 41 3d
       0.14183047 0.046384044 0.16311005 0.047349844
0000b0 53 30 71 3d 37 b8 36 3e 07 25 9b 3b 80 10 36 3d
       0.058883976 0.1784371 0.0047346386 0.04444933
0000c0 d5 0d 6d 3c 4d 33 87 3e 56 1b e4 3d 8d 7e 22 3e
       0.01446863 0.26406327 0.111380264 0.15868588
0000d0 2f b2 dc 3b 77 e0 dd 3d 24 88 c5 3c 83 a2 57 3b
       0.0067351083 0.10833829 0.024112768 0.003290326
0000e0 59 11 e3 3b 53 21 04 3d f4 2c 36 3c d4 6b 86 3e
       0.0069295582 0.032258343 0.011119116 0.2625414
0000f0 80 63 b1 3d 64 91 42 3e fb be 4c 3d d2 2b d6 3c
       0.08661556 0.19000775 0.04998682 0.026143942
000100 03 3f cf 3c 3d b7 d6 3e 8d 06 0b 3f d9 b0 86 3e
       0.025298601 0.41936675 0.5430687 0.263068
000110 36 7c 9b 3c 9f ed eb 3c 2c 96 ad 3e 57 3c ff 3b
       0.018980127 0.02879983 0.33903635 0.0077891755
000120 c5 bf 4c 3e 16 b2 8f 3d 1f 5c c3 3d f7 1c ce 3d
       0.1999503 0.07016389 0.09539055 0.10064118
000130 05 83 69 3e 23 86 8c 3d 11 20 c6 3d 24 92 d4 3d
       0.22803886 0.06861522 0.09674085 0.103794366
000140 5c 14 11 3d ec 18 9f 3e c9 da 1e 3c 76 d2 69 3c
       0.035419807 0.310737 0.009695717 0.014271369
000150 29 35 0d 3d a9 3b 96 3b 90 24 66 3d aa 93 04 3e
       0.034474526 0.0045847488 0.056187212 0.12946954
000160 ec 92 df 3e a2 26 6c 3d 86 a2 57 3c 02 44 47 3d
       0.4366678 0.05765403 0.013161307 0.04864884
000170 7d 8e 04 3e f3 48 88 3d f0 8d 2f 3e d5 b8 ac 3d
       0.1294498 0.06654539 0.17143989 0.084336914
000180 84 df a9 3d 88 c0 9f 3e 7e 0c 19 3d c2 bd f8 3e
       0.08294585 0.31201577 0.03736543 0.48582274
000190 0c 67 c2 3c fc 9c a3 3e dd e1 54 3d ae 72 43 3e
       0.023730777 0.31955707 0.051973213 0.19086716
0001a0 fa 62 28 3d 3b 54 4b 3c a5 1e 74 3d f8 f0 8e 3a
       0.041110016 0.012410219 0.059599537 0.0010905555
0001b0 06 21 a1 3d 81 11 98 3d 39 e1 43 3e cd b2 56 3c
       0.07867627 0.074252136 0.19128884 0.013104153
0001c0 91 ca 4f 3e 2c 85 21 3f 71 ac 34 3e 2f 81 03 3e
       0.20292117 0.6309383 0.17643906 0.12842248
0001d0 b2 5b 61 3d 84 f8 b0 3e d0 95 2c 3e 9e b3 b8 3e
       0.055019088 0.34564602 0.16854024 0.36074537
0001e0 db c5 01 3c 70 42 a8 37 d6 a2 29 3d 24 06 30 3e
       0.007920708 2.0058098e-05 0.041415058 0.17189842
0001f0 4b e0 22 3e 79 f4 e3 3c b3 63 c2 3e 2f 57 b1 3e
       0.15905873 0.027826535 0.3796669 0.34636828

bn2.weight f4 [128]
000000 7a 09 c5 3e 60 35 e7 3d d5 cc 55 3f 3f 58 50 3f
       0.38483793 0.11289477 0.83515674 0.8138465
000010 dc c9 66 3e 4e 2f 69 3f 65 67 48 3f 88 a7 b0 3e
       0.2253794 0.91087806 0.7828277 0.34502816
000020 58 19 14 3f 6c 3f dc 3e 66 00 01 3f 5c 72 01 3f
       0.5785117 0.43017137 0.5039123 0.50565124
000030 58 4c af 3d 20 a9 44 3d 44 e3 cc 3e 42 48 a2 3e
       0.08559483 0.048012853 0.4001714 0.31695753
000040 8f 39 49 3f 20 d5 4f 3f 54 d6 4d 3e 27 9b 4c 3f
       0.7860345 0.8118458 0.20101291 0.79924244
000050 00 e3 dc 3e d3 8d 2c 3f d4 ca 3e 3f af 53 4d 3f
       0.43141937 0.67403907 0.7452824 0.80205816
000060 34 d7 36 3f e6 43 6b 3f 4d 31 58 3f c8 77 5f 3f
       0.71422124 0.9190048 0.8445023 0.87292147
000070 7a f8 f9 3e ec 9a a2 3e 74 4c 46 3f b5 ef 2b 3f
       0.48822385 0.3175882 0.7746041 0.6716264
000080 a1 0d 31 3f 19 de 27 3f 78 90 8c 3d d1 a8 58 3f
       0.6916142 0.6557327 0.06863493 0.84632593
000090 8e 50 96 3e cc 9c 0e 3f 10 4a 29 3d be d8 09 3f
       0.29358333 0.55708003 0.041330397 0.5384635
0000a0 c6 fd 8c 3e 56 7b 51 3f ae 4f aa 3e 14 47 44 3f
       0.27537364 0.8182882 0.33263916 0.76670957
0000b0 55 b2 78 3f b8 85 f2 3e 08 8d 9b 3e 80 7d 29 3d
       0.97147113 0.47367644 0.30381036 0.04137945
0000c0 66 68 e2 3e 8b 04 11 3f ba a3 47 3f 1e 5f 2a 3f
       0.44220275 0.5664756 0.779842 0.6655139
0000d0 f7 7e 39 3f 0a 10 f2 3e e2 0d d4 3e 12 71 aa 3e
       0.7245936 0.47277862 0.41416842 0.3328939
0000e0 82 d7 d6 3e 73 46 6c 3f 12 01 19 3f e0 d3 8f 3c
       0.41961294 0.92294997 0.5976726 0.017557085
0000f0 40 1a ed 3c a4 b4 d5 3e fa 46 df 3e 8e a6 2b 3f
       0.028943181 0.4173938 0.43608838 0.6705102
000100 5a 36 e3 3e e3 b9 53 3f f7 99 17 3f 10 9d 33 3f
       0.44377404 0.82705516 0.59219307 0.70161533
000110 d6 f5 b3 3e 68 06 65 3e 2c ac cd 3e 64 28 3e 3e
       0.35148495 0.22365725 0.4017042 0.18570095
000120 97 1c 7a 3f 20 a6 07 3d 28 fc 27 3e f0 25 1b 3d
       0.97699875 0.033117414 0.16404784 0.037877977
000130 80 65 f7 3b 32 f3 7b 3f 23 95 7e 3f ae de ab 3e
       0.0075499415 0.9841796 0.99446315 0.3356833
000140 35 f2 76 3f 70 39 89 3e da f8 ae 3e c6 fe 72 3f
       0.9646333 0.26801634 0.34174234 0.94920003
000150 07 83 14 3f 98 8c fa 3e 1a 31 f0 3e 9e f2 4d 3f
       0.5801243 0.4893539 0.46912462 0.8044833
000160 f6 88 35 3f 9e c9 38 3f 38 c4 f9 3d 74 8b 6e 3e
       0.7091211 0.72182643 0.12195629 0.23295385
000170 eb cb 76 3f c8 fb ff 3e f0 d3 e9 3d 9c e3 9f 3e
       0.96404904 0.4999678 0.11417377 0.3122834
000180 6f be 37 3f 1b 08 7a 3f 8e 7f 90 3e 00 03 ec 3d
       0.71774954 0.9766862 0.28222317 0.1152401
000190 2d b6 37 3f 43 11 25 3f 80 41 ef 3e 68 92 41 3e
       0.71762353 0.64479464 0.4672966 0.18903506
0001a0 3c 8a 39 3e 01 0d 56 3f a3 1f 27 3f b4 b5 99 3e
       0.18119138 0.8361359 0.6528265 0.3002144
0001b0 44 f5 bf 3e f4 89 20 3f 32 a6 2c 3f f8 84 41 3f
       0.3749181 0.627105 0.67441094 0.7559352
0001c0 d2 1d 16 3f f4 1d 5b 3e 73 8c 15 3f e0 98 4f 3d
       0.5863925 0.21398145 0.58417434 0.050682902
0001d0 b0 1f 7c 3d 79 28 5b 3f 00 34 d5 3d 03 00 07 3f
       0.061553657 0.8560863 0.10410309 0.5273439
0001e0 94 ed 4b 3e 31 b0 3e 3f 90 44 94 3d 50 14 17 3d
       0.19914848 0.74487597 0.0723964 0.036884606
0001f0 0b ca 4c 3f f0 cb 05 3e c0 55 a7 3c 22 32 53 3f
       0.79995793 0.13066077 0.020426631 0.8249837

bn2.bias f4 [128]
000000 00 00 00 00 00 00 00 00 00 00 00 00 00 00 00 00
       0.0 0.0 0.0 0.0
000010 00 00 00 00 00 00 00 00 00 00 00 00 00 00 00 00
       0.0 0.0 0.0 0.0
000020 00 00 00 00 00 00 00 00 00 00 00 00 00 00 00 00
       0.0 0.0 0.0 0.0
000030 00 00 00 00 00 00 00 00 00 00 00 00 00 00 00 00
       0.0 0.0 0.0 0.0
000040 00 00 00 00 00 00 00 00 00 00 00 00 00 00 00 00
       0.0 0.0 0.0 0.0
000050 00 00 00 00 00 00 00 00 00 00 00 00 00 00 00 00
       0.0 0.0 0.0 0.0
000060 00 00 00 00 00 00 00 00 00 00 00 00 00 00 00 00
       0.0 0.0 0.0 0.0
000070 00 00 00 00 00 00 00 00 00 00 00 00 00 00 00 00
       0.0 0.0 0.0 0.0
000080 00 00 00 00 00 00 00 00 00 00 00 00 00 00 00 00
       0.0 0.0 0.0 0.0
000090 00 00 00 00 00 00 00 00 00 00 00 00 00 00 00 00
       0.0 0.0 0.0 0.0
0000a0 00 00 00 00 00 00 00 00 00 00 00 00 00 00 00 00
       0.0 0.0 0.0 0.0
0000b0 00 00 00 00 00 00 00 00 00 00 00 00 00 00 00 00
       0.0 0.0 0.0 0.0
0000c0 00 00 00 00 00 00 00 00 00 00 00 00 00 00 00 00
       0.0 0.0 0.0 0.0
0000d0 00 00 00 00 00 00 00 00 00 00 00 00 00 00 00 00
       0.0 0.0 0.0 0.0
0000e0 00 00 00 00 00 00 00 00 00 00 00 00 00 00 00 00
       0.0 0.0 0.0 0.0
0000f0 00 00 00 00 00 00 00 00 00 00 00 00 00 00 00 00
       0.0 0.0 0.0 0.0
000100 00 00 00 00 00 00 00 00 00 00 00 00 00 00 00 00
       0.0 0.0 0.0 0.0
000110 00 00 00 00 00 00 00 00 00 00 00 00 00 00 00 00
       0.0 0.0 0.0 0.0
000120 00 00 00 00 00 00 00 00 00 00 00 00 00 00 00 00
       0.0 0.0 0.0 0.0
000130 00 00 00 00 00 00 00 00 00 00 00 00 00 00 00 00
       0.0 0.0 0.0 0.0
000140 00 00 00 00 00 00 00 00 00 00 00 00 00 00 00 00
       0.0 0.0 0.0 0.0
000150 00 00 00 00 00 00 00 00 00 00 00 00 00 00 00 00
       0.0 0.0 0.0 0.0
000160 00 00 00 00 00 00 00 00 00 00 00 00 00 00 00 00
       0.0 0.0 0.0 0.0
000170 00 00 00 00 00 00 00 00 00 00 00 00 00 00 00 00
       0.0 0.0 0.0 0.0
000180 00 00 00 00 00 00 00 00 00 00 00 00 00 00 00 00
       0.0 0.0 0.0 0.0
000190 00 00 00 00 00 00 00 00 00 00 00 00 00 00 00 00
       0.0 0.0 0.0 0.0
0001a0 00 00 00 00 00 00 00 00 00 00 00 00 00 00 00 00
       0.0 0.0 0.0 0.0
0001b0 00 00 00 00 00 00 00 00 00 00 00 00 00 00 00 00
       0.0 0.0 0.0 0.0
0001c0 00 00 00 00 00 00 00 00 00 00 00 00 00 00 00 00
       0.0 0.0 0.0 0.0
0001d0 00 00 00 00 00 00 00 00 00 00 00 00 00 00 00 00
       0.0 0.0 0.0 0.0
0001e0 00 00 00 00 00 00 00 00 00 00 00 00 00 00 00 00
       0.0 0.0 0.0 0.0
0001f0 00 00 00 00 00 00 00 00 00 00 00 00 00 00 00 00
       0.0 0.0 0.0 0.0

bn2.running_mean f4 [128]
000000 00 00 00 00 00 00 00 00 00 00 00 00 00 00 00 00
       0.0 0.0 0.0 0.0
000010 00 00 00 00 00 00 00 00 00 00 00 00 00 00 00 00
       0.0 0.0 0.0 0.0
000020 00 00 00 00 00 00 00 00 00 00 00 00 00 00 00 00
       0.0 0.0 0.0 0.0
000030 00 00 00 00 00 00 00 00 00 00 00 00 00 00 00 00
       0.0 0.0 0.0 0.0
000040 00 00 00 00 00 00 00 00 00 00 00 00 00 00 00 00
       0.0 0.0 0.0 0.0
000050 00 00 00 00 00 00 00 00 00 00 00 00 00 00 00 00
       0.0 0.0 0.0 0.0
000060 00 00 00 00 00 00 00 00 00 00 00 00 00 00 00 00
       0.0 0.0 0.0 0.0
000070 00 00 00 00 00 00 00 00 00 00 00 00 00 00 00 00
       0.0 0.0 0.0 0.0
000080 00 00 00 00 00 00 00 00 00 00 00 00 00 00 00 00
       0.0 0.0 0.0 0.0
000090 00 00 00 00 00 00 00 00 00 00 00 00 00 00 00 00
       0.0 0.0 0.0 0.0
0000a0 00 00 00 00 00 00 00 00 00 00 00 00 00 00 00 00
       0.0 0.0 0.0 0.0
0000b0 00 00 00 00 00 00 00 00 00 00 00 00 00 00 00 00
       0.0 0.0 0.0 0.0
0000c0 00 00 00 00 00 00 00 00 00 00 00 00 00 00 00 00
       0.0 0.0 0.0 0.0
0000d0 00 00 00 00 00 00 00 00 00 00 00 00 00 00 00 00
       0.0 0.0 0.0 0.0
0000e0 00 00 00 00 00 00 00 00 00 00 00 00 00 00 00 00
       0.0 0.0 0.0 0.0
0000f0 00 00 00 00 00 00 00 00 00 00 00 00 00 00 00 00
       0.0 0.0 0.0 0.0
000100 00 00 00 00 00 00 00 00 00 00 00 00 00 00 00 00
       0.0 0.0 0.0 0.0
000110 00 00 00 00 00 00 00 00 00 00 00 00 00 00 00 00
       0.0 0.0 0.0 0.0
000120 00 00 00 00 00 00 00 00 00 00 00 00 00 00 00 00
       0.0 0.0 0.0 0.0
000130 00 00 00 00 00 00 00 00 00 00 00 00 00 00 00 00
       0.0 0.0 0.0 0.0
000140 00 00 00 00 00 00 00 00 00 00 00 00 00 00 00 00
       0.0 0.0 0.0 0.0
000150 00 00 00 00 00 00 00 00 00 00 00 00 00 00 00 00
       0.0 0.0 0.0 0.0
000160 00 00 00 00 00 00 00 00 00 00 00 00 00 00 00 00
       0.0 0.0 0.0 0.0
000170 00 00 00 00 00 00 00 00 00 00 00 00 00 00 00 00
       0.0 0.0 0.0 0.0
000180 00 00 00 00 00 00 00 00 00 00 00 00 00 00 00 00
       0.0 0.0 0.0 0.0
000190 00 00 00 00 00 00 00 00 00 00 00 00 00 00 00 00
       0.0 0.0 0.0 0.0
0001a0 00 00 00 00 00 00 00 00 00 00 00 00 00 00 00 00
       0.0 0.0 0.0 0.0
0001b0 00 00 00 00 00 00 00 00 00 00 00 00 00 00 00 00
       0.0 0.0 0.0 0.0
0001c0 00 00 00 00 00 00 00 00 00 00 00 00 00 00 00 00
       0.0 0.0 0.0 0.0
0001d0 00 00 00 00 00 00 00 00 00 00 00 00 00 00 00 00
       0.0 0.0 0.0 0.0
0001e0 00 00 00 00 00 00 00 00 00 00 00 00 00 00 00 00
       0.0 0.0 0.0 0.0
0001f0 00 00 00 00 00 00 00 00 00 00 00 00 00 00 00 00
       0.0 0.0 0.0 0.0

bn2.running_var f4 [128]
000000 00 00 80 3f 00 00 80 3f 00 00 80 3f 00 00 80 3f
       1.0 1.0 1.0 1.0
000010 00 00 80 3f 00 00 80 3f 00 00 80 3f 00 00 80 3f
       1.0 1.0 1.0 1.0
000020 00 00 80 3f 00 00 80 3f 00 00 80 3f 00 00 80 3f
       1.0 1.0 1.0 1.0
000030 00 00 80 3f 00 00 80 3f 00 00 80 3f 00 00 80 3f
       1.0 1.0 1.0 1.0
000040 00 00 80 3f 00 00 80 3f 00 00 80 3f 00 00 80 3f
       1.0 1.0 1.0 1.0
000050 00 00 80 3f 00 00 80 3f 00 00 80 3f 00 00 80 3f
       1.0 1.0 1.0 1.0
000060 00 00 80 3f 00 00 80 3f 00 00 80 3f 00 00 80 3f
       1.0 1.0 1.0 1.0
000070 00 00 80 3f 00 00 80 3f 00 00 80 3f 00 00 80 3f
       1.0 1.0 1.0 1.0
000080 00 00 80 3f 00 00 80 3f 00 00 80 3f 00 00 80 3f
       1.0 1.0 1.0 1.0
000090 00 00 80 3f 00 00 80 3f 00 00 80 3f 00 00 80 3f
       1.0 1.0 1.0 1.0
0000a0 00 00 80 3f 00 00 80 3f 00 00 80 3f 00 00 80 3f
       1.0 1.0 1.0 1.0
0000b0 00 00 80 3f 00 00 80 3f 00 00 80 3f 00 00 80 3f
       1.0 1.0 1.0 1.0
0000c0 00 00 80 3f 00 00 80 3f 00 00 80 3f 00 00 80 3f
       1.0 1.0 1.0 1.0
0000d0 00 00 80 3f 00 00 80 3f 00 00 80 3f 00 00 80 3f
       1.0 1.0 1.0 1.0
0000e0 00 00 80 3f 00 00 80 3f 00 00 80 3f 00 00 80 3f
       1.0 1.0 1.0 1.0
0000f0 00 00 80 3f 00 00 80 3f 00 00 80 3f 00 00 80 3f
       1.0 1.0 1.0 1.0
000100 00 00 80 3f 00 00 80 3f 00 00 80 3f 00 00 80 3f
       1.0 1.0 1.0 1.0
000110 00 00 80 3f 00 00 80 3f 00 00 80 3f 00 00 80 3f
       1.0 1.0 1.0 1.0
000120 00 00 80 3f 00 00 80 3f 00 00 80 3f 00 00 80 3f
       1.0 1.0 1.0 1.0
000130 00 00 80 3f 00 00 80 3f 00 00 80 3f 00 00 80 3f
       1.0 1.0 1.0 1.0
000140 00 00 80 3f 00 00 80 3f 00 00 80 3f 00 00 80 3f
       1.0 1.0 1.0 1.0
000150 00 00 80 3f 00 00 80 3f 00 00 80 3f 00 00 80 3f
       1.0 1.0 1.0 1.0
000160 00 00 80 3f 00 00 80 3f 00 00 80 3f 00 00 80 3f
       1.0 1.0 1.0 1.0
000170 00 00 80 3f 00 00 80 3f 00 00 80 3f 00 00 80 3f
       1.0 1.0 1.0 1.0
000180 00 00 80 3f 00 00 80 3f 00 00 80 3f 00 00 80 3f
       1.0 1.0 1.0 1.0
000190 00 00 80 3f 00 00 80 3f 00 00 80 3f 00 00 80 3f
       1.0 1.0 1.0 1.0
0001a0 00 00 80 3f 00 00 80 3f 00 00 80 3f 00 00 80 3f
       1.0 1.0 1.0 1.0
0001b0 00 00 80 3f 00 00 80 3f 00 00 80 3f 00 00 80 3f
       1.0 1.0 1.0 1.0
0001c0 00 00 80 3f 00 00 80 3f 00 00 80 3f 00 00 80 3f
       1.0 1.0 1.0 1.0
0001d0 00 00 80 3f 00 00 80 3f 00 00 80 3f 00 00 80 3f
       1.0 1.0 1.0 1.0
0001e0 00 00 80 3f 00 00 80 3f 00 00 80 3f 00 00 80 3f
       1.0 1.0 1.0 1.0
0001f0 00 00 80 3f 00 00 80 3f 00 00 80 3f 00 00 80 3f
       1.0 1.0 1.0 1.0
